pretrained_models/PianoSSM_S_MH_maestro_all_44100_model.pth (torch, 305349 bytes, 29 tensors)

seq_midi.1.seq.0.seq.C_bias f4 [88, 2]
000000 21 b6 0d 3e 00 00 00 00 2a 4a 39 3e 00 00 00 00
       0.13839008 0.0 0.18094698 0.0
000010 ec 2b 50 3e 00 00 00 00 7a 1d 52 bd 00 00 00 00
       0.20329255 0.0 -0.051297642 0.0
000020 18 74 f8 bd 00 00 00 00 ff 47 ef bd 00 00 00 00
       -0.12131518 0.0 -0.11683654 0.0
000030 95 80 55 bc 00 00 00 00 94 81 bc bb 00 00 00 00
       -0.013031145 0.0 -0.0057527516 0.0
000040 0f f6 08 be 00 00 00 00 4a 67 50 3e 00 00 00 00
       -0.13375114 0.0 0.20351902 0.0
000050 a9 83 6f 3e 00 00 00 00 d8 cc ec bd 00 00 00 00
       0.23390068 0.0 -0.11562508 0.0
000060 a2 91 cc bc 00 00 00 00 9a d1 14 bd 00 00 00 00
       -0.024971787 0.0 -0.036332704 0.0
000070 d8 67 02 be 00 00 00 00 f3 74 94 3d 00 00 00 00
       -0.12734926 0.0 0.07248869 0.0
000080 2b 72 87 3d 00 00 00 00 60 48 81 3d 00 00 00 00
       0.06613573 0.0 0.063126326 0.0
000090 25 5e 77 bd 00 00 00 00 2e 8d c3 3d 00 00 00 00
       -0.060392518 0.0 0.09548412 0.0
0000a0 b7 ea dc bd 00 00 00 00 5b 67 ba 3d 00 00 00 00
       -0.10786956 0.0 0.09101745 0.0
0000b0 12 1e bb 3d 00 00 00 00 63 00 f7 3d 00 00 00 00
       0.09136595 0.0 0.12060621 0.0
0000c0 dd 14 80 3e 00 00 00 00 c0 7f e0 3c 00 00 00 00
       0.25015917 0.0 0.027404666 0.0
0000d0 a9 b8 d0 3c 00 00 00 00 d5 37 0d 3d 00 00 00 00
       0.025478678 0.0 0.034477074 0.0
0000e0 5f 8b 70 be 00 00 00 00 c6 9c 95 3e 00 00 00 00
       -0.23490666 0.0 0.2922117 0.0
0000f0 f4 cf af 3c 00 00 00 00 cb 4e 97 bd 00 00 00 00
       0.021461464 0.0 -0.073880754 0.0
000100 5b ed ed bd 00 00 00 00 2b 13 85 3d 00 00 00 00
       -0.116175376 0.0 0.064977966 0.0
000110 8f e5 79 3a 00 00 00 00 79 50 f8 bd 00 00 00 00
       0.0009532803 0.0 -0.12124724 0.0
000120 c9 0d c3 3d 00 00 00 00 49 9e 5c 3d 00 00 00 00
       0.09524114 0.0 0.05386189 0.0
000130 02 46 b7 bd 00 00 00 00 4a 2b 21 bd 00 00 00 00
       -0.089489 0.0 -0.039347924 0.0
000140 18 42 9a 3e 00 00 00 00 59 05 78 bd 00 00 00 00
       0.3012855 0.0 -0.060551975 0.0
000150 4a 81 72 be 00 00 00 00 3e 2e 68 3d 00 00 00 00
       -0.23682132 0.0 0.056684725 0.0
000160 60 35 ab 3e 00 00 00 00 84 8d db bc 00 00 00 00
       0.3343916 0.0 -0.026800878 0.0
000170 c3 41 06 3d 00 00 00 00 a4 bb dd bc 00 00 00 00
       0.03277756 0.0 -0.027067013 0.0
000180 28 a4 84 be 00 00 00 00 91 6a 8d 3d 00 00 00 00
       -0.2590649 0.0 0.069050916 0.0
000190 3b f2 5f 3c 00 00 00 00 2a 3a b8 3b 00 00 00 00
       0.013668592 0.0 0.005622168 0.0
0001a0 12 26 2a 3d 00 00 00 00 a9 6d 0d 3e 00 00 00 00
       0.041540213 0.0 0.13811363 0.0
0001b0 23 a8 53 be 00 00 00 00 ff b0 f8 3c 00 00 00 00
       -0.20669608 0.0 0.030357836 0.0
0001c0 05 96 03 3e 00 00 00 00 38 be cf 3b 00 00 00 00
       0.12850197 0.0 0.0063398145 0.0
0001d0 7c 5f 39 3e 00 00 00 00 14 80 48 3e 00 00 00 00
       0.1810283 0.0 0.19580108 0.0
0001e0 dd 57 28 3e 00 00 00 00 fa 1e 33 be 00 00 00 00
       0.16439767 0.0 -0.17492285 0.0
0001f0 41 44 a5 3a 00 00 00 00 95 e9 31 3e 00 00 00 00
       0.0012608842 0.0 0.1737426 0.0
000200 be 98 6a be 00 00 00 00 13 d3 0c 3e 00 00 00 00
       -0.22909829 0.0 0.13752393 0.0
000210 ed 29 2b 3c 00 00 00 00 34 9c 95 be 00 00 00 00
       0.010447008 0.0 -0.29220736 0.0
000220 7d 9c 85 bd 00 00 00 00 94 d5 1c 3e 00 00 00 00
       -0.065239884 0.0 0.15315849 0.0
000230 d7 f1 25 3e 00 00 00 00 d8 4e 66 bd 00 00 00 00
       0.16205536 0.0 -0.056227535 0.0
000240 32 c4 c1 be 00 00 00 00 9f 93 ca be 00 00 00 00
       -0.37844998 0.0 -0.3956575 0.0
000250 ba 3c 4b bd 00 00 00 00 f2 58 6a 3d 00 00 00 00
       -0.04961846 0.0 0.05721373 0.0
000260 dd e6 ab 3c 00 00 00 00 df 44 46 3d 00 00 00 00
       0.020984108 0.0 0.048405524 0.0
000270 a8 8c 11 bd 00 00 00 00 f5 01 db bc 00 00 00 00
       -0.03553453 0.0 -0.026734332 0.0
000280 fd e5 bf 3e 00 00 00 00 8f 97 9f be 00 00 00 00
       0.37480155 0.0 -0.31170318 0.0
000290 cd 85 15 be 00 00 00 00 51 1d 28 be 00 00 00 00
       -0.14601822 0.0 -0.16417433 0.0
0002a0 c5 57 ed bd 00 00 00 00 b2 54 9e 3d 00 00 00 00
       -0.11589006 0.0 0.07730998 0.0
0002b0 b0 87 50 3d 00 00 00 00 09 b5 37 bd 00 00 00 00
       0.05091065 0.0 -0.044850383 0.0

seq_midi.1.seq.0.seq.C f4 [88, 64, 2]
000000 2c 91 6b bd 67 cb ba 3d 2b 63 88 3b ee 24 00 3d
       -0.057511494 0.09120827 0.0041622124 0.03128522
000010 d3 75 29 3d 27 30 01 3e 4a 5e 57 3c 79 d7 06 3b
       0.04137213 0.12616025 0.013145039 0.002057521
000020 2a c2 ef 3c 6f 69 a4 3c e4 e5 3c 3c 0e 07 a5 3b
       0.02926739 0.020069806 0.01152942 0.0050362414
000030 27 5c 0e 3c 7a c7 3c bd 6a 63 92 be fc d9 4c bd
       0.008688963 -0.046088673 -0.28591472 -0.050012574
000040 22 2f c9 bc 3c 4a 2a bb b0 5b a2 bc 20 e9 2b bd
       -0.024558607 -0.0025984189 -0.01981911 -0.041970372
000050 ed 27 0f 3c 96 7e 71 3c 65 07 fc bd d6 37 07 3e
       0.008737546 0.014739653 -0.12306098 0.13204893
000060 d8 25 97 bd 02 d9 1f 3e 6f b6 ad bb f5 48 18 3e
       -0.07380265 0.15610126 -0.005301289 0.14871581
000070 4b 0a 93 bb 2d be 8f 3c ef f5 4e 3e 73 a3 31 3c
       -0.004487311 0.017546738 0.20211004 0.010842192
000080 c0 ef 08 3e 25 f7 93 bd 94 a8 e4 bc c0 8f 2c 3e
       0.13372707 -0.072248735 -0.027912416 0.16851711
000090 2b 92 6e 3d 14 c4 4c be b0 c0 87 3b ee aa ee bc
       0.058244865 -0.19996673 0.004142843 -0.02913424
0000a0 39 de 3c bc d4 dd 80 3c f7 9a c7 bd da 88 76 3d
       -0.011527591 0.015730776 -0.09746354 0.060189106
0000b0 6c 1d ff bb d8 81 7a bb a3 18 4f bd e8 f3 01 bb
       -0.00778549 -0.0038224366 -0.050560605 -0.0019829217
0000c0 c8 6c 1d 3e 4d 7f e8 3d c1 aa 8a bc a8 8f 1a 3e
       0.15373528 0.11352406 -0.016927125 0.15093863
0000d0 54 ea 74 bc b9 06 4a 3c 69 9b ef 3d 71 a3 fc 3c
       -0.014948446 0.012330704 0.11699564 0.030839654
0000e0 7f 8c 17 3e d7 32 87 be 13 34 cc bc 2e 03 28 be
       0.14799689 -0.26405975 -0.024927175 -0.16407463
0000f0 3e ee 80 be 6e 5f 41 3c 88 57 1a be ce 11 7d bd
       -0.25181764 0.011802537 -0.15072453 -0.061784558
000100 70 bc 9d bd ab cc 54 3d 73 31 98 bd b9 b3 a2 3d
       -0.07701957 0.051953 -0.07431307 0.079444356
000110 e8 7a 62 3e a6 34 33 3e 4d f2 db ba 03 ef b1 3d
       0.22117198 0.17500553 -0.0016780585 0.08688166
000120 5c 3d cc 3b 16 5c fa 3b 85 31 d2 3c 1a dd 3c 3d
       0.0062329005 0.007640372 0.025658378 0.046109296
000130 aa 0d 96 bb 2d 06 ac 3d 3b e1 77 bb 6c 60 6f b9
       -0.0045792656 0.083996154 -0.0037823457 -0.00022828736
000140 3e 39 67 be 87 6b 23 3e 38 4e ef bd c3 bb a6 3e
       -0.2258043 0.15958987 -0.11684841 0.32565126
000150 85 16 44 3c 41 a1 84 b9 6d b1 73 3d 3c 8d 2a 3e
       0.01196826 -0.00025297145 0.05949538 0.16655439
000160 20 20 90 3b 9b 4f bc 3b 71 bf 54 bd f3 24 62 3d
       0.004398361 0.0057467944 -0.051940385 0.05521102
000170 fa 74 25 3b 5b 01 4d 3e f3 5a 02 bd 7f c2 21 bc
       0.0025246725 0.20020048 -0.031825017 -0.009873032
000180 f6 ef f8 3c 89 d6 c1 bc 38 34 db ba 8c fb 90 bb
       0.03038786 -0.023661869 -0.0016723936 -0.004424518
000190 57 a2 4a bd 64 c1 09 bd 8a 0e 5c be ce 4a b6 bd
       -0.049471226 -0.033631697 -0.21489921 -0.089009866
0001a0 e8 78 21 3d ee f1 6f 3e c8 64 59 3d 48 75 0c be
       0.039421946 0.23432133 0.053074628 -0.13716614
0001b0 73 3a 1c 3e a4 0e 8d ba f0 6d b5 3d d9 00 c6 3c
       0.15256672 -0.001076181 0.088588595 0.024170326
0001c0 98 5f 9c bd 87 78 3d bc ef 25 ac bd 15 34 85 bd
       -0.076354206 -0.0115643805 -0.08405673 -0.065040745
0001d0 c5 28 80 3e a6 5c f7 3d 20 6d 87 b9 f7 5b 9c 3b
       0.25031105 0.12078218 -0.0002583051 0.0047717053
0001e0 48 53 84 3c 7d b6 94 3c f9 08 4b 3c 65 ab d5 bb
       0.016152993 0.018153423 0.012392276 -0.006520676
0001f0 14 a1 00 be e3 7a 87 3d 5e 73 d2 3c 1b b7 f5 bd
       -0.12561446 0.06615236 0.025689777 -0.11997815
000200 a7 d8 e5 3d 01 15 f0 3d 27 ad 68 bc a8 08 47 3b
       0.11222964 0.11722756 -0.014201439 0.003037015
000210 48 da b0 bd 1d e7 9f bd 84 70 a7 bc fd b7 28 bd
       -0.08635384 -0.07807753 -0.020439394 -0.04119109
000220 10 da 92 3d 2d 7b 05 bd 92 e7 c4 3c 55 d8 50 3a
       0.07170498 -0.032588173 0.024036203 0.00079668063
000230 f6 32 da bc 30 54 87 3e b4 a8 f6 bd 0a 11 34 3b
       -0.026635628 0.26431417 -0.12043896 0.0027475976
000240 26 35 19 3c cc b8 2f 3a 58 f6 03 bc ee 72 56 bd
       0.0093510505 0.0006703257 -0.008054338 -0.0523557
000250 fb 28 9f bd 9d d9 50 bd 96 5b 59 be 9c 45 fc bd
       -0.07771488 -0.050988782 -0.21226344 -0.123179644
000260 ba 1b 64 3c dd 1d 7f 3d 5c 81 85 bd 43 86 84 bd
       0.013922626 0.06228434 -0.06518814 -0.06470921
000270 95 5a ef 3a 73 81 4b bb ed 11 37 be 22 7e 85 3d
       0.0018261248 -0.00310525 -0.17877932 0.065181985
000280 a3 ef 80 3e 78 91 93 3d 51 3e f7 bd ed 91 30 3e
       0.25182828 0.0720548 -0.12072433 0.17243166
000290 71 8d 9d bc ea c8 4f 3c 1d 12 2c 3c 5b 8e 47 3c
       -0.019232484 0.012682179 0.010502365 0.012179936
0002a0 52 bb e3 3a 6a c0 71 bb 2d 0a b6 bd 34 6d 10 3d
       0.0017374551 -0.003688837 -0.088886596 0.035260394
0002b0 ba e6 9c bc 8d 34 88 37 03 0e 47 3c 09 41 a5 3c
       -0.019152988 1.6236934e-05 0.012149337 0.020172613
0002c0 d4 90 ae 3b 81 dd 9f 3d 77 dc bd bd 2c 59 89 3d
       0.0053273235 0.078059204 -0.09270566 0.06706461
0002d0 09 4a 5e 3e 25 00 14 be 8e b3 92 3d 5b c4 bc 3d
       0.2170793 -0.1445318 0.071631536 0.09217139
0002e0 c6 a1 d7 3d 3c bf 00 3e 35 a3 53 bd c0 dc e2 3b
       0.10528903 0.1257295 -0.05166932 0.006923288
0002f0 64 86 91 3d c9 15 47 bd 3c 17 fe bc ff 3f 5e bd
       0.07105711 -0.04860476 -0.031016938 -0.05426025
000300 9d cc 6f 3c 82 af e8 bc 68 3a f6 bc 0c 87 5e 3d
       0.014636186 -0.028404001 -0.030057147 0.05432801
000310 57 b5 65 3c e4 a2 c5 3b a4 71 9c 3b 5e 44 af 3d
       0.014020286 0.006031381 0.004774289 0.08557962
000320 8a 48 62 bc 3f 95 a8 3d 76 06 93 3b c2 cc 3a bd
       -0.01381124 0.082315914 0.004486854 -0.04560543
000330 ae be 32 3c c8 19 cf bd 56 c1 8c bd 60 1e b0 3d
       0.010909719 -0.10112339 -0.068728134 0.085995436
000340 1c a7 7c bd c5 75 a3 bd 3d a8 c0 be d4 23 0b 3e
       -0.061682805 -0.07981447 -0.37628356 0.13587886
000350 6a 05 59 3d 22 42 90 bd 76 b0 51 3e b9 a7 59 3d
       0.05298368 -0.07043864 0.20477471 0.05313847
000360 30 61 1b 3c 64 13 07 b9 4a 93 81 3c 40 21 ed 3c
       0.0094836205 -0.00012881827 0.015817303 0.028946519
000370 62 cc 6e 3d 9b e7 9b bd ac d7 6c 3c 39 5a 28 bd
       0.058300383 -0.076125346 0.014455717 -0.041101668
000380 2a 42 bc 3d db 33 9e bc 7c fc a4 3b 7f 2b 8b bd
       0.09192307 -0.019311836 0.0050349813 -0.067954056
000390 01 f2 95 3b 69 88 51 bc 15 04 96 3c 45 d0 3a 3d
       0.0045759683 -0.01278887 0.018312493 0.045608778
0003a0 9e 3b e9 bd 3e e3 ba bd 4d 69 30 bd 2a 4d 82 3d
       -0.11388324 -0.09125374 -0.043069173 0.06362374
0003b0 e0 bd e3 bb 19 cd af 3d a4 99 d8 bc b7 51 1a 3d
       -0.006950125 0.08584041 -0.026440449 0.037675586
0003c0 1c a6 18 3d df 6b 80 3d de 12 22 3e a7 50 a2 bd
       0.03726779 0.06270575 0.1582751 -0.079255395
0003d0 52 06 1b 3e 52 6e d0 bd e9 27 8a 3b ec 7e d8 3b
       0.1513913 -0.10177292 0.0042161834 0.006606927
0003e0 97 d1 73 bd f3 ee 89 bb ee 29 bd bc 42 20 9f bc
       -0.059526052 -0.004209393 -0.023091283 -0.019424561
0003f0 c8 6a 8b bb 96 d9 f1 bd d7 5f a7 3d 63 db 31 be
       -0.0042546727 -0.11809079 0.08172577 -0.17368846

seq_midi.1.seq.0.seq.norm f4 [64]
000000 4f d1 8c be 74 97 13 c0 e1 1b 8b bf 30 61 22 c0
       -0.2750344 -2.306119 -1.0867883 -2.5371819
000010 ff aa 35 c0 c5 84 38 c0 eb 79 3a be 8a 45 a6 be
       -2.8385618 -2.8831036 -0.1821057 -0.3247493
000020 92 9f e5 bf 13 64 d5 bf e0 dd 1b 3d 78 10 fc be
       -1.7939322 -1.6671165 0.038053393 -0.49231315
000030 70 1c a3 bf e2 37 37 c0 29 b4 68 c0 a2 88 58 bf
       -1.2743053 -2.8627858 -3.635996 -0.84583485
000040 d5 85 1b bf bf c8 85 be c0 20 6c c0 18 4d 7f c0
       -0.60751086 -0.2612972 -3.689499 -3.9890804
000050 1d b0 5d c0 e3 03 1d c0 0b 2a 68 c0 55 71 18 c0
       -3.463874 -2.4533622 -3.627566 -2.3819172
000060 cf 94 49 bf cb 51 77 bf 3a 73 77 c0 e6 01 4b bf
       -0.7874269 -0.9660918 -3.8664079 -0.7929977
000070 49 86 9c bf cf 20 f6 bf 5a a4 5e c0 06 3a 5f c0
       -1.222848 -1.9228762 -3.4787812 -3.4879165
000080 2f 56 55 c0 e0 99 71 c0 18 d9 c7 bf 13 4f 4b c0
       -3.3333852 -3.7750168 -1.5613127 -3.1767013
000090 50 d9 ff bf b4 e2 60 c0 4c 3c a1 bf 3b 8f b7 bf
       -1.9988194 -3.5138369 -1.2596526 -1.4340585
0000a0 2e 77 83 bf 60 10 5f bf bb 7b 17 c0 bf 8f 2a bf
       -1.0270746 -0.8713436 -2.366927 -0.6662559
0000b0 2b 03 70 c0 29 b5 eb bf 48 1d 3a bf 20 99 31 c0
       -3.7501934 -1.8414661 -0.7270093 -2.774971
0000c0 eb c9 04 c0 0d 27 4b c0 01 12 26 c0 e9 0c f3 bf
       -2.074824 -3.1742585 -2.5948489 -1.8988315
0000d0 94 60 be be 32 34 23 c0 b0 30 c9 be 36 74 7a bf
       -0.37183058 -2.5500607 -0.39294958 -0.97833574
0000e0 de 14 0c c0 4e dc 0a 3d 1f 6d 67 bf 02 22 56 c0
       -2.1887736 0.033901505 -0.9040088 -3.3458257
0000f0 0a d3 0f c0 7b 90 5c 3e 92 47 03 c0 66 4d a4 be
       -2.2472558 0.2153949 -2.0512433 -0.320903

seq_midi.1.seq.0.seq.angle f4 [64]
000000 e6 12 d2 bf b9 2d c9 bf 2e 84 c9 bf e3 34 c9 bf
       -1.6412017 -1.5717078 -1.5743463 -1.5719265
000010 6a e3 e0 bf b8 35 c9 bf 80 b6 d1 bf d1 52 d6 bf
       -1.7569401 -1.5719519 -1.638382 -1.6744024
000020 41 08 cc bf 54 38 c9 bf 2f fe d1 bf ce a6 c9 bf
       -1.5940019 -1.5720315 -1.6405696 -1.575403
000030 79 d3 c9 bf bc bf e3 bf 87 3b c9 bf 0b 1e c9 bf
       -1.5767661 -1.7792888 -1.5721291 -1.5712293
000040 3f 18 c9 bf d4 18 d7 bf 26 ec cc bf 1a 90 cd bf
       -1.5710524 -1.6804452 -1.6009567 -1.6059601
000050 26 ce db bf 98 c2 e0 bf 2b 80 d4 bf 59 87 d2 bf
       -1.7172287 -1.7559385 -1.6601614 -1.6447555
000060 0c 16 c9 bf 43 16 c9 bf 32 b0 ca bf 87 05 ca bf
       -1.5709853 -1.5709919 -1.583502 -1.5782937
000070 e4 f0 d0 bf 16 97 eb bf 40 e5 01 c0 32 dc f8 bf
       -1.6323514 -1.8405483 -2.0296173 -1.9442198
000080 86 10 30 40 7a 6b ed 3f c6 4e e7 3f b8 72 f6 3f
       2.7510085 1.8548424 1.8070915 1.9253759
000090 e0 21 d3 3f 06 4a e1 3f 29 5a c9 3f a5 1d c9 3f
       1.6494713 1.7600715 1.573064 1.5712172
0000a0 1f a2 c9 3f d2 77 d4 3f b9 15 d2 3f d2 14 c9 3f
       1.57526 1.6599066 1.6412879 1.5709479
0000b0 7e 78 c9 3f 3f 9f c9 3f fa 17 c9 3f f9 77 d5 3f
       1.5739896 1.5751723 1.5710442 1.6677238
0000c0 cc 27 c9 3f d3 48 c9 3f d9 36 c9 3f a4 4b c9 3f
       1.571527 1.5725349 1.5719863 1.5726209
0000d0 37 ff d7 3f fe d6 e1 3f f4 6f da 3f 1c cf c9 3f
       1.687476 1.7643735 1.7065415 1.576633
0000e0 ff 59 c9 3f 24 c4 d2 3f 3e 1b c9 3f a8 59 c9 3f
       1.573059 1.6466107 1.5711439 1.5730486
0000f0 dc 2b c9 3f ee 89 cd 3f ca c4 e2 3f c2 1d d6 3f
       1.571651 1.6057718 1.7716305 1.6727831

seq_midi.2.s5.seq.C_bias f4 [60, 2]
000000 d9 54 c9 b9 00 00 00 00 eb 82 69 be 00 00 00 00
       -0.00038400924 0.0 -0.22803847 0.0
000010 2d 30 fc bd 00 00 00 00 91 14 cb 3d 00 00 00 00
       -0.12313876 0.0 0.09916032 0.0
000020 7d f8 6e 3e 00 00 00 00 70 6c 27 be 00 00 00 00
       0.23336978 0.0 -0.1634996 0.0
000030 97 49 3a be 00 00 00 00 92 36 da bd 00 00 00 00
       -0.18192135 0.0 -0.1065494 0.0
000040 4e ab 85 3e 00 00 00 00 72 88 4e be 00 00 00 00
       0.26107258 0.0 -0.20169237 0.0
000050 91 92 5f be 00 00 00 00 66 45 3c be 00 00 00 00
       -0.21833254 0.0 -0.18385848 0.0
000060 cb 18 5a be 00 00 00 00 48 50 0a 3e 00 00 00 00
       -0.2129852 0.0 0.13507187 0.0
000070 b7 0f 63 3e 00 00 00 00 12 3e 70 be 00 00 00 00
       0.22173963 0.0 -0.23461178 0.0
000080 7a c1 40 3d 00 00 00 00 6a d6 67 be 00 00 00 00
       0.047059514 0.0 -0.22640386 0.0
000090 8b df 2f 3e 00 00 00 00 82 94 04 3e 00 00 00 00
       0.17175119 0.0 0.12947276 0.0
0000a0 d5 cc 08 bd 00 00 00 00 3e d3 31 be 00 00 00 00
       -0.033398468 0.0 -0.17365739 0.0
0000b0 8d 08 a2 3d 00 00 00 00 67 ab 34 be 00 00 00 00
       0.07911787 0.0 -0.1764351 0.0
0000c0 1c f1 4b 3e 00 00 00 00 00 b1 35 3e 00 00 00 00
       0.19916195 0.0 0.17743301 0.0
0000d0 10 bb 35 be 00 00 00 00 19 ed 19 3e 00 00 00 00
       -0.1774714 0.0 0.15031852 0.0
0000e0 83 54 e0 bd 00 00 00 00 66 60 08 3e 00 00 00 00
       -0.10953619 0.0 0.13318023 0.0
0000f0 8f d5 ed bd 00 00 00 00 16 02 07 3e 00 00 00 00
       -0.11612999 0.0 0.1318439 0.0
000100 aa 44 07 be 00 00 00 00 9a 3a 67 be 00 00 00 00
       -0.13209787 0.0 -0.22580948 0.0
000110 ec c2 25 3e 00 00 00 00 38 93 17 3e 00 00 00 00
       0.16187638 0.0 0.14802253 0.0
000120 4d df 32 3e 00 00 00 00 20 d9 54 3e 00 00 00 00
       0.17467995 0.0 0.20785952 0.0
000130 74 86 06 be 00 00 00 00 cd 03 94 3e 00 00 00 00
       -0.13137227 0.0 0.2890915 0.0
000140 bd 06 cd 3b 00 00 00 00 3e af 1f 3e 00 00 00 00
       0.006256907 0.0 0.15594193 0.0
000150 28 d6 35 3e 00 00 00 00 b7 ff 18 3d 00 00 00 00
       0.17757475 0.0 0.037353244 0.0
000160 44 54 47 be 00 00 00 00 72 9d 31 be 00 00 00 00
       -0.19465739 0.0 -0.17345217 0.0
000170 af 59 81 3d 00 00 00 00 bd 64 78 be 00 00 00 00
       0.06315934 0.0 -0.24257179 0.0
000180 1d e9 7a be 00 00 00 00 85 9e 90 be 00 00 00 00
       -0.24502988 0.0 -0.2824594 0.0
000190 b7 3e 97 be 00 00 00 00 50 a3 44 3e 00 00 00 00
       -0.29540035 0.0 0.19202924 0.0
0001a0 ef 5c 29 be 00 00 00 00 b5 06 3a 3e 00 00 00 00
       -0.16539358 0.0 0.18166621 0.0
0001b0 e1 57 5b be 00 00 00 00 a8 1b a8 3c 00 00 00 00
       -0.21420242 0.0 0.020521 0.0
0001c0 8a cf 3b 3e 00 00 00 00 ea 41 2e 3e 00 00 00 00
       0.18340889 0.0 0.17017332 0.0
0001d0 b6 71 56 3e 00 00 00 00 c6 b4 62 bd 00 00 00 00
       0.20941815 0.0 -0.05534818 0.0

seq_midi.2.s5.seq.C f4 [60, 64, 2]
000000 d7 8d 1b be a6 e9 3f 3e af bc b4 bd 54 4c 99 bd
       -0.15190826 0.18741474 -0.08825051 -0.074852616
000010 38 a5 fd bb 23 2a bd bb b8 94 db bd d6 94 5f be
       -0.007740643 -0.0057728454 -0.10721725 -0.2183412
000020 cd b6 15 bc 94 54 f1 ba 43 3c 91 3b de 53 e3 ba
       -0.009137821 -0.0018412047 0.0044322326 -0.001734372
000030 d7 99 b8 b8 74 f3 af 38 e6 4e b8 bc be fc 1e 3d
       -8.8024586e-05 8.389997e-05 -0.02249856 0.038815252
000040 52 dd 7e 39 ef bc 4f b8 74 47 58 3b 8f 91 80 ba
       0.00024305776 -4.9528604e-05 0.0033001574 -0.0009809005
000050 12 4b b1 3c 1f 1c ee bd bd 6d 54 3b 60 de 40 3b
       0.021642242 -0.116264574 0.0032414042 0.002942942
000060 0a bb 61 3d 68 8b f6 ba 3b 22 c4 3b cd 96 32 3c
       0.055110015 -0.0018809857 0.005985526 0.0109002115
000070 6b fc 35 3b 93 5f 1c ba 89 44 1c bd 50 f0 cb bc
       0.002776886 -0.00059651694 -0.038151298 -0.024894863
000080 82 5e cb 3d 97 8b 2f be cd 23 30 bd 85 19 bf 3c
       0.09930135 -0.17143093 -0.043002892 0.023327598
000090 42 07 ad bc 2b 13 5c 3d 0e a4 f5 bc b2 97 41 3d
       -0.021121625 0.053729217 -0.029985454 0.04726381
0000a0 0c ed 04 3c 10 ee 66 be 20 e3 68 3d a3 4e 6f bc
       0.008113157 -0.22551751 0.05685723 -0.014606151
0000b0 fc cf bf bb 8b fb f0 ba 7f d2 e6 39 44 ba a3 ba
       -0.005853651 -0.0018385513 0.0004402585 -0.0012491425
0000c0 58 98 19 3d 71 2b c8 3c 26 0d 64 3a 71 43 82 bd
       0.037498802 0.024434777 0.0008699469 -0.0636052
0000d0 ab 3f 1a bc 40 bd b8 39 f9 51 c3 bc 76 68 b1 bc
       -0.009414594 0.00035236217 -0.023842799 -0.021656256
0000e0 50 9f 46 3c 96 42 cc 3d c6 22 dc ba bd e0 2a 3b
       0.012122944 0.09973638 -0.0016795031 0.0026073896
0000f0 15 fc cc bc 34 bb d9 bc 07 76 f3 bc 96 0f 11 3b
       -0.025022546 -0.026578523 -0.029719366 0.0022134534
000100 3c 68 74 3b 11 57 a1 bc 58 b2 b2 bb 85 cd 72 3d
       0.0037293574 -0.019694837 -0.005453389 0.05927803
000110 84 5a 5c bc ad c7 38 3c db fb 0e bb 9b 94 98 3a
       -0.013449315 0.011278075 -0.0021817598 0.0011640968
000120 1f 4f 1b bc 33 c9 15 3a a4 15 8e bc 1f 7d d1 bb
       -0.009479313 0.000571388 -0.017344303 -0.0063930894
000130 35 a9 1a 3c 41 02 e1 bc ef 6b d7 bb 56 b5 99 bb
       0.009439756 -0.027466895 -0.006574146 -0.0046908064
000140 e2 72 90 b9 dd 8e 69 39 2e 3a 70 bd 55 a6 dd 3c
       -0.00027551415 0.00022273832 -0.058649234 0.027056852
000150 e4 cb 37 be 7f 32 e8 bc 9f 21 3d 3d af 7e d2 3d
       -0.17948872 -0.02834439 0.04617464 0.10278069
000160 b9 c8 cf bc 9f 2d 69 3d 9c 5e ef 3a c6 5f 28 bb
       -0.025364267 0.056928273 0.0018262449 -0.002569185
000170 ab 30 30 bb aa d0 4e bb 57 66 e8 bd 26 af 30 be
       -0.0026884477 -0.003155748 -0.11347645 -0.17254314
000180 61 8d 7c 3a 53 23 ae bb 0e b8 e7 3d e4 9f ee 3c
       0.0009634104 -0.0053142696 0.113144025 0.029128976
000190 88 55 8e bd 57 a2 03 bd 20 f6 28 bd 88 b0 c8 3d
       -0.069499075 -0.03213724 -0.041250348 0.09799296
0001a0 26 00 ae 3a 67 51 2a 3b f1 6e c0 3b 1a 9d 64 3b
       0.0013275191 0.002598846 0.0058726002 0.003488368
0001b0 d8 ce 16 3d bc 75 8c ba 96 77 37 bc 36 12 29 bd
       0.036818355 -0.001071624 -0.011197945 -0.041277133
0001c0 56 49 0c ba fd 8d 00 bc c8 14 73 bd 47 92 26 bd
       -0.0005351504 -0.007846353 -0.05934599 -0.040666845
0001d0 a0 9b 14 ba a7 aa 7e 3b 6b 7d 57 3d a6 c6 6d bd
       -0.0005668942 0.003885904 0.052609842 -0.058050774
0001e0 0d ba c6 3c 26 dc 04 3d 6d c1 3f 39 3e ee c1 bb
       0.024258638 0.032436512 0.00018287236 -0.0059182933
0001f0 86 cc 60 be 43 dd 83 3c 3e aa 85 3c ce db 49 3d
       -0.2195302 0.016096717 0.01631653 0.049281888
000200 f8 f1 ed 3d c3 71 2f be a9 24 f2 bc 17 3f 61 3d
       0.116184175 -0.1713324 -0.029558497 0.054991808
000210 96 4c a6 3d 6e 39 39 bd 1d 70 02 3e 88 7a 88 3d
       0.08120076 -0.045220785 0.1273808 0.06663996
000220 df 26 44 3a 18 91 6c bb 8f 0b 20 ba 53 bd 4a ba
       0.0007482599 -0.0036097225 -0.0006105238 -0.00077339
000230 42 59 ec 39 eb 60 13 bb e2 fc 15 be f2 97 25 3d
       0.0004507993 -0.0022488188 -0.14647248 0.04042811
000240 c5 05 ca ba 19 12 9b b9 9a cb 0f 37 6d 58 51 bc
       -0.0015413096 -0.00029577388 8.570869e-06 -0.01277743
000250 22 d4 8f 3e d5 08 01 be 93 9d a1 bb 83 c8 d5 3b
       0.28091532 -0.12601025 -0.0049321144 0.006524147
000260 28 a6 dd bb 09 96 71 bd 07 4a be ba ed 3f ed 3a
       -0.006764192 -0.058980975 -0.0014517911 0.0018100716
000270 80 08 2d 39 fd 3c c4 3a 58 b6 da bc dc 13 5a bc
       0.00016501732 0.0014971789 -0.026698276 -0.013310399
000280 c4 e1 b1 3d 81 58 4d 3d 03 9e c1 3c 08 75 7e 3b
       0.086856395 0.050133232 0.023634916 0.003882708
000290 46 fe 6a be 46 53 d6 3d 5c 66 98 3c 96 b8 d1 3c
       -0.2294856 0.10465102 0.018603496 0.025600713
0002a0 fe ba 5c 3d ca aa e7 bd 83 07 52 3a 87 89 78 3a
       0.053889267 -0.11311872 0.00080119836 0.00094809424
0002b0 75 77 3d bb 24 6b 07 3c ea 7b d7 3a 4e e2 d3 ba
       -0.0028910313 0.00826529 0.0016440128 -0.0016165467
0002c0 54 b7 30 39 36 99 c8 3c 93 a7 74 bd dd 69 89 3c
       0.00016852963 0.02448712 -0.059730124 0.016774112
0002d0 9d 46 b4 bd 26 7e 60 3d ab 09 02 bd 0a bc ea bc
       -0.08802531 0.054807805 -0.0317475 -0.028654117
0002e0 52 7b 60 3c 2e 1e 11 3d ff d5 b4 bb 20 58 9e bb
       0.013701277 0.035429172 -0.0055186744 -0.0048322827
0002f0 01 e5 e7 bb 0a 74 61 bb 08 47 22 3a fa 21 a3 3a
       -0.00707686 -0.003440144 0.0006190394 0.0012446039
000300 87 16 ac 3b b1 51 f6 bc 13 a4 1b bb 2f c9 af bb
       0.005251709 -0.03006825 -0.002374892 -0.005364559
000310 6e 35 e6 3c 0b 38 de 3c aa 29 8c 3c 5e d9 0c 3d
       0.02810165 0.027126333 0.01710971 0.034386985
000320 23 f0 4b 3b 25 71 02 bb e6 03 a8 bb 1a 4d bb bb
       0.0031118474 -0.0019903865 -0.005127418 -0.0057159783
000330 be fd 15 bc 3e cc 9e 3c 25 c6 18 3d 15 be fd bb
       -0.009154735 0.0193845 0.03729834 -0.007743607
000340 94 e5 90 3a df 18 41 39 eb 8d 28 3c 5f 66 a3 bc
       0.0011054748 0.0001841518 0.010287742 -0.019946275
000350 e0 31 3f bc 8a f6 b0 3d 53 9a 95 3d eb 8e 8f 3d
       -0.011669606 0.086407736 0.07304826 0.07009681
000360 ff 41 a1 3b 48 30 b1 bb fc 9d 1e 3d c2 d6 ed bb
       0.0049211974 -0.005407367 0.038724884 -0.007258267
000370 7a 24 62 bb 85 70 db 3a 24 e3 11 bc fa 12 81 bb
       -0.0034506605 0.0016741907 -0.008904252 -0.0039390298
000380 84 ef aa 39 f9 29 91 bb 7f d7 ea 3b 6a 58 8f bc
       0.0003260338 -0.0044300524 0.0071668024 -0.017498214
000390 ff 39 3a 3e d9 2e 27 be 3b f2 93 bd 2a e1 4d bd
       0.18186186 -0.16326465 -0.07223936 -0.05026356
0003a0 1e 68 78 ba 8b c6 1b 3b 54 32 8c bb 0e 31 27 3a
       -0.0009475964 0.0023769464 -0.0042784605 0.0006377854
0003b0 0c 92 fa 3c 0c a3 6f bb f5 1a 80 3e 8b 7f 87 3e
       0.030587219 -0.003656569 0.25020567 0.26464495
0003c0 6b 94 60 3a 5a 2e 90 3b c6 b6 a2 bc 81 4c 0f 3d
       0.0008567038 0.004400057 -0.019862544 0.03498507
0003d0 3f 7b 5d bd 2b 34 35 bd 2d a1 5f 3b 9d 2f 02 bd
       -0.054072615 -0.044239204 0.0034123168 -0.03178369
0003e0 82 95 d4 3d 92 45 c9 bd f4 af 0a 3d 07 c2 e9 bc
       0.10380079 -0.098277226 0.03385921 -0.028534902
0003f0 ea aa 26 39 cb 48 52 3d 85 f0 b5 3c cd 5a 75 3a
       0.00015894664 0.051338952 0.022209415 0.00093595387

seq_midi.2.s5.seq.norm f4 [64]
000000 2c 09 54 be 01 b2 3e c0 6e 6c 2d c0 52 dc 3e bf
       -0.20706624 -2.9796145 -2.709743 -0.7455493
000010 71 ad 1e c0 bd 62 52 c0 80 81 65 c0 e3 54 7e bd
       -2.479336 -3.2872765 -3.586029 -0.062092673
000020 3b 52 6c c0 22 eb 59 c0 9b 6a 0f bd cd 9a 5d c0
       -3.692519 -3.4049764 -0.035013776 -3.4625733
000030 58 6a 21 bf f3 95 1c c0 bc 88 5d c0 c0 43 37 c0
       -0.6305289 -2.4466522 -3.4614706 -2.8635101
000040 d2 0c 0c bf 58 e5 1c c0 f9 51 91 be 1c 13 48 c0
       -0.5470706 -2.451498 -0.28382853 -3.1261663
000050 78 48 ba be f9 a1 fa bf 39 0d 7b c0 69 13 83 c0
       -0.36383414 -1.958068 -3.922682 -4.0961194
000060 d4 4f 69 c0 4d 10 3f c0 64 dc dc bf b7 6f 64 c0
       -3.6454973 -2.98537 -1.7254758 -3.5693185
000070 c9 0b 28 c0 32 14 6d c0 2b dc 13 c0 c5 b5 c8 c0
       -2.6257193 -3.7043576 -2.310313 -6.2721887
000080 17 51 5d c0 f1 43 90 c0 17 9e 46 c0 4f f5 73 c0
       -3.4580743 -4.5082936 -3.103399 -3.8118474
000090 7c 17 8e c0 96 45 63 c0 52 d1 99 bf 6d f9 00 c0
       -4.4403667 -3.5511222 -1.2017004 -2.0152237
0000a0 d9 54 7f c0 fc 09 fc bf 39 b6 da be b3 26 77 bf
       -3.9895537 -1.9690547 -0.4271715 -0.96543425
0000b0 4a 1c 31 c0 48 f3 1a c0 b6 79 55 c0 e2 9a df bf
       -2.7673516 -2.4210987 -3.3355536 -1.7469141
0000c0 bd 28 61 c0 53 ec 3f c0 6b 11 4e be 9e 1b fd 3c
       -3.5181115 -2.998799 -0.20123832 0.030896958
0000d0 fc 41 68 c0 3d cd 4e c0 fb 0a 1b c0 75 38 86 be
       -3.6290274 -3.2312768 -2.4225452 -0.26214948
0000e0 5c da 34 c0 95 5b 77 bf 7e 4d 47 c0 82 47 10 c0
       -2.8258276 -0.9662412 -3.1141047 -2.2543645
0000f0 c2 88 a1 be 40 f6 1a c0 6f 5a 0d bf 5f b1 4a c0
       -0.3154965 -2.42128 -0.55216116 -3.1670759

seq_midi.2.s5.seq.angle f4 [64]
000000 44 04 d4 bf f8 f6 db bf 01 26 c9 bf 9a 89 cf bf
       -1.6563802 -1.7184744 -1.5714723 -1.6213868
000010 d1 4a c9 bf 5c 35 c9 bf ee 53 c9 bf 01 3c d2 bf
       -1.5725957 -1.5719409 -1.5728738 -1.6424562
000020 3d 4b c9 bf a2 2b c9 bf f3 58 d3 bf 01 6a c9 bf
       -1.5726086 -1.5716441 -1.651152 -1.5735475
000030 a8 1a ca bf 71 7a f3 bf 50 36 c9 bf f4 ef e4 bf
       -1.5789385 -1.9021741 -1.57197 -1.7885728
000040 30 18 c9 bf 7f c5 f8 bf 9c de d6 bf f2 67 dd bf
       -1.5710506 -1.9435271 -1.6786685 -1.7297347
000050 62 b4 c9 bf 77 2e c9 bf 04 dd cb bf 39 4e c9 bf
       -1.5758173 -1.5717305 -1.5926824 -1.5726997
000060 db a6 ee bf 9d b1 ee bf 7d 37 c9 bf dc 3e ea bf
       -1.864467 -1.8647953 -1.5720059 -1.8300433
000070 b2 e6 fe bf 96 ff cc bf 89 d4 00 c0 b3 d8 ce bf
       -1.9914153 -1.6015499 -2.012972 -1.6159881
000080 99 7f 2e 40 0d c2 f5 3f a1 4e f6 3f 2f 73 c9 3f
       2.726538 1.9199845 1.9242746 1.5738276
000090 77 7d c9 3f 1b b4 ec 3f b2 28 c9 3f 7c 20 c9 3f
       1.5741414 1.8492464 1.5715544 1.5713038
0000a0 44 13 c9 3f 28 dc e1 3f 37 69 d3 3f 08 df cc 3f
       1.5709004 1.7645311 1.6516484 1.6005564
0000b0 83 9c df 3f f1 3e c9 3f e9 fd cb 3f cb 36 d0 3f
       1.7469639 1.5722333 1.5936862 1.6266721
0000c0 ab 43 c9 3f 21 a9 e2 3f c6 5d d4 3f f7 dd d0 3f
       1.5723776 1.7707864 1.6591117 1.6317738
0000d0 f9 78 d0 3f ff 37 c9 3f c9 00 e6 3f fb a2 d2 3f
       1.6286918 1.5720214 1.796899 1.6455988
0000e0 36 33 c9 3f 9e 2a cc 3f 5d 46 c9 3f 71 45 f5 3f
       1.5718753 1.5950506 1.5724598 1.9161817
0000f0 44 66 d2 3f 50 1c c9 3f bf 2c da 3f e2 3e e5 3f
       1.6437459 1.5711765 1.7044905 1.7909815

seq_midi.2.skipLayer.weight f4 [60, 88]
000000 c4 2e e5 3d de 74 1f bc 3e 97 6f 3c 4a ce 46 bd
       0.111905605 -0.009732453 0.014623461 -0.048536576
000010 78 92 d6 3d e4 73 22 be 0b b2 81 bd a7 0b dc bc
       0.104771554 -0.15864521 -0.06332787 -0.026861025
000020 a9 3f 25 bd 7c 53 0c 3d 56 07 96 3d bf 36 88 3d
       -0.040343914 0.034259304 0.07325618 0.06651067
000030 ed b1 b9 3d db 7f e3 3d 63 91 59 be 01 5d de 3d
       0.0906714 0.11108371 -0.21246867 0.10857583
000040 8c 32 bb 3c 7b 0a 81 bd 5e 01 d5 3b 3b 6a 1e be
       0.022851251 -0.06300827 0.006500407 -0.15470211
000050 60 a5 a3 bd 09 82 a5 3d f4 87 eb bd dd 4a bd 3c
       -0.07990527 0.08081443 -0.115005404 0.023106987
000060 a6 96 6a 3d cc cb c6 bd e5 16 4a bd ad 23 db 3d
       0.057272576 -0.0970684 -0.04933824 0.10700164
000070 10 e7 13 be 8a 48 1b 3e 78 d1 a4 3d 1f 82 5f bd
       -0.14443612 0.1516439 0.080477655 -0.054567453
000080 9d 23 11 be 8f 63 66 3d d3 33 8b bd 9e cd 06 bd
       -0.14173742 0.05624729 -0.06796994 -0.032910936
000090 2e 23 0f 3e 3e 32 35 3c cd 18 db 3c 06 b6 62 bd
       0.13978264 0.011059342 0.026745224 -0.055349372
0000a0 0c 32 9b 3d 0e 23 c0 3d c0 42 69 bc 32 c0 92 bd
       0.07577905 0.09381686 -0.014237106 -0.071655646
0000b0 54 41 4a 3e 04 f1 df bc d4 10 75 bc 0c fe 2c bd
       0.19751483 -0.027336605 -0.014957625 -0.042234465
0000c0 30 d1 8c bc 61 ab 47 3e d4 e3 01 3d ea 9d 0f be
       -0.017189592 0.1949897 0.031711414 -0.14025083
0000d0 7c ed 3a bd fd 2d a2 bb fc de 6d bc a8 0e 37 be
       -0.04563664 -0.00494933 -0.014518496 -0.17876685
0000e0 09 b4 b2 3d 1f b7 c7 3d 83 c8 86 3d 81 01 35 3d
       0.08725745 0.097517245 0.06581213 0.044190887
0000f0 83 51 cf bc 3f d8 2c be 20 18 17 3b cb 9a ce 3d
       -0.025307423 -0.16879366 0.002305515 0.10088118
000100 96 8b 37 bd 4c 9a 76 3e f2 1c 41 be 24 a4 0e be
       -0.044810854 0.24082297 -0.18858698 -0.13929802
000110 ae 0b db 3d 8a 21 21 3d fe 6a be 3d b7 27 8c 3c
       0.10695587 0.039338626 0.09297751 0.017108781
000120 d1 22 09 be b4 05 6b be 8a 5f 67 bd f9 03 e6 3d
       -0.13392188 -0.22951394 -0.056487598 0.112312265
000130 d8 5e 21 3d e4 80 af bc 29 b3 06 3d f8 7f 14 bc
       0.03939709 -0.021423765 0.032885704 -0.009063713
000140 88 e3 1e 3e 0b 5a c6 bc 99 fa 1a bc ba 46 de bd
       0.15516484 -0.024212858 -0.009459161 -0.10853334
000150 b2 30 f2 bd d9 d3 9c 3d b4 2e db bd a0 32 60 3d
       -0.11825694 0.07657594 -0.10702267 0.05473578
000160 77 cd f9 bb 45 1c 27 3d e9 93 0d 3d a9 d9 84 bd
       -0.0076233703 0.040798444 0.034564886 -0.06486828
000170 8b cd 21 bc ee fa 4c bd 71 13 f4 bd 69 64 a1 3c
       -0.009875665 -0.050043993 -0.11917771 0.0197012
000180 25 fd a7 bd 5e 08 1f 3e c9 c9 0b 3e a0 d5 36 bd
       -0.0820258 0.15530536 0.13651194 -0.044637322
000190 2b 0e c6 bd 2e 63 c1 3b c5 55 3c bd a0 bc c1 3c
       -0.09670671 0.0059017157 -0.045980234 0.023649514
0001a0 3d e7 dd bb 23 50 e4 bd 0a 9d fa bb c6 26 be bd
       -0.0067719505 -0.11148097 -0.007648115 -0.09284739
0001b0 e7 e1 26 be 35 ff 19 bd 4b 29 ed 3c bf 3f bb 3d
       -0.16297112 -0.0375969 0.028950354 0.09143018
0001c0 f5 b8 d3 3d 03 20 41 3c b1 52 ab bd 9b 6e 23 be
       0.10338012 0.011787417 -0.083653815 -0.15960161
0001d0 f8 bc d0 bd 51 7a bf 3d 42 53 86 3d c5 51 d7 bc
       -0.10192293 0.09349502 0.06558849 -0.026284108
0001e0 ff 1c 8f 3d 1e 90 03 be f8 3b 60 3e 4c 52 c0 bd
       0.069879524 -0.12847945 0.21897876 -0.09390697
0001f0 d2 f6 65 3d 61 50 cd 3d 87 09 11 bd da 8f d0 bc
       0.05614359 0.10025097 -0.035409477 -0.025459219
000200 af 59 bd 3d 0e 3b 2a 3d ea 7c cc bd 51 65 bc bc
       0.092456214 0.041560225 -0.09984763 -0.02299753
000210 7e 14 f9 3d b0 9d 1f bd d4 84 2d 3e e8 bf 39 bd
       0.12162112 -0.038968742 0.16945201 -0.04534903
000220 62 23 8b be 0a 0c cf 3c 7b 9f 58 3e 12 c9 0e be
       -0.27175432 0.025274295 0.21154587 -0.1394389
000230 1a 58 7f 3d be 63 ce 3b 02 27 b3 bd e9 60 ca bd
       0.06233988 0.0062985113 -0.087476745 -0.098817654
000240 e3 6a 63 3d 21 3a e5 3d 01 2e e2 3c 12 17 c1 3b
       0.055521857 0.11192728 0.027609827 0.005892643
000250 93 56 f3 3d 37 d3 68 3d 83 fe 1e 3e 6e 64 ff 3d
       0.11881747 0.056842055 0.15526776 0.12470327
000260 c2 60 3c 3b db 9e 0b bd 2b 00 94 3d 6e d4 cc bd
       0.0028744196 -0.034087043 0.072265945 -0.10001455
000270 9c 1a 4e 3d 36 c4 6a bd f0 21 14 3e 4c a9 41 3e
       0.050318345 -0.057316028 0.14466071 0.18912238
000280 c0 7c 65 be c9 0d 2f be 45 af 99 3d 4b 34 c0 bd
       -0.2241087 -0.17095102 0.07504133 -0.09384974
000290 8b 47 0f 3d 4b df 9a 3d b7 cb a3 bc e8 71 af bd
       0.034980338 0.07562121 -0.0199946 -0.08566648
0002a0 59 0a 24 3e c8 f6 78 bd de 52 4c 3b fc b8 ef 3d
       0.16019572 -0.060782224 0.0031177322 0.11705205
0002b0 41 c9 0d 3d 11 f9 78 3c e3 68 26 bd 88 97 87 bd
       0.03461576 0.015196101 -0.04062737 -0.06620699
0002c0 0d e7 b7 3d 69 51 ac 3d 08 89 0c 3e 9b 83 b8 be
       0.08979616 0.08413965 0.13724148 -0.36037907
0002d0 6e 57 1b be 4b e2 38 be 7e 28 43 ba c9 65 8f be
       -0.1517007 -0.18055074 -0.00074446935 -0.28007343
0002e0 77 b0 17 bb a4 90 8c 3e c0 f1 a1 3d d2 78 a0 bd
       -0.0023145953 0.27454102 0.07907438 -0.07835545
0002f0 14 79 85 bc af 7f 76 bd a9 ae e3 bd 86 1c dc 3d
       -0.016293086 -0.060180362 -0.11117298 0.10747628
000300 da e6 0f be 97 28 cd bd 77 70 8c bd ad 3f 0e bc
       -0.14052907 -0.100175075 -0.068573885 -0.008682174
000310 de de a1 bd 0d 8c bf bd 3c 4d a6 bc bc 34 02 bd
       -0.07903837 -0.093528844 -0.0203005 -0.031788573
000320 f0 e9 45 3d d7 8d e6 3d 52 b4 a4 bd cf 5a aa 3b
       0.048318803 0.112575226 -0.08042206 0.0051988135
000330 40 c8 bb bd 4f cc 2f 3e 40 31 e9 3c 07 53 47 3d
       -0.09169054 0.17167781 0.028465867 0.048663165
000340 34 ee 6c bd 3a df 3c 3d 08 4c 4b bb b4 2b 4f 3c
       -0.057844356 0.046111323 -0.003102066 0.012644697
000350 5f 1a f2 3d 6b 85 99 3d b7 2f c8 3d 3d c8 2b be
       0.11821436 0.074961506 0.09774726 -0.16775604
000360 73 e7 e4 3d b8 61 1c bc 45 5e 7e bd c4 5b 22 bd
       0.11176958 -0.009544782 -0.06210162 -0.039638296
000370 66 9d 0d 3e 2b 51 37 bd f5 74 a3 3d c4 cc aa bd
       0.13829574 -0.044755142 0.07981292 -0.08339837
000380 6c 20 9a bd 74 12 6a bd 9e 7c 50 3e cc 40 fd bd
       -0.07525715 -0.057146505 0.20360038 -0.12365875
000390 f6 30 2f be f0 dd b4 3c 43 e6 c0 3d 07 86 0e be
       -0.17108521 0.022078484 0.09418919 -0.13918315
0003a0 1b 84 77 bd 26 21 1c be fd 99 1f bd 45 02 cf 3d
       -0.06042872 -0.1524702 -0.038965214 0.10107855
0003b0 76 ce 2e 3c 4b 76 3a be 8b 70 45 bc a1 fa 9d 3d
       0.010669341 -0.18209188 -0.012050758 0.07713819
0003c0 03 3a e6 bd e2 11 0f 3d b1 48 8d bb 18 5e 1b be
       -0.112415336 0.034929164 -0.004311644 -0.15172613
0003d0 2a fd fc bd c4 25 d2 3d da 47 c0 3d bf 61 3d 3c
       -0.12352975 0.102611095 0.093887046 0.011558949
0003e0 a7 0a bd bc 2d 42 6f be 10 af 31 3d c2 4c 8d bd
       -0.023076368 -0.23365088 0.043379843 -0.06899406
0003f0 3f 6b 8a 3d 58 cc 6a bd de ed 15 3d b4 48 e3 bc
       0.06758737 -0.057323784 0.0366038 -0.027744628

seq_midi.3.s5.seq.C_bias f4 [40, 2]
000000 a7 64 42 3c 00 00 00 00 1d 07 fc 3d 00 00 00 00
       0.011864818 0.0 0.12306044 0.0
000010 af d3 0e be 00 00 00 00 af 0d 80 be 00 00 00 00
       -0.13947938 0.0 -0.2501044 0.0
000020 47 90 57 be 00 00 00 00 2e 55 1b 3d 00 00 00 00
       -0.21051131 0.0 0.03792303 0.0
000030 f6 4b 31 be 00 00 00 00 ae bb 51 3d 00 00 00 00
       -0.17314133 0.0 0.051204376 0.0
000040 44 03 fa bd 00 00 00 00 eb c2 fd bd 00 00 00 00
       -0.12207654 0.0 -0.12390693 0.0
000050 fd e3 eb bc 00 00 00 00 70 11 e3 3d 00 00 00 00
       -0.028795237 0.0 0.1108731 0.0
000060 09 62 d1 bd 00 00 00 00 b2 69 2b 3b 00 00 00 00
       -0.10223777 0.0 0.0026155529 0.0
000070 4f c7 d3 3d 00 00 00 00 cd 6c 2c 3e 00 00 00 00
       0.103407495 0.0 0.16838379 0.0
000080 08 c3 dc bd 00 00 00 00 4d 67 a1 3d 00 00 00 00
       -0.10779387 0.0 0.07881031 0.0
000090 27 52 4c 3e 00 00 00 00 ff 7c c7 bd 00 00 00 00
       0.19953214 0.0 -0.09740638 0.0
0000a0 ee d7 2a bd 00 00 00 00 dd a9 bd 3c 00 00 00 00
       -0.041709833 0.0 0.023152286 0.0
0000b0 2b 58 9e be 00 00 00 00 98 5a 87 be 00 00 00 00
       -0.30926642 0.0 -0.26436305 0.0
0000c0 3b 06 40 3d 00 00 00 00 d6 fc 71 3d 00 00 00 00
       0.04688094 0.0 0.059079014 0.0
0000d0 18 4f 56 be 00 00 00 00 d3 93 65 3d 00 00 00 00
       -0.2092861 0.0 0.05604918 0.0
0000e0 dc bf 84 3d 00 00 00 00 de 80 b0 bc 00 00 00 00
       0.06481907 0.0 -0.021545824 0.0
0000f0 0f eb 1a be 00 00 00 00 5e f3 98 bd 00 00 00 00
       -0.1512873 0.0 -0.074682936 0.0
000100 d4 87 88 bd 00 00 00 00 4b d9 23 bd 00 00 00 00
       -0.06666532 0.0 -0.04000215 0.0
000110 aa d3 3a 3e 00 00 00 00 8a 58 91 bd 00 00 00 00
       0.18244806 0.0 -0.070969656 0.0
000120 18 d0 fe bc 00 00 00 00 4f 3a 0b 3e 00 00 00 00
       -0.031105086 0.0 0.13596462 0.0
000130 74 f3 3c be 00 00 00 00 b9 45 a0 3c 00 00 00 00
       -0.18452245 0.0 0.019564496 0.0

seq_midi.3.s5.seq.C f4 [40, 64, 2]
000000 20 fc 12 3d 1a 18 26 bc d1 11 c9 b9 ef 4a 4e 3a
       0.035884976 -0.010137582 -0.00038350982 0.00078694423
000010 5e 84 45 bc 33 39 73 bd dc 86 48 bc 01 c1 3a bd
       -0.012055485 -0.05938072 -0.012239184 -0.04559422
000020 62 7c 3b bc 3d cb 98 3d 80 5a 5d bd 0f c0 3e bd
       -0.011443229 0.074606396 -0.054041386 -0.04656988
000030 5d be ae 3d 5c ee 31 bc eb e8 6b 3d c5 e5 35 3d
       0.08532403 -0.010860052 0.057595175 0.04440858
000040 6a 48 cd ba f4 f2 10 3b c5 9e 4a ba f9 50 44 bb
       -0.001566184 0.0022117468 -0.0007729347 -0.002995549
000050 91 01 75 bc cb be fa bc c1 43 10 bb 10 82 bd 3a
       -0.014953987 -0.030608555 -0.002201304 0.0014458317
000060 03 49 bd 3c 07 d8 dc bb 43 34 cd ba 40 47 ed 3b
       0.023106104 -0.0067396197 -0.0015655834 0.0072411597
000070 4e bd 06 3d ed 2b ad 3b 60 6b 6e 3a 11 53 19 bb
       0.03289538 0.0052847774 0.00090949796 -0.0023395459
000080 a9 a5 80 3b b4 a1 6e 3b 8f f4 94 bc 28 da a6 bb
       0.003925998 0.00364123 -0.01818302 -0.005091924
000090 02 e0 43 3d 35 a6 1d bd cf ee c9 bb 1c b3 36 3c
       0.047821052 -0.038488586 -0.0061625014 0.011151101
0000a0 77 cf 24 3e ed 5c 4b be 49 97 1a bc 6b 25 01 bd
       0.16094767 -0.19859667 -0.009435483 -0.031529825
0000b0 79 9f 3d bc 7b 7d a7 3c 07 55 48 bc fa a5 44 3c
       -0.011573666 0.020445576 -0.012227303 0.0120024625
0000c0 ed 81 1b bc 41 4e c7 3d c2 35 1e 3b ac 99 08 bb
       -0.009491426 0.097317226 0.002414093 -0.0020843549
0000d0 b1 a7 2e bb 46 2a 17 3d cb 83 70 bb 49 91 57 ba
       -0.0026650245 0.03690555 -0.0036699648 -0.00082232483
0000e0 ff a9 23 3c 0c 76 05 3c f8 f8 03 bc f2 1c a1 3b
       0.009989261 0.00814582 -0.008054964 0.0049167806
0000f0 68 07 30 3c d3 b9 8d bc 95 f4 e4 3b 6a 3e 00 bb
       0.010743953 -0.017300522 0.0069871643 -0.0019568452
000100 43 6d 8d 3c b8 93 21 bd c3 6a e0 bb 90 06 45 3b
       0.017264014 -0.039447516 -0.0068486645 0.0030063726
000110 08 30 1d bd 11 80 7f 3d 44 9c 89 3a 40 08 fb 39
       -0.038375884 0.062377993 0.0010498841 0.00047880597
000120 cc 87 d5 3b cd a4 07 bb f8 50 bb bb 25 fa 31 3b
       0.0065164324 -0.0020697594 -0.0057164393 0.0027157154
000130 af 46 31 bd 1d 37 16 3d e1 1f 87 3c 53 f9 e8 bc
       -0.0432803 0.036673654 0.016494693 -0.0284392
000140 92 02 1c 3c 08 86 d2 ba 21 4c 00 3c 3f cc 0c bd
       0.009522097 -0.0016061673 0.007830651 -0.03437447
000150 2e cd 02 bd 73 4e cd 3d 47 13 25 3b 9d d2 a9 3a
       -0.031933956 0.100247286 0.0025188492 0.0012956444
000160 60 7b 9b 3a 7d 0a fc b9 9d f1 97 bc 2e 75 46 bc
       0.001186233 -0.00048073 -0.018547827 -0.012112899
000170 de f8 d0 3a de b8 06 bb 96 ce 69 bb 65 84 f8 3b
       0.0015943309 -0.0020556967 -0.0035676113 0.007584142
000180 e5 e4 4b bd 23 57 b9 3d bf f8 c9 bd e5 33 aa bd
       -0.049778838 0.09049823 -0.09861898 -0.08310679
000190 bd 98 8d ba c0 3c cf 3a 5f 45 23 bc 86 fb 50 bb
       -0.0010802966 0.0015810952 -0.00996527 -0.00318882
0001a0 ca f1 80 bb 69 88 56 3b 83 e7 aa bc 8d bc cf 3b
       -0.0039350735 0.0032735115 -0.020862347 0.0063396157
0001b0 61 e4 0e 3c 05 32 36 3e ce b8 06 bc bc 65 94 3b
       0.008721442 0.17792518 -0.008222772 0.0045287292
0001c0 58 a2 66 ba 91 98 e5 b9 47 11 1a 3b 72 c6 8b ba
       -0.0008797995 -0.00043791955 0.0023508833 -0.0010664
0001d0 d7 e8 c3 bc 1f 53 a9 bd 88 26 09 3a d9 a0 10 bb
       -0.023914738 -0.08267807 0.0005231877 -0.002206853
0001e0 1e ee d3 b9 4d 74 8b bb f5 bb 6b 3c 0b ee 09 bd
       -0.00040422467 -0.0042558075 0.014388074 -0.03367428
0001f0 c0 c5 23 37 3c dc a2 ba 28 3a d6 3d 4d 19 ea bc
       9.761599e-06 -0.0012425254 0.10460311 -0.028576517
000200 60 1e 21 bc ed dc e1 3c 5b 3b e8 3a 2c fc bd 3a
       -0.009833902 0.027571166 0.0017717885 0.0014494709
000210 95 b5 61 bc 99 1a bc 3c f8 fa 54 3d aa 6f 48 3c
       -0.013776203 0.022961902 0.051997155 0.012233654
000220 d7 16 bd 3b 72 63 02 be f2 7a a7 bc b4 6b 4a be
       0.005770545 -0.12733248 -0.020444367 -0.19767648
000230 f2 65 98 3c 51 b8 ed bc ca 24 c7 bb df 16 a1 bc
       0.018603299 -0.029018553 -0.0060773836 -0.019664226
000240 05 eb 05 3b 7f ec eb 3a ea af 9a 39 51 3f 35 b9
       0.0020434272 0.0017999558 0.00029504235 -0.00017285092
000250 7c 71 e2 3d 56 be 66 bb 32 37 2c b9 67 d0 db 39
       0.11056802 -0.0035208664 -0.0001642376 0.00041926207
000260 fa ad f0 3c 58 ee 67 bc af ee 30 3c e9 58 11 bc
       0.029379833 -0.014155947 0.010799094 -0.0088712955
000270 c7 3f 56 bb db ff c1 3c d7 98 00 bc 12 66 a7 b8
       -0.0032691823 0.023681572 -0.00784894 -7.9821926e-05
000280 c9 c4 e4 3a a5 cf e7 ba 7d ad 59 3c d2 90 85 bb
       0.0017453666 -0.0017685784 0.013285992 -0.004076102
000290 8a b6 b5 bb 53 30 9a bc d0 ab 81 3b c3 ad a4 3c
       -0.005545442 -0.01882187 0.003957249 0.020102387
0002a0 c6 d4 90 bc 61 ff 25 3c 00 03 64 3d 38 8d 83 bc
       -0.017679583 0.010131688 0.055666924 -0.01605855
0002b0 09 70 3b 3c 6f e6 29 bb e1 2a 9f bb b2 a2 a4 3a
       0.0114402855 -0.0025924703 -0.0048574065 0.0012560694
0002c0 41 0f 9f 3d 52 9e 3d 3d ba c8 8c ba 9d 01 a0 bb
       0.07766581 0.046293564 -0.0010740974 -0.004883005
0002d0 87 f3 27 bc fe 78 b7 bc 78 f4 d3 bb a8 a5 06 39
       -0.010250933 -0.02239656 -0.006468352 0.00012840948
0002e0 14 ed 88 3b 9b af 96 bb dc cb 27 3c ee 58 be 3b
       0.0041786525 -0.0045985705 0.010241475 0.005808941
0002f0 5a f0 92 ba 5a 7e b6 bc da 06 f2 bb 62 fe c8 ba
       -0.0011210546 -0.022277046 -0.0073860707 -0.0015334601
000300 e3 fd b5 3c 97 ee 03 bd 42 4a 59 3c 43 55 06 bc
       0.02221579 -0.03220996 0.013262333 -0.008199039
000310 f4 34 0c bd f2 be 15 3d f7 46 f7 3b 29 f7 02 3b
       -0.034230188 0.036559053 0.0075463015 0.0019983745
000320 6e 9c 92 b9 a8 0c 07 3c e5 44 3d bb 0a 40 ed 3a
       -0.0002796384 0.008242764 -0.0028880176 0.001810075
000330 48 79 86 3c f4 0d 1b 3d e9 76 2e bc b3 9d db 3c
       0.016415253 0.037855104 -0.010648468 0.026808595
000340 7d 1d 3e bc 7e 71 21 bc 6c a2 cd 39 28 38 2d bc
       -0.01160371 -0.009853719 0.0003922166 -0.010572471
000350 0c b2 2c 3d 17 17 34 3d 29 e6 b6 ba 57 2f 07 ba
       0.042161986 0.043967333 -0.0013954091 -0.00051568955
000360 a9 76 13 3b a0 2d 08 ba db 7a 5d 3c 7c f8 ec bc
       0.0022501147 -0.0005194787 0.013518061 -0.02892708
000370 03 22 8a 3b fe 6a 16 bb 64 6c 00 bb c3 34 08 3a
       0.0042154803 -0.0022951956 -0.0019595856 0.00051958504
000380 73 b8 41 bc 9f 8b b0 3c 08 f5 28 3d b7 02 0c bd
       -0.011823761 0.021550952 0.041249305 -0.034182277
000390 30 0e 55 b9 e5 ea 96 b7 52 27 a2 ba 04 db 67 3c
       -0.00020318548 -1.7990775e-05 -0.0012371338 0.0141513385
0003a0 d1 87 26 bc 61 e7 dc 3b e5 f8 cf bb 31 79 06 bc
       -0.010164217 0.0067414497 -0.006346809 -0.008207605
0003b0 43 3d ca bd 87 83 ac 3d bd cf 92 3b 05 04 99 3a
       -0.09874966 0.08423524 0.0044803307 0.0011674172
0003c0 a6 ed 6c bb 0b 74 6d bb 68 14 6b 39 4f 01 8d bc
       -0.0036152392 -0.0036232497 0.00022418948 -0.017212538
0003d0 5f c4 82 bd 15 9c 12 3d 87 5d b1 bc 95 a7 9f bb
       -0.06385111 0.035793383 -0.021651043 -0.0048722723
0003e0 8b da 58 3a 79 bf 00 ba 5f e2 1f 3c a7 5e 55 bc
       0.00082723115 -0.0004911344 0.009758561 -0.013023055
0003f0 fd 69 90 39 3d 33 80 bb 65 68 a7 3d d2 43 66 3d
       0.00027544788 -0.003912358 0.081742086 0.056217022

seq_midi.3.s5.seq.norm f4 [64]
000000 56 b4 a8 bf 8d a4 1e c0 dc b9 4e 3f 2b 05 a6 be
       -1.3180034 -2.4787934 0.8075235 -0.32425818
000010 62 27 da be 2c b1 87 be 33 b6 31 3c af c5 d6 bf
       -0.42608172 -0.2650236 0.010846662 -1.6779078
000020 12 89 38 c0 2d 3e a1 bf 3b eb 4c bb d4 e3 6b c0
       -2.883366 -1.25971 -0.0031268138 -3.6857805
000030 1a 00 5e c0 6f 2a b0 bf 9e c2 5d c0 3c b8 60 c0
       -3.4687562 -1.376295 -3.4650035 -3.5112448
000040 26 67 7e c0 34 7b e0 bf 54 7a f9 be ae a3 0c c0
       -3.9750457 -1.7537599 -0.4872614 -2.1974902
000050 89 7e 29 bf de 5f 0f bf 1b 41 ee bf 87 05 7f c0
       -0.662087 -0.56005657 -1.8613619 -3.9847124
000060 e4 f2 5e c0 32 ce 34 c0 79 09 a8 bf 58 c5 99 bf
       -3.4835749 -2.8250852 -1.3127891 -1.201335
000070 f9 83 26 c0 09 14 3b c0 e0 70 85 c0 f2 c7 81 c0
       -2.601805 -2.9230978 -4.1700287 -4.0556574
000080 b6 51 3d c0 07 d5 84 c0 d0 73 ef bf e3 6e 61 c0
       -2.9581122 -4.1510043 -1.8707218 -3.522393
000090 3c e8 1e c0 3e 52 55 c0 7d 6b 8e bf 7e 2f fd bf
       -2.4829245 -3.3331447 -1.1126553 -1.9780118
0000a0 c4 1c 88 c0 6f 87 6a c0 3b b0 bd be 40 e7 73 c0
       -4.2535114 -3.6645162 -0.37048516 -3.8109894
0000b0 94 23 57 c0 ed a5 09 c0 78 80 77 c0 f1 56 e4 bf
       -3.3615465 -2.1507523 -3.867216 -1.7839032
0000c0 38 3b 83 bf 94 09 63 be bc 02 70 c0 af 5f 92 bf
       -1.0252447 -0.22171623 -3.750167 -1.143545
0000d0 97 a6 13 c0 38 bf 8a bf 53 bc cd be 70 c3 eb bf
       -2.3070428 -1.0839605 -0.40182742 -1.8419018
0000e0 7f 42 61 c0 2b 97 fa bf 69 89 95 bd 55 11 ce bf
       -3.5196836 -1.9577383 -0.073015995 -1.6099039
0000f0 eb ff 4f c0 8e b0 c6 bf 79 8d 49 c0 17 ab 43 c0
       -3.249995 -1.552263 -3.1492598 -3.0573175

seq_midi.3.s5.seq.angle f4 [64]
000000 14 1b c9 bf 5b 5a c9 bf fe 12 c9 bf 00 95 eb bf
       -1.5711389 -1.5730699 -1.5708921 -1.8404846
000010 e4 83 c9 bf f4 0a df bf d8 0b de bf c6 58 cd bf
       -1.5743375 -1.7425218 -1.7347364 -1.6042717
000020 b6 1f ca bf 5e 1a c9 bf 0e fa e1 bf b7 e0 d0 bf
       -1.5790927 -1.5711172 -1.7654436 -1.6318578
000030 e0 68 e7 bf c5 5d c9 bf 7a 85 cb bf 94 39 cd bf
       -1.807888 -1.5731741 -1.5900109 -1.6033196
000040 c8 f8 d4 bf 8a 58 cc bf b3 15 c9 bf 51 4c cd bf
       -1.6638422 -1.596452 -1.5709747 -1.6038915
000050 36 49 cb bf 6a a9 d6 bf 48 21 cf bf c1 dc f8 bf
       -1.5881717 -1.6770451 -1.6182032 -1.9442369
000060 59 b2 e9 bf 2e a1 ca bf 88 a7 d2 bf a2 19 c9 bf
       -1.8257552 -1.5830438 -1.6457376 -1.5710948
000070 1a 28 cd bf 32 47 cf bf 18 b0 03 c0 b4 ef 0f c0
       -1.6027863 -1.6193602 -2.057623 -2.2490053
000080 e5 51 43 40 1b e6 12 40 21 7c e8 3f e9 73 ce 3f
       3.0518734 2.2952945 1.8162881 1.6129123
000090 d7 6c cd 3f 38 74 ce 3f 66 27 d7 3f ce 73 cc 3f
       1.604884 1.6129217 1.6808898 1.5972841
0000a0 96 75 d8 3f 3e fd ec 3f 20 f3 cd 3f 04 82 c9 3f
       1.6910884 1.8514783 1.6089821 1.5742803
0000b0 7e 67 d0 3f 6f 6f cf 3f 10 9a c9 3f 03 3f c9 3f
       1.6281583 1.6205882 1.5750141 1.5722355
0000c0 c1 16 c9 3f 14 c9 cf 3f df 1c ca 3f 53 16 c9 3f
       1.5710069 1.6233239 1.5790061 1.5709938
0000d0 6e 62 ca 3f 8e 1a c9 3f bb 5e e3 3f 60 d3 c9 3f
       1.5811288 1.5711229 1.7763284 1.5767632
0000e0 16 76 ce 3f a7 28 c9 3f dc 61 e3 3f a2 1d c9 3f
       1.6129787 1.5715531 1.7764239 1.5712168
0000f0 69 0c ce 3f 22 8d c9 3f bc 4f cd 3f f0 0f c9 3f
       1.6097537 1.5746195 1.6039958 1.5707989
