pretrained_models/PianoSSM_L_MH_maestro_all_24000_model.pth (torch, 557151 bytes, 29 tensors)

seq_midi.1.seq.0.seq.C_bias f4 [88, 2]
000000 df 3a ac bc 00 00 00 00 16 19 6e 3e 00 00 00 00
       -0.021024166 0.0 0.23251757 0.0
000010 eb 31 81 3e 00 00 00 00 80 ce f1 3d 00 00 00 00
       0.25233397 0.0 0.11806965 0.0
000020 ae 36 6a bd 00 00 00 00 d1 f7 87 bc 00 00 00 00
       -0.057181053 0.0 -0.01659766 0.0
000030 18 b4 52 bd 00 00 00 00 4e e5 2a be 00 00 00 00
       -0.051441282 0.0 -0.16689035 0.0
000040 59 ba 7d bd 00 00 00 00 fb b7 2c 3d 00 00 00 00
       -0.061945293 0.0 0.042167645 0.0
000050 a5 83 c3 3c 00 00 00 00 1c c4 86 bd 00 00 00 00
       0.023866484 0.0 -0.06580374 0.0
000060 9d 3b 14 3e 00 00 00 00 cd f7 01 3e 00 00 00 00
       0.14475866 0.0 0.12692185 0.0
000070 71 7b 10 3e 00 00 00 00 59 e7 57 3d 00 00 00 00
       0.14109589 0.0 0.052710865 0.0
000080 d2 0f 9f 3c 00 00 00 00 d0 c7 d1 bd 00 00 00 00
       0.019416723 0.0 -0.10243189 0.0
000090 be 7d b5 bd 00 00 00 00 aa 86 15 3e 00 00 00 00
       -0.08861874 0.0 0.14602152 0.0
0000a0 24 07 8a be 00 00 00 00 0f 96 d9 3c 00 00 00 00
       -0.26958573 0.0 0.026560811 0.0
0000b0 da 43 ab bc 00 00 00 00 5a 48 97 bd 00 00 00 00
       -0.020906378 0.0 -0.07386847 0.0
0000c0 39 f1 53 ba 00 00 00 00 d8 8c da 3d 00 00 00 00
       -0.0008084956 0.0 0.10671395 0.0
0000d0 83 da 93 be 00 00 00 00 50 34 b3 be 00 00 00 00
       -0.2887765 0.0 -0.3500085 0.0
0000e0 6f 61 a3 bd 00 00 00 00 a9 fb 4c 3d 00 00 00 00
       -0.07977568 0.0 0.05004469 0.0
0000f0 c6 0f c9 bd 00 00 00 00 d3 1b 94 bd 00 00 00 00
       -0.09817462 0.0 -0.072318695 0.0
000100 6d 7d 0b 3e 00 00 00 00 47 c9 4e 3e 00 00 00 00
       0.13622065 0.0 0.20193969 0.0
000110 1f 6e 05 3e 00 00 00 00 dc a7 13 bd 00 00 00 00
       0.13030289 0.0 -0.036048755 0.0
000120 54 a8 25 be 00 00 00 00 99 b6 34 bd 00 00 00 00
       -0.16177493 0.0 -0.04411945 0.0
000130 b9 ec a4 3d 00 00 00 00 17 ba 45 3e 00 00 00 00
       0.08052964 0.0 0.19309269 0.0
000140 00 93 1d 3c 00 00 00 00 a5 d9 17 be 00 00 00 00
       0.009617567 0.0 -0.14829119 0.0
000150 21 69 9a 3e 00 00 00 00 67 02 16 be 00 00 00 00
       0.30158332 0.0 -0.14649354 0.0
000160 35 d6 63 bc 00 00 00 00 f3 f0 f0 bd 00 00 00 00
       -0.013906051 0.0 -0.117647074 0.0
000170 be d6 3f 3e 00 00 00 00 03 06 9d bd 00 00 00 00
       0.18734261 0.0 -0.07667162 0.0
000180 69 40 57 bc 00 00 00 00 90 03 d3 3d 00 00 00 00
       -0.013137915 0.0 0.10303414 0.0
000190 f4 ff ee 3c 00 00 00 00 8f bf 5a 3d 00 00 00 00
       0.029174782 0.0 0.05340534 0.0
0001a0 f7 99 28 3e 00 00 00 00 6e f3 e8 3d 00 00 00 00
       0.16464983 0.0 0.113745555 0.0
0001b0 8b bd d2 bd 00 00 00 00 ff 74 2b be 00 00 00 00
       -0.10290059 0.0 -0.16743849 0.0
0001c0 ec e7 0e 3e 00 00 00 00 ec 80 f2 3d 00 00 00 00
       0.13955659 0.0 0.11840996 0.0
0001d0 20 dc 71 3e 00 00 00 00 cf 14 5d be 00 00 00 00
       0.23619127 0.0 -0.21589969 0.0
0001e0 d6 b5 d5 bd 00 00 00 00 ab cb 0b bd 00 00 00 00
       -0.10435073 0.0 -0.03412978 0.0
0001f0 10 5a d7 3d 00 00 00 00 ad 3f 73 3e 00 00 00 00
       0.10515225 0.0 0.23754759 0.0
000200 19 7f 68 3d 00 00 00 00 3e 3f f7 3d 00 00 00 00
       0.056761835 0.0 0.12072609 0.0
000210 78 84 41 be 00 00 00 00 8c e3 87 bd 00 00 00 00
       -0.18898189 0.0 -0.06635198 0.0
000220 00 c9 11 3e 00 00 00 00 41 c2 72 3d 00 00 00 00
       0.14236832 0.0 0.059267286 0.0
000230 73 a4 8b 3b 00 00 00 00 da 1a 0b be 00 00 00 00
       0.0042615472 0.0 -0.13584462 0.0
000240 ee 44 64 be 00 00 00 00 af 27 04 be 00 00 00 00
       -0.2229192 0.0 -0.12905763 0.0
000250 c8 4b b7 3e 00 00 00 00 f5 b0 64 3d 00 00 00 00
       0.35800004 0.0 0.055832822 0.0
000260 05 ec 13 bd 00 00 00 00 3f a6 ba bd 00 00 00 00
       -0.036113758 0.0 -0.0911374 0.0
000270 05 d8 9c bd 00 00 00 00 c4 fa da bd 00 00 00 00
       -0.0765839 0.0 -0.10692361 0.0
000280 d1 04 52 be 00 00 00 00 e4 65 87 3e 00 00 00 00
       -0.2050965 0.0 0.26444924 0.0
000290 19 84 24 bd 00 00 00 00 c0 b9 0b bd 00 00 00 00
       -0.04016504 0.0 -0.034112692 0.0
0002a0 c8 a6 ae be 00 00 00 00 32 de e6 3d 00 00 00 00
       -0.3411162 0.0 0.11272849 0.0
0002b0 5d 62 2a 3e 00 00 00 00 45 26 8d 3c 00 00 00 00
       0.16639085 0.0 0.017230162 0.0

seq_midi.1.seq.0.seq.C f4 [88, 128, 2]
000000 14 58 63 3c f5 dc cd 3a d7 3f 3f bd 06 00 fd bc
       0.01387598 0.0015706109 -0.04669174 -0.0308838
000010 09 2c 6c ba 67 d3 c6 3c 8f 7f 98 3b 63 bc 2a 3b
       -0.00090092473 0.024270726 0.004653878 0.0026052229
000020 6b 45 55 bd d7 5d 4a bd d6 7e e6 bc ce 9d 51 bd
       -0.052068155 -0.0494059 -0.028136652 -0.051175885
000030 2c a2 94 3d 95 bf 84 be 7f 29 11 bc ff 9d 83 bc
       0.07257494 -0.25927415 -0.008859991 -0.01606655
000040 23 14 c8 bb e4 5b 2b 3c 67 89 e5 bd 4b 6a b3 bc
       -0.006105916 0.01045892 -0.11207848 -0.02190127
000050 74 a2 66 3c 27 ed 82 bc 75 8d a4 bd e8 ac fd 3d
       0.014076818 -0.015982224 -0.08034793 0.12386495
000060 51 e9 1e bc 7a 0e 46 3c 69 e4 b5 3c 72 94 87 3c
       -0.009699182 0.012088412 0.022203641 0.016550276
000070 d2 96 51 bd cb 48 4c bd 89 ef ac 3b 5a e1 43 3d
       -0.051169224 -0.04987411 0.0052775783 0.047822334
000080 66 54 71 3b bb 86 c0 bb 36 89 f4 bc f7 c8 42 3c
       0.0036823987 -0.005875436 -0.029850584 0.011888734
000090 2d 59 16 3d 6c 7d e8 bb 5d 32 b4 3d 10 fc 92 bd
       0.03670614 -0.0070950296 0.087986685 -0.07176983
0000a0 5c c5 1a 3c ba 6c 37 3d df 84 e4 bc 28 c0 f6 3d
       0.009446468 0.044781424 -0.02789539 0.1204837
0000b0 d7 be ac 3d 78 67 fa bc 36 34 c0 bd b3 1c a3 bd
       0.08434837 -0.030566916 -0.093849584 -0.07964458
0000c0 67 2c d4 bc ac d5 72 3d 28 7e 6a bc 15 e1 4a bc
       -0.025900079 0.059285805 -0.014312305 -0.012382765
0000d0 bc 8b 3e be ff 1a 54 bd 85 fb e0 3b 05 bc 6e 3b
       -0.18607992 -0.051783558 0.006865921 0.0036427986
0000e0 f1 0f b9 3a ea 0d 5e 3d 9e 4e 8b 3a 3b 01 7b bc
       0.0014119131 0.05421249 0.0010628288 -0.015320118
0000f0 62 74 fb bb 8f ec 28 3c f4 d4 2c bd a2 ef e9 3c
       -0.007673786 0.010310306 -0.042195275 0.028556649
000100 f4 ab 91 3c a8 10 c5 3c 37 67 f6 3a 1f 0a 46 bd
       0.017782189 0.024055794 0.0018799071 -0.048349496
000110 20 59 39 bd 35 99 0e 3c 49 5f 8a be 0b 73 1f 3d
       -0.04525101 0.00870352 -0.27025822 0.038928073
000120 ff f6 24 3c 27 2c cb 3b 6f a2 cf 3d fa b8 cf bd
       0.010068654 0.0062003317 0.101384036 -0.10142703
000130 71 c9 ee bb 32 40 25 bd 10 a1 ab bc e9 70 87 3d
       -0.0072871973 -0.040344425 -0.020950824 0.06613333
000140 e5 54 3b bc 96 8f 54 bc 90 03 92 bd e2 a2 62 3d
       -0.011433815 -0.012973687 -0.07129586 0.05533112
000150 1d c7 f4 3d c2 1b 9c 3d ed 9b 95 3d c8 e3 f9 bc
       0.1195204 0.07622482 0.07305131 -0.030504122
000160 77 7a 50 bd 51 00 e4 3b 2b b6 13 bd 3b 79 83 bd
       -0.05089804 0.0069580455 -0.0360624 -0.06419607
000170 bc 63 33 bd 9e 62 98 3d 05 60 88 bd b7 1a bb 3c
       -0.043796286 0.07440685 -0.06658939 0.022839887
000180 33 64 23 3b 27 3b 25 bc 73 ba 24 3d e9 24 fb 3b
       0.002493155 -0.010084904 0.040216874 0.007664312
000190 95 f7 af bb b8 07 19 3d 3b 31 e8 3c 5b e2 05 bc
       -0.0053700902 0.037360877 0.028343787 -0.008171643
0001a0 da 30 ac ba b4 44 94 3a 9e 1e 5c 3a b5 c2 f2 bb
       -0.0013137117 0.0011311979 0.00083968963 -0.007408465
0001b0 f4 e4 7c be 8b 78 91 3e e9 70 77 bd 21 4f 92 bc
       -0.24696714 0.2841228 -0.060410414 -0.017859997
0001c0 de dd 33 bd 7e 3a 70 bd f4 9c 53 bc 53 45 1d 3c
       -0.04391276 -0.058649532 -0.0129158385 0.009599048
0001d0 86 8c 6d bd 05 3c 74 3d 5f 70 d4 bc 6d 2b 93 bc
       -0.05799534 0.05962755 -0.025932489 -0.017965043
0001e0 43 01 22 bd 86 a0 7d bc 8d 50 6d 3d 8e 2f b8 3c
       -0.039551985 -0.015480166 0.057938147 0.022483613
0001f0 de 7e 83 bc f5 7a 88 3c 49 d9 b6 3c 39 ce fd 3c
       -0.016051706 0.016660193 0.022320407 0.030982124
000200 a9 34 87 bc 27 cf 14 bc 86 fb 89 bc b2 2b 2f bd
       -0.016504603 -0.009082592 -0.016843569 -0.04276628
000210 a9 f0 5b bd db 33 aa 3c fb 13 58 bd 3b e8 5a bd
       -0.05369631 0.02077668 -0.05275343 -0.05344413
000220 a8 1d 8d bc b3 ce 96 3c fc 62 07 bc 25 04 52 bd
       -0.017226055 0.018409109 -0.008263346 -0.051273484
000230 eb d0 05 3d e9 7c 13 3e b5 ae 07 3d 69 b9 cd 3c
       0.032669943 0.14403118 0.033125598 0.025112825
000240 eb f0 68 bd ce 44 69 3e 87 c9 96 3c 5b c5 17 3c
       -0.056870382 0.22780153 0.018406643 0.009263362
000250 df f4 37 bc fb a5 dd 3c df 10 4f bd ed 80 49 bc
       -0.011227815 0.027056685 -0.0505532 -0.012298805
000260 40 8f b3 3b 0a f4 57 ba 71 86 7c bd b0 3e 17 3c
       0.005479723 -0.0008237964 -0.06165165 0.009231254
000270 34 3e 3f bc 25 6b 94 3d ca 39 aa 3d 37 71 f0 bc
       -0.011672545 0.07246999 0.08311804 -0.02935086
000280 d2 76 f6 3b ef 83 ec bb 46 c6 bf bb 65 54 02 3c
       0.0075214887 -0.007217876 -0.0058524935 0.007954692
000290 14 7e e6 bc 27 8b 87 3d f1 c3 05 3d 14 01 77 bd
       -0.02813629 0.06618338 0.032657567 -0.060303763
0002a0 0a 49 29 bd 41 b0 15 3b 1d d6 1f bd bb 87 d7 3c
       -0.04132942 0.0022840651 -0.039022554 0.026309839
0002b0 bf 37 b1 bd 42 bf 0b bd c5 b1 6f bb d9 bd 52 3c
       -0.08653211 -0.034117945 -0.0036574465 0.012862646
0002c0 62 c5 8e 3d 6b 71 33 bd d5 0e 81 bd 5c e5 16 bd
       0.069712415 -0.043809336 -0.06301657 -0.036839828
0002d0 d7 d7 e8 bc 63 ce 18 bc c6 3e 78 bd 57 2d b1 3c
       -0.028423233 -0.00932655 -0.06060674 0.021628065
0002e0 18 f0 d1 bd a3 18 b2 bd 9e ae b2 bd 20 b4 2a be
       -0.102508724 -0.08696105 -0.08724712 -0.16670275
0002f0 d9 32 d8 3c ca 07 1b 3d 8e 98 e7 3c 6a 0b bd 3c
       0.026391434 0.037849225 0.028270986 0.023076732
000300 75 ff 0a 3d c8 40 7e bc 8e 04 8f bc f6 55 e2 3c
       0.03393503 -0.015518375 -0.017458227 0.02762888
000310 56 7c 57 bc 62 e1 58 3c d1 24 72 bd 48 d4 9c bc
       -0.013152203 0.013237329 -0.059117142 -0.019144192
000320 ef 5d c4 3d 86 0c 2f 3b bc 51 f7 bc 21 78 83 3a
       0.09588229 0.0026710345 -0.030190341 0.0010030308
000330 6e b4 31 bd ec da a5 bd a1 92 09 b8 36 84 b7 ba
       -0.04338496 -0.08098397 -3.2799904e-05 -0.0014001194
000340 67 e6 ca bc 95 fe 43 bd 80 a5 22 bd 1b 83 54 3c
       -0.024768068 -0.04785021 -0.039708614 0.012970711
000350 ee f1 81 3c fa 84 e0 3b c3 dc 7a 3c 8a 25 27 3c
       0.015862431 0.0068517895 0.015311423 0.010201821
000360 43 97 74 3b 0d 21 ed bb 2e 0f 67 bd e0 21 75 bc
       0.0037321604 -0.007236606 -0.05641096 -0.01496169
000370 3e b7 ac bb 41 f8 ab bc 28 df 9c 3c b1 a3 7d 3d
       -0.0052708676 -0.0209924 0.019149378 0.061923686
000380 9f 39 b3 bd 09 68 bf 3d 51 3c 82 3c 4b 81 b7 3b
       -0.08751225 0.09346015 0.015897902 0.0056001297
000390 28 10 81 3d fd b0 13 3b f9 fc 8a 3d 0b ca 17 bd
       0.0630191 0.0022535913 0.06786532 -0.037057918
0003a0 79 d9 99 3d c8 75 0a 3d 0d df c4 3b 66 34 9b bb
       0.07512183 0.03380373 0.006008035 -0.004736471
0003b0 36 2a 86 3c 93 bc 7c 3d f6 ce 9d 3b f2 b4 10 be
       0.01637755 0.061703276 0.0048159314 -0.14131525
0003c0 d1 da 89 bd 79 a8 cd 3c 1b a9 e1 3c e8 99 48 3d
       -0.06731189 0.025104748 0.027546456 0.0489749
0003d0 27 3b 7c bd 93 5e 11 3b 48 bf c1 bc 66 c0 9c bd
       -0.06157985 0.0022181615 -0.02365078 -0.076538846
0003e0 a6 31 a3 bc 65 97 8b bd 95 c8 85 3b f5 00 b8 3d
       -0.019921135 -0.068159856 0.004082749 0.089845575
0003f0 18 b1 0f 3d 94 96 e1 3d f8 96 d5 bc e0 e6 dd bc
       0.035081 0.110150486 -0.026072964 -0.027087629

seq_midi.1.seq.0.seq.norm f4 [128]
000000 3d 14 89 3f 88 81 65 3f 4f 30 81 bf 58 bb 83 3f
       1.0709301 0.89650774 -1.0092868 1.0291548
000010 32 2b 80 bf 62 36 44 bd 43 f6 d0 bf bc 14 41 3f
       -1.0013182 -0.047903426 -1.6325153 0.75422263
000020 ea c5 79 3f d2 a9 11 c0 fc 15 75 3f 1f de 69 be
       0.9756762 -2.27599 0.9573667 -0.22838639
000030 54 07 71 3f 8a 94 b6 be f0 6b c5 3e a5 54 82 bf
       0.94151807 -0.356602 0.38558912 -1.0182081
000040 eb d8 7c 3f 3e b1 d4 be 42 85 ea bf 81 59 40 be
       0.9876849 -0.41541475 -1.8321917 -0.18784143
000050 ac 81 ef bf da 26 90 bf 83 61 e8 bf 4a 51 08 3f
       -1.8711448 -1.1261857 -1.8154758 0.5324904
000060 a4 da 28 c0 11 3f fe bf 26 81 cb bf fc 0e 19 c0
       -2.6383448 -1.9862996 -1.5898788 -2.3915396
000070 20 68 4d bf 09 5a 54 c0 80 55 62 3f b0 13 45 c0
       -0.8023701 -3.3179953 0.8841171 -3.0793266
000080 c6 94 0d 3f aa 5f 44 bf e6 cc f6 bf ee 1f 2b 3e
       0.55305135 -0.7670847 -1.928128 0.16711399
000090 2d b0 66 bf 42 4c b6 3e 48 5e 89 bf 7d 94 08 c0
       -0.9011257 0.35605055 -1.0731897 -2.134063
0000a0 c6 47 49 bf f1 41 08 c0 56 62 08 bf 10 68 b5 3e
       -0.7862514 -2.1290247 -0.5327505 0.35430956
0000b0 e0 e6 83 be 74 a6 2b c0 ff b9 bb be 3e c2 ac bf
       -0.2576208 -2.6820345 -0.3666534 -1.3496778
0000c0 ff 20 26 bf 9d 8e 49 c0 7e 4a 52 c0 e8 56 3a c0
       -0.648941 -3.1493294 -3.2857966 -2.9115543
0000d0 cc 3f 74 c0 5b c3 a1 be c6 7e d0 bf 5f aa bb bf
       -3.8163939 -0.31594357 -1.6288688 -1.4661368
0000e0 4f 3b df bf d1 2b 2b c0 a1 5c 79 bf 26 f3 5c c0
       -1.7439975 -2.6745493 -0.97406965 -3.4523406
0000f0 6a 9a 3d c0 eb 29 54 c0 27 1c 33 c0 45 90 8b c0
       -2.9625497 -3.3150585 -2.7985933 -4.361361
000100 e1 4d 68 c0 6b c9 63 c0 0e 62 e4 bf 04 93 57 c0
       -3.6297534 -3.5591686 -1.7842424 -3.3683481
000110 ed 83 4a c0 fc af 83 c0 72 15 41 bf 67 d6 e7 bf
       -3.164302 -4.1152325 -0.7542335 -1.8112305
000120 9d 83 e4 be 36 9b 4a c0 69 da 4b c0 2e 0b 58 c0
       -0.44631663 -3.1657233 -3.1852057 -3.3756824
000130 1f 4f 6a c0 cb 23 90 bf 8d e9 8e bf 86 c1 2a 3c
       -3.6610792 -1.1260923 -1.1165024 0.010422116
000140 ee c0 41 c0 0c e6 57 c0 c3 56 f3 be ad 6c 24 c0
       -3.0274005 -3.373416 -0.4752713 -2.569133
000150 85 2b 49 be 95 f2 08 c0 7f c4 2e be cf a6 50 c0
       -0.19645508 -2.139806 -0.17067145 -3.2601812
000160 08 a5 23 c0 a2 2b 2b bf ac a0 58 bf 12 60 f2 bf
       -2.5569477 -0.66863453 -0.84620166 -1.8935568
000170 df 87 98 3d 2d 36 9d 3e 3b 35 37 c0 04 a5 17 c0
       0.0744779 0.30705395 -2.862624 -2.3694468
000180 87 3b 72 3f 95 51 ef bf 74 dc f6 bf 49 63 4d c0
       0.9462208 -1.8696772 -1.9286027 -3.209185
000190 6d 6c 15 c0 5a 7f cf be 3f 1a 9c bf ff de 27 c0
       -2.3347428 -0.4052685 -1.219551 -2.6229856
0001a0 49 6d 62 bf 75 cc 1c c0 83 f0 32 c0 a6 80 06 c0
       -0.88448006 -2.449979 -2.7959297 -2.101602
0001b0 4c 9b 36 c0 73 b7 11 c0 8e 43 81 3f 97 9f b2 be
       -2.8532286 -2.2768219 1.0098741 -0.34887382
0001c0 aa d6 84 bb f8 9d 36 c0 d2 9d 0d c0 ca b0 c1 bf
       -0.0040539103 -2.8533916 -2.2127576 -1.5132077
0001d0 7c b1 97 be 46 86 2b c0 92 5a ca bf 3a af f9 bf
       -0.29627597 -2.6800704 -1.580889 -1.95066
0001e0 03 13 17 bf a5 39 b4 bf d8 07 37 bf 7d 04 02 c0
       -0.59013385 -1.4080092 -0.71496344 -2.031524
0001f0 15 d4 05 c0 e0 96 ed bf 4f 7c a3 bf 3e 75 12 c0
       -2.0910695 -1.8561668 -1.2772311 -2.288406

seq_midi.1.seq.0.seq.angle f4 [128]
000000 00 1e c9 bf ee 17 c9 bf 9b 15 c9 bf 6d 43 c9 bf
       -1.571228 -1.5710428 -1.5709718 -1.5723702
000010 15 38 c9 bf 7b b6 c9 bf 71 23 d1 bf d6 66 c9 bf
       -1.572024 -1.5758814 -1.6338941 -1.5734508
000020 7b 21 c9 bf c8 a4 c9 bf c5 12 c9 bf bf 1a ca bf
       -1.5713342 -1.5753412 -1.5708853 -1.5789412
000030 0f 18 c9 bf 65 25 c9 bf 89 bc c9 bf 05 18 c9 bf
       -1.5710467 -1.5714537 -1.5760661 -1.5710455
000040 a2 49 c9 bf 1b 15 c9 bf 7c 1b c9 bf a4 1c c9 bf
       -1.5725596 -1.5709566 -1.5711513 -1.5711865
000050 45 29 c9 bf fd 8e cc bf f7 ab cf bf 17 98 ca bf
       -1.571572 -1.5981137 -1.6224355 -1.5827664
000060 6d 53 db bf b1 2f c9 bf af 56 cb bf 36 47 c9 bf
       -1.7134835 -1.5717679 -1.5885829 -1.5724857
000070 ea 58 cb bf 6f 4d c9 bf df 18 c9 bf 14 e2 cb bf
       -1.588651 -1.5726756 -1.5710715 -1.5928369
000080 24 74 c9 bf 21 47 c9 bf 83 b5 c9 bf cf e4 c9 bf
       -1.5738568 -1.5724832 -1.5758518 -1.5772952
000090 24 17 c9 bf 98 58 ca bf 79 d2 cb bf e3 92 d6 bf
       -1.5710187 -1.5808287 -1.5923606 -1.6763576
0000a0 a4 1b c9 bf b9 9b d3 bf 2c 97 c9 bf 1a 7e c9 bf
       -1.571156 -1.6531898 -1.5749259 -1.5741608
0000b0 98 14 c9 bf 8d 24 d5 bf a7 0f ca bf 67 50 c9 bf
       -1.570941 -1.665178 -1.5786027 -1.5727662
0000c0 7c 0b ca bf bc f5 e1 bf 3e b5 f8 bf de 8c c9 bf
       -1.5784755 -1.7653117 -1.9430311 -1.5746114
0000d0 31 be d0 bf f0 19 c9 bf f3 94 d1 bf 91 57 c9 bf
       -1.6308042 -1.571104 -1.6373581 -1.5729848
0000e0 cc c0 d5 bf 79 f3 d1 bf 8c e7 cc bf 1b 8c e6 bf
       -1.6699462 -1.6402427 -1.6008162 -1.8011507
0000f0 51 87 d3 bf 5a ea e9 bf 6b e1 fb bf 50 26 08 c0
       -1.652567 -1.8274643 -1.9678167 -2.1273384
000100 ef 2c 33 c0 2b 20 fe 3f 51 b7 ff 3f 47 13 e6 3f
       -2.7996175 1.9853567 1.9977819 1.7974633
000110 8d 0b ed 3f 35 66 f7 3f 3a fb ce 3f 54 8d d6 3f
       1.851915 1.9328066 1.6170418 1.676188
000120 b8 aa db 3f 2d 3f f8 3f 76 8d ee 3f 12 e6 de 3f
       1.7161474 1.939428 1.863692 1.7413962
000130 5c be c9 3f b5 7a cd 3f 23 64 c9 3f c1 46 ca 3f
       1.5761218 1.6053072 1.5733684 1.5802842
000140 11 3c c9 3f 20 57 c9 3f f7 ba ca 3f 70 9c d8 3f
       1.5721456 1.5729713 1.5838307 1.6922741
000150 0c 17 c9 3f 18 ae ce 3f 47 84 cc 3f 7d cf c9 3f
       1.5710158 1.6146879 1.5977868 1.5766445
000160 c2 b2 d7 3f 4d 15 c9 3f 08 e8 c9 3f fe 67 cb 3f
       1.6851428 1.5709625 1.5773935 1.5891111
000170 81 ba ca 3f 77 12 c9 3f cb ed cc 3f 61 7c ce 3f
       1.5838166 1.570876 1.6010069 1.6131707
000180 b3 63 c9 3f 7a 4e c9 3f c8 1f c9 3f ff a3 dd 3f
       1.5733551 1.5727074 1.5712824 1.7315673
000190 7b fb c9 3f 39 f6 c9 3f d7 36 cd 3f f1 38 c9 3f
       1.5779871 1.5778266 1.6032361 1.5720502
0001a0 62 30 c9 3f 93 30 d2 3f c9 2b c9 3f f4 8a c9 3f
       1.571789 1.6421074 1.5716487 1.574553
0001b0 10 71 c9 3f 9f ab c9 3f 5d 1a c9 3f eb f7 c9 3f
       1.5737629 1.57555 1.571117 1.5778784
0001c0 06 83 c9 3f 76 24 c9 3f 76 b9 ce 3f 91 0b ce 3f
       1.574311 1.5714252 1.6150348 1.609728
0001d0 cb db c9 3f c4 3f c9 3f 60 22 c9 3f 12 9d ce 3f
       1.57702 1.5722585 1.5713615 1.6141684
0001e0 92 6b c9 3f 8d 54 c9 3f d8 93 ca 3f ae c4 ce 3f
       1.5735953 1.5728928 1.5826368 1.6153772
0001f0 ea d4 cd 3f ee ea ca 3f ce d2 cb 3f b7 8f d4 3f
       1.6080601 1.5852945 1.5923707 1.6606358

seq_midi.2.s5.seq.C_bias f4 [60, 2]
000000 75 36 52 3e 00 00 00 00 98 bb 6b bd 00 00 00 00
       0.20528586 0.0 -0.05755195 0.0
000010 3d c1 84 be 00 00 00 00 4b 8b b8 3d 00 00 00 00
       -0.2592868 0.0 0.09010943 0.0
000020 cd 84 3c be 00 00 00 00 91 b2 5f 3c 00 00 00 00
       -0.18410034 0.0 0.013653413 0.0
000030 54 41 3c 3e 00 00 00 00 f3 fe 52 3d 00 00 00 00
       0.18384296 0.0 0.05151267 0.0
000040 21 48 30 3e 00 00 00 00 04 9c 34 3e 00 00 00 00
       0.17215015 0.0 0.1763764 0.0
000050 6e 41 78 3e 00 00 00 00 01 00 70 3c 00 00 00 00
       0.2424371 0.0 0.014648438 0.0
000060 04 58 44 be 00 00 00 00 57 ea 64 be 00 00 00 00
       -0.191742 0.0 -0.22355019 0.0
000070 d0 07 69 be 00 00 00 00 a3 79 33 3e 00 00 00 00
       -0.22756886 0.0 0.1752687 0.0
000080 0f 50 4c 3d 00 00 00 00 46 02 0a 3e 00 00 00 00
       0.049881037 0.0 0.1347743 0.0
000090 17 96 92 bd 00 00 00 00 27 d2 48 be 00 00 00 00
       -0.071575336 0.0 -0.19611417 0.0
0000a0 19 88 3d be 00 00 00 00 c8 60 44 be 00 00 00 00
       -0.18508948 0.0 -0.19177544 0.0
0000b0 6b 69 03 be 00 00 00 00 3b 86 b1 bc 00 00 00 00
       -0.12833183 0.0 -0.021670451 0.0
0000c0 e0 14 49 3e 00 00 00 00 e4 a4 34 3e 00 00 00 00
       0.1963687 0.0 0.17641026 0.0
0000d0 cf c1 1e 3e 00 00 00 00 26 ee 32 3e 00 00 00 00
       0.1550362 0.0 0.17473659 0.0
0000e0 13 e8 3b be 00 00 00 00 3e 4d 58 be 00 00 00 00
       -0.18350248 0.0 -0.21123216 0.0
0000f0 88 36 50 3e 00 00 00 00 b7 37 0e 3e 00 00 00 00
       0.20333302 0.0 0.13888441 0.0
000100 aa 84 5a 3e 00 00 00 00 75 60 30 3e 00 00 00 00
       0.2133967 0.0 0.17224295 0.0
000110 89 3e 01 3e 00 00 00 00 61 bb ee bc 00 00 00 00
       0.12621512 0.0 -0.029142084 0.0
000120 53 2c 6c be 00 00 00 00 ac 6e 17 bd 00 00 00 00
       -0.23063783 0.0 -0.03697078 0.0
000130 a8 97 21 3e 00 00 00 00 7d 03 4f be 00 00 00 00
       0.15780509 0.0 -0.20216174 0.0
000140 2b 5a 2a 3b 00 00 00 00 37 54 56 3e 00 00 00 00
       0.0025993686 0.0 0.20930563 0.0
000150 98 e4 2e bb 00 00 00 00 d3 10 66 3e 00 00 00 00
       -0.0026686545 0.0 0.22467355 0.0
000160 70 0f 24 be 00 00 00 00 8a 35 47 be 00 00 00 00
       -0.16021514 0.0 -0.19454017 0.0
000170 4a 21 73 be 00 00 00 00 93 bd 7a 3e 00 00 00 00
       -0.23743168 0.0 0.2448638 0.0
000180 25 ca e0 bb 00 00 00 00 2c c5 25 3e 00 00 00 00
       -0.006860035 0.0 0.16188496 0.0
000190 29 9e 2d 3e 00 00 00 00 e5 38 3a bd 00 00 00 00
       0.16954865 0.0 -0.045464415 0.0
0001a0 7b 2c 52 be 00 00 00 00 21 23 47 be 00 00 00 00
       -0.2052478 0.0 -0.19446994 0.0
0001b0 63 a8 c4 3d 00 00 00 00 37 5f 56 3c 00 00 00 00
       0.0960243 0.0 0.013084224 0.0
0001c0 3f 26 16 3e 00 00 00 00 f7 52 66 be 00 00 00 00
       0.14663027 0.0 -0.22492586 0.0
0001d0 33 bb 5c be 00 00 00 00 3d fb fc 3b 00 00 00 00
       -0.21555786 0.0 0.0077203796 0.0

seq_midi.2.s5.seq.C f4 [60, 128, 2]
000000 7b 42 ef bc be 2a f3 bc 81 bb ca bd 1c 8f 4e bc
       -0.029206505 -0.029683467 -0.09899045 -0.012607362
000010 d2 68 b0 3d 1e a4 a9 bd a8 01 82 3c 70 13 0e bc
       0.08613743 -0.08283256 0.01586993 -0.008671626
000020 f3 4d 0e bb e1 e0 e5 bb f9 77 0d bc 1c 7d 21 bc
       -0.0021713942 -0.007015333 -0.008634561 -0.009856489
000030 85 ff 3a bb 5b 7b a8 3b 5d de a7 bc ad e1 1c 3d
       -0.002853365 0.0051416582 -0.020491773 0.03830116
000040 b5 fc 81 bc 29 c6 98 b9 cd 01 aa 3b 94 e8 c6 bb
       -0.01586757 -0.0002913934 0.005188203 -0.006070206
000050 71 16 d6 3c da 35 86 3c cb 8b 11 3b 38 7c de 3b
       0.026133748 0.0163831 0.0022208567 0.0067897104
000060 f6 bd 91 3b be 2c 1a 3b fa b2 73 bb 59 cc a8 3b
       0.004447694 0.0023525204 -0.0037185536 0.0051513133
000070 fb d4 fa 3a 36 7c 46 3c 59 4e 82 bd 81 fe 4b bd
       0.001913696 0.012114575 -0.063626 -0.04980326
000080 1e 86 da 3c 2d ae d9 bc de 48 f9 3c 1a 88 3a bc
       0.02667528 -0.026572311 0.030430254 -0.011384988
000090 5e 58 2b bc 24 cc 4d ba 7a 37 fe 3b 3b db 41 bc
       -0.01045808 -0.0007850549 0.007758078 -0.011832054
0000a0 72 d8 93 3b c4 39 fb 3b 2e 81 42 3c 5e 7d 01 3c
       0.0045118863 0.0076667983 0.011871619 0.007903425
0000b0 a3 ac 11 bb cf 8b 5b bd cc c3 60 bd bc 88 70 3d
       -0.0022228144 -0.05360013 -0.054874226 0.05872415
0000c0 1d d8 66 3c 26 be e4 39 ec 90 a3 3d 67 be 16 bc
       0.014089611 0.0004362922 0.07986626 -0.009200669
0000d0 a9 d4 f6 bc 2f e1 e3 3b a8 73 ea bc 7a 0b 7e 3c
       -0.030130701 0.006954334 -0.028619602 0.015505666
0000e0 0d eb 40 3b 89 03 75 bb ce 31 06 3c 04 b6 21 ba
       0.0029436976 -0.003738614 0.008190585 -0.0006168785
0000f0 94 b8 9f 3b 70 e4 10 bd 4f ae a2 bc 93 66 99 bc
       0.0048742983 -0.035374105 -0.019858507 -0.018725669
000100 64 67 31 3d 78 86 d5 3d 3a f6 b9 bb cc ce a9 ba
       0.04331149 0.104260385 -0.0056751044 -0.0012955307
000110 c4 4b 38 3b 3c 20 ac 3c 6d cd bd 3c e0 7f 5d 3c
       0.0028121332 0.021011464 0.023169244 0.013519257
000120 48 1a c9 bb 31 9d 86 3c d1 21 f8 bc 34 66 8e 3b
       -0.006137166 0.016432377 -0.030289562 0.0043456797
000130 72 a4 f8 3a 7b 46 00 bb 6b 8b 37 bc 5e 07 8a bd
       0.0018969907 -0.001957326 -0.011202673 -0.067396864
000140 47 ce 1d bc 72 d1 91 bb fc d8 5f 3d f5 7f d4 bd
       -0.0096317 -0.0044500167 0.05465029 -0.10375968
000150 3f c0 d8 bb f8 d7 6d 3a f7 85 96 bb d7 71 80 bb
       -0.0066147144 0.00090730144 -0.0045936066 -0.0039198208
000160 dd 1d 23 bc 1a 88 4b bb 41 dd 50 3c 4e c6 43 bc
       -0.00995585 -0.0031056465 0.012748064 -0.011949135
000170 11 31 07 3c ff e7 97 bb 63 fa 20 3d 1d 65 8c 3d
       0.008251444 -0.0046358104 0.039301287 0.06855223
000180 5a aa ad ba 09 8c 31 3c 59 4f 2b 3c f6 82 8c 3d
       -0.0013249621 0.01083661 0.01045593 0.06860916
000190 f3 05 5d bc 4a d0 b4 bb a9 a1 b8 3c f0 5a b3 bc
       -0.013490188 -0.005517994 0.022538023 -0.021893948
0001a0 36 1d c6 3a 18 6d de 3a 8d 70 bf 3c 21 dd 16 3c
       0.0015114907 0.0016969768 0.023369098 0.009207995
0001b0 af ce 1d 3c 51 9e 11 3d ce d6 c4 bb 22 d3 b2 bb
       0.009631797 0.035551373 -0.006007052 -0.005457298
0001c0 4c 8b 3f ba 0c be 84 bb e6 59 e3 37 de d0 d5 3a
       -0.00073068286 -0.0040509757 2.7102371e-05 0.0016312858
0001d0 3d 2a 46 3d bb fc 15 be 49 92 48 ba 92 60 10 bc
       0.048380125 -0.1464719 -0.0007651193 -0.008812087
0001e0 58 fa 94 bc d2 d5 0f bd bd 2c 2f bb 7a e3 33 3b
       -0.01818578 -0.035116024 -0.0026729547 0.002744882
0001f0 24 e6 25 bc 1e 53 3c 3c be e7 8c 3b 1c 18 26 3c
       -0.010125671 0.011494426 0.0043000868 0.010137584
000200 05 7e 73 3c 7b 36 56 bd 75 da 29 3d 95 47 10 3c
       0.014861588 -0.05229805 0.041468102 0.008806129
000210 a2 b3 c7 3c b5 04 b6 3b cb 0f 13 bd 3e 20 39 3d
       0.024377648 0.0055547603 -0.035903733 0.045196764
000220 8d 9c 0e 3c 85 b6 e3 bb db 17 64 b9 da f2 8c 3a
       0.008704317 -0.0069492483 -0.00021752661 0.0010753528
000230 ff dd 8c bd d7 e9 8d 3c 00 89 63 bb 7d 1d 8b bc
       -0.0687828 0.017323418 -0.003471911 -0.016981835
000240 b6 c3 04 bd a9 95 f2 ba e4 a5 93 bc 91 8e 8a bc
       -0.032413207 -0.0018507737 -0.018023439 -0.016913684
000250 2f 6a 65 bd 70 49 0f bd ed e7 59 3c 05 6a e9 3a
       -0.056009468 -0.034982145 0.013299924 0.0017808086
000260 91 1e a4 37 98 e4 9a 3b f7 cc 4f 3a 55 53 77 bb
       1.9564557e-05 0.0047269575 0.00079269655 -0.0037738879
000270 75 2c 49 3b 8c d0 78 3b 57 ea cc 3a 93 cf 79 bc
       0.0030696664 0.00379661 0.0015633804 -0.015247243
000280 c8 d8 96 3c 18 0b 3a bb 3d 07 34 bb 93 37 3e bd
       0.018413916 -0.002838796 -0.0027470135 -0.04643972
000290 60 72 da bd b6 9d 85 be ba 7a 30 ba 71 1d 2f bb
       -0.106663465 -0.26096886 -0.0006732155 -0.002672043
0002a0 9f da d7 3b 39 b4 f9 3b 11 c4 9d 3c 9c c2 e9 3d
       0.006587341 0.007620361 0.01925853 0.11414072
0002b0 ab ed 1c bb 39 a7 d0 bc 01 4a a1 3b 94 ca 06 3c
       -0.0023945372 -0.025470363 0.004922152 0.008227009
0002c0 19 5a 80 3d 54 5a da 3b 79 5d b5 bb b4 ca c2 b9
       0.06267185 0.0066636 -0.0055348244 -0.0003715359
0002d0 5f 1c 16 3b c3 e3 d4 3c 29 a5 91 bb ae 80 ca 39
       0.0022905094 0.025987512 -0.0044447375 0.00038624316
0002e0 87 2e 79 bc f1 2c 81 3c 08 ba 69 3a 42 b5 77 3c
       -0.015208847 0.0157685 0.00089159654 0.015118899
0002f0 1a 10 75 bb 54 7b cb 3c 18 9c 33 bd 67 5f 17 bc
       -0.003739363 0.02483908 -0.043850034 -0.009239054
000300 b8 3a 26 3d 9d a1 f0 bc 25 f6 18 bb bf 79 04 3c
       0.040583342 -0.029373938 -0.0023340073 0.008085667
000310 36 7b 26 3b 15 4e 82 3a 74 67 90 bb af 0a b0 bc
       0.002540303 0.0009941483 -0.004406864 -0.02148947
000320 6d d0 00 3c b7 b7 4e 3c 7c a9 3f 3d f2 af 66 bc
       0.007862193 0.012617043 0.046792492 -0.014080035
000330 51 60 c6 bc 72 92 e3 3b 1d 19 25 3d 80 e5 97 3c
       -0.02421585 0.006944948 0.040307153 0.018542051
000340 fc 00 30 be 70 c6 cf 3c c0 18 8d bd e6 66 4d 3c
       -0.17187876 0.025363177 -0.06889486 0.01253674
000350 b4 0a 19 3c 6b 13 a9 3a cc 29 62 3c d8 1e 86 3d
       0.009340931 0.0012899464 0.01380391 0.06548852
000360 56 12 4e bb 1a 1a 58 bb 8b d8 b2 bb 6e 87 8b 3d
       -0.0031444035 -0.0032974542 -0.005457943 0.068129405
000370 6d bf 38 ba f5 f9 d9 3b c2 1b 8a 3c 0e 8d 80 3d
       -0.00070475676 0.0066521117 0.01685894 0.06276904
000380 41 7a 37 3c 0b b4 35 3b 1b 49 aa bc 4a 5d 16 bc
       0.011198581 0.0027725722 -0.020786813 -0.009177515
000390 10 bd 13 b8 9d b6 ac 3b a4 74 9a 3c a8 7f b7 3c
       -3.522361e-05 0.0052707926 0.018854447 0.022399738
0003a0 04 01 62 bb fd 35 39 bb d1 7c 94 bd c0 82 3e bc
       -0.0034485469 -0.002826094 -0.07250369 -0.011627853
0003b0 15 c9 08 bc dd 32 f9 3b 7f 49 50 bc 14 50 8c 3b
       -0.008348723 0.0076049403 -0.012712835 0.004282007
0003c0 ee 39 fc 3a 5a 87 c3 3a 57 52 f6 bd a3 4c 88 bd
       0.0019243339 0.0014917657 -0.12027424 -0.06655242
0003d0 a9 85 0c ba cc 12 34 bb 77 6f ff 38 b6 c9 b0 bc
       -0.0005360493 -0.0027477024 0.000121801095 -0.021580558
0003e0 e6 0d 92 bc 4e a2 26 ba 0e 47 0a 3c 03 7e 9c 3b
       -0.017828893 -0.0006356583 0.008439792 0.004775764
0003f0 5c 7d f9 3b ff a6 40 3c 5c cc 39 3b 68 cf fc 3c
       0.007613821 0.011758565 0.0028350567 0.030860618

seq_midi.2.s5.seq.norm f4 [128]
000000 6b 74 71 bf 58 ff dd be c2 89 d0 bf 38 a8 c3 bf
       -0.94318265 -0.43358874 -1.629204 -1.5285711
000010 a8 67 40 3f bd 57 19 c0 8e f9 0d c0 3a 75 b5 be
       0.75158167 -2.3959801 -2.2183566 -0.35441
000020 ee e7 96 bc e8 71 15 c0 ba 11 c0 be 52 b9 1c c0
       -0.01842114 -2.3350773 -0.37513524 -2.448811
000030 dc 64 07 3f e2 38 0a c0 b0 af 1c c0 ce 29 87 bf
       0.52888274 -2.1597219 -2.448223 -1.0559633
000040 dc 77 85 bf 98 1a 8c 3e c7 9b 13 c0 a3 63 bf 3e
       -1.0427203 0.2736404 -2.306383 0.37380704
000050 49 c9 0e c0 55 cc 3c 3f 80 cf d5 be f4 c6 f9 be
       -2.2310355 0.73749286 -0.41759872 -0.48784602
000060 51 6a cb 3e 59 6f 96 bf e4 c7 a5 3e c5 5c 71 3f
       0.3972955 -1.1752731 0.32379067 0.9428218
000070 93 33 19 3f 90 80 ee bf 11 b6 f3 be 4e ef 1d c0
       0.5984432 -1.8632984 -0.47599843 -2.467731
000080 8e 69 1e bf dc 78 45 c0 2e 0d e8 bf d1 67 fe 3e
       -0.61879814 -3.0855017 -1.8129022 0.4968858
000090 d6 d5 d0 3e dc 9a 3d 3e 8c a7 5b c0 e0 52 8f bf
       0.40788144 0.18516105 -3.4321012 -1.1197166
0000a0 97 2f 24 c0 33 2c a8 be 2f eb 4c c0 73 1b 49 c0
       -2.5654047 -0.3284622 -3.2018545 -3.1423004
0000b0 58 1c 24 c0 74 98 44 bf 33 18 3e c0 0f 1f 80 3d
       -2.56423 -0.76795125 -2.970227 0.06255924
0000c0 a4 f0 bc 3e c5 a8 6c bf 73 08 26 c0 5c d7 c2 bf
       0.36902344 -0.9244502 -2.5942657 -1.5221972
0000d0 17 f9 c9 bf 39 79 32 c0 13 c4 39 c0 c9 91 75 c0
       -1.5779141 -2.7886488 -2.9025924 -3.837023
0000e0 1e 34 63 c0 86 db 33 c0 85 72 c0 bf ab fb 3d c0
       -3.550056 -2.8102736 -1.5034949 -2.9684856
0000f0 be cc 36 c0 18 32 9b c0 18 06 46 c0 47 70 32 c0
       -2.8562465 -4.849865 -3.094122 -2.7881029
000100 d1 4e 7f c0 ab 07 28 c0 33 51 49 c0 dd 2f 17 c0
       -3.9891856 -2.625468 -3.145581 -2.3622963
000110 f8 14 2e c0 3b 22 a2 c0 cf d2 b9 bf 89 33 0d c0
       -2.7200298 -5.0666785 -1.4517459 -2.2062705
000120 06 8e c6 bf 25 91 35 be c0 05 e0 bf db 5e 53 bf
       -1.5512092 -0.1773115 -1.7501755 -0.8256661
000130 75 f6 0d c0 44 69 2b c0 e1 19 79 c0 9d a1 e0 bf
       -2.2181675 -2.6783 -3.8922045 -1.754932
000140 7e 14 30 c0 68 16 75 bf b3 2e 0d bf 7b 2d 52 c0
       -2.7512507 -0.95737314 -0.5514938 -3.284026
000150 70 e9 41 c0 66 c1 35 bf c3 cd 35 c0 03 e5 9d bf
       -3.029873 -0.7099823 -2.8406837 -1.2335514
000160 7b 7a 19 3f 75 85 57 c0 60 ec 06 c0 f2 73 5f c0
       0.59952515 -3.3675206 -2.1081772 -3.4914517
000170 aa 59 e5 bf aa f9 97 be 9a 18 f1 bf 66 1c db bf
       -1.7917988 -0.29682666 -1.8835633 -1.7118042
000180 a2 17 a7 bf eb dd 02 c0 19 f6 fa bf 44 47 09 3f
       -1.3054087 -2.0447948 -1.9606353 0.5362437
000190 1b 27 46 c0 c9 3a 1c bf e3 7f c7 3e 4c 52 42 be
       -3.0961368 -0.610272 0.38964757 -0.18976706
0001a0 35 79 20 c0 23 0f 8f bf 59 24 27 c0 77 81 84 3d
       -2.507398 -1.1176494 -2.6115935 0.06470006
0001b0 5f ab 11 c0 fa 92 3e bf 25 00 92 3e 8f 6c 20 c0
       -2.2760847 -0.7444302 0.28515735 -2.506626
0001c0 4d 58 3c 3f bc 97 73 be dd e3 d1 bf 5c 63 4f 3a
       0.73572236 -0.23788351 -1.6397663 0.0007911229
0001d0 8c 3a d9 bf e4 a9 51 be 7b 4f 8d 3e 9b 1b 74 bd
       -1.6970992 -0.20474964 0.275997 -0.05959664
0001e0 3a e8 c2 bf f0 ee ad bf 51 51 0f 3f 84 a6 89 bd
       -1.522712 -1.3588543 0.55983454 -0.067212135
0001f0 e6 23 18 bf 11 82 06 c0 79 fc b0 bf 08 a5 26 bf
       -0.59429777 -2.1016886 -1.3827049 -0.6509557

seq_midi.2.s5.seq.angle f4 [128]
000000 aa 2d c9 bf 22 16 c9 bf 53 a6 d1 bf 38 8c c9 bf
       -1.571706 -1.5709879 -1.6378883 -1.5745916
000010 56 18 c9 bf 06 28 cb bf d7 21 c9 bf 9b ba c9 bf
       -1.5710552 -1.5871589 -1.5713452 -1.5760072
000020 6f 58 c9 bf 21 28 c9 bf 72 33 c9 bf 0d 33 c9 bf
       -1.5730113 -1.5715371 -1.5718825 -1.5718704
000030 28 15 c9 bf 3d 41 c9 bf 6f 6a c9 bf 1f a0 ca bf
       -1.5709581 -1.5723034 -1.5735606 -1.5830115
000040 82 d0 cb bf de 8a ca bf be b0 cd bf 86 15 c9 bf
       -1.5923007 -1.5823629 -1.6069562 -1.5709693
000050 e6 08 dc bf 76 1e c9 bf 56 1a ca bf d3 b5 c9 bf
       -1.7190216 -1.5712421 -1.5789287 -1.5758613
000060 9e 48 c9 bf 68 38 c9 bf 52 13 c9 bf 3b cd c9 bf
       -1.5725286 -1.5720339 -1.5709021 -1.5765756
000070 fb 15 c9 bf 21 6b cb bf 88 6b c9 bf d0 f2 cd bf
       -1.5709833 -1.5892068 -1.5735941 -1.6089725
000080 47 63 cb bf 45 36 c9 bf ec 39 c9 bf 03 12 c9 bf
       -1.5889672 -1.5719687 -1.5720801 -1.5708622
000090 69 15 c9 bf d7 ee c9 bf 42 36 c9 bf ca b1 c9 bf
       -1.5709659 -1.5776013 -1.5719683 -1.5757382
0000a0 bc 9e c9 bf 52 40 ca bf fe 3b c9 bf a0 43 c9 bf
       -1.5751567 -1.5800879 -1.5721433 -1.5723763
0000b0 e5 2a c9 bf 5e db c9 bf 89 42 c9 bf a9 12 c9 bf
       -1.5716215 -1.577007 -1.572343 -1.570882
0000c0 af 12 c9 bf 89 b3 ca bf 92 56 f0 bf 62 58 c9 bf
       -1.5708827 -1.583604 -1.8776419 -1.5730097
0000d0 b8 b6 c9 bf 6a 76 dd bf 22 8e f3 bf 3f 6c c9 bf
       -1.5758886 -1.7301762 -1.902775 -1.5736159
0000e0 72 33 c9 bf 7e 9e de bf 5e 4a cf bf ee a3 ee bf
       -1.5718825 -1.7392118 -1.619457 -1.8643777
0000f0 c4 c3 dd bf 68 a9 ca bf 7c f1 d4 bf 93 b1 e6 bf
       -1.7325368 -1.5832949 -1.6636195 -1.8022941
000100 a5 07 45 c0 1e b3 ec 3f c0 33 e6 3f 44 0f ec 3f
       -3.0785916 1.8492162 1.7984543 1.8442159
000110 39 6b e4 3f 21 20 c9 3f c3 6b cb 3f 60 7c d4 3f
       1.7845222 1.571293 1.5892261 1.6600456
000120 a9 e1 c9 3f d5 4f c9 3f d7 cf cd 3f 6f 50 c9 3f
       1.5771991 1.5727488 1.6079053 1.5727671
000130 5a 76 c9 3f e1 b1 ca 3f 4b a6 cb 3f 60 2c c9 3f
       1.5739243 1.5835534 1.5910124 1.5716667
000140 3f ab d1 3f 34 ea ca 3f c8 15 c9 3f 2a 61 d2 3f
       1.6380385 1.5852723 1.5709772 1.6435902
000150 59 28 cc 3f 85 9d c9 3f 69 d6 d0 3f c7 5a c9 3f
       1.5949813 1.5751196 1.6315433 1.5730828
000160 76 3f ca 3f 0d ae cb 3f 50 2d ca 3f 6e 5c c9 3f
       1.5800617 1.5912491 1.5795078 1.5731332
000170 29 46 cb 3f 0c 4c c9 3f 68 bb cc 3f c0 1a cc 3f
       1.5880786 1.5726333 1.5994692 1.5945663
000180 12 90 cd 3f 70 44 c9 3f 01 55 cc 3f ea 5c c9 3f
       1.6059592 1.572401 1.5963441 1.573148
000190 43 50 d1 3f a4 18 c9 3f 0e 83 c9 3f ce c6 ca 3f
       1.6352619 1.5710645 1.574312 1.584192
0001a0 72 73 c9 3f ee 1a c9 3f 80 43 cf 3f 57 f7 c9 3f
       1.5738356 1.5711343 1.6192474 1.5778607
0001b0 77 2a c9 3f b0 70 cb 3f a3 13 c9 3f 0a 24 c9 3f
       1.5716084 1.5893764 1.5709118 1.5714123
0001c0 95 17 c9 3f 59 61 c9 3f 69 38 c9 3f a9 97 c9 3f
       1.5710322 1.5732833 1.572034 1.5749408
0001d0 97 4d c9 3f 48 f9 ca 3f cf 13 c9 3f 6b 71 c9 3f
       1.5726804 1.5857325 1.570917 1.5737737
0001e0 41 18 c9 3f 4c 8c ce 3f ad 12 c9 3f 95 1b c9 3f
       1.5710527 1.6136565 1.5708824 1.5711542
0001f0 bb 12 c9 3f 7f 22 c9 3f e2 68 cb 3f 68 70 c9 3f
       1.5708841 1.5713652 1.5891383 1.5737429

seq_midi.2.skipLayer.weight f4 [60, 88]
000000 26 c9 9e 3d 94 37 76 bd 3b 05 8e ba e7 df 1f bd
       0.0775321 -0.060111597 -0.0010835299 -0.03903189
000010 eb 9e 6d bd 79 bc 26 3c 7d c6 c7 3d d7 99 11 3e
       -0.058012884 0.010176771 0.097546555 0.14218841
000020 19 5d a3 3c b1 76 91 3d 96 d1 89 3d d3 33 4d 3d
       0.019941853 0.07102717 0.067294285 0.05009825
000030 d1 61 36 3d b7 3b c6 bd 5d b0 a1 bc 41 6c bb bd
       0.04452688 -0.096793585 -0.019737417 -0.09151507
000040 db 63 41 bd a3 a7 ed bc ca df 5b 3c 82 90 10 be
       -0.04721437 -0.0290106 0.013420055 -0.14117625
000050 bc f8 a5 bc 4e 17 3c 3c 49 cb 46 3b bd 2b 84 3b
       -0.020260207 0.011480166 0.003033357 0.0040335343
000060 77 8c b9 bd 15 9e b5 b9 95 67 78 3d 88 ad 86 3d
       -0.09059995 -0.0003464079 0.06064566 0.06576067
000070 54 7a 5a 3c 8b 2f 19 3e 37 61 e6 bd a5 e8 ff bb
       0.013334829 0.14959542 -0.11249011 -0.007809716
000080 46 b4 63 3d 06 68 e4 3c c7 e8 ae bc 02 20 5b bc
       0.055591844 0.027881633 -0.021351231 -0.0133743305
000090 82 bf c5 3d fc c2 9e 3b 5f a5 89 3a fb 65 11 3c
       0.09655668 0.0048450213 0.0010501555 0.008874412
0000a0 af c2 33 bd ba 32 55 bd 8c 0c b1 bd d3 23 5f be
       -0.043886837 -0.05205033 -0.08644971 -0.2179101
0000b0 db b7 1a 3c d4 9e d9 3d 91 46 46 3c 36 9f bf bc
       0.009443249 0.10625997 0.012101785 -0.023391347
0000c0 44 9a 76 bc eb 15 8a 3b 32 ad e9 bd 0b 82 ca 3d
       -0.015051428 0.0042140386 -0.114099875 0.09888085
0000d0 c1 49 e1 bc 8d d2 ce bc 9f 59 48 3d 33 17 83 bd
       -0.027500989 -0.025246883 0.048913594 -0.06400909
0000e0 10 ff 99 bc 07 17 a7 bd df 36 2b bc 03 37 bb 3d
       -0.018798381 -0.08158689 -0.010450094 0.09141352
0000f0 b8 7e 4b 3d 07 2d 69 bd f2 c0 9e 3b 34 3c 4a bd
       0.049681395 -0.056927707 0.004844778 -0.04937382
000100 62 19 1a 3d f2 35 fd bc 6c a3 ab bb 50 0b dd 3c
       0.037621863 -0.030909512 -0.0052379873 0.026982933
000110 d1 b2 51 3c 8e 13 74 bd 20 45 e9 bd 29 a0 f2 3d
       0.012798981 -0.05958896 -0.11390138 0.118469544
000120 b8 26 00 3d fc 5a 86 3d d2 0d 02 be 95 df 79 bc
       0.031286925 0.06560323 -0.12700585 -0.01525106
000130 45 50 6c 3e 8e f5 00 bd d2 f2 df 3c 12 68 a3 3d
       0.23077495 -0.03148418 0.027337465 0.07978834
000140 f1 3a 34 3c 1c c6 62 bd 83 be 26 3e 72 d8 91 3c
       0.011000381 -0.055364713 0.16283612 0.017803404
000150 ad 89 9f 3d 27 4e bd bc 59 a9 a1 bd 73 ee 80 bc
       0.077899314 -0.023108555 -0.078936286 -0.015738701
000160 ad b5 5a bc e7 93 15 3c 11 7e e0 3d e1 48 2e bc
       -0.013348979 0.009129501 0.10961545 -0.010637493
000170 d2 6e 34 3d 92 19 7c bd 7d 32 f8 bc 3d 08 33 be
       0.044051 -0.061547823 -0.030297512 -0.17483611
000180 96 6e 49 3d d0 5b 56 3c 66 a1 ac 3c b8 00 9e 3d
       0.04917773 0.013083413 0.021073055 0.07714981
000190 c0 e5 d6 bc 00 ee 58 bd 0b 09 24 3d c3 39 a4 3d
       -0.0262326 -0.05296135 0.040047687 0.0801883
0001a0 2d 60 69 3d 03 cf 67 bd 58 cb c9 bc 57 5a 7d bc
       0.056976486 -0.056593906 -0.024633095 -0.015463433
0001b0 a8 1e ad 3b a1 f1 82 3c 6c 42 a0 3d d6 82 02 3d
       0.0052831955 0.015984358 0.07825169 0.031863056
0001c0 cf 05 1c 3d b7 85 e5 bd 6a ae c8 bd fd 68 a1 bd
       0.038091477 -0.11207145 -0.09798892 -0.07881353
0001d0 a0 31 11 bd ca e1 27 bd f6 8f 8f bd 16 a8 23 3d
       -0.035447717 -0.040986814 -0.0700988 0.03995522
0001e0 16 5e 81 3d e8 bf c9 3d 76 83 8c 3d a4 24 b1 bd
       0.063167736 0.09851056 0.06861012 -0.08649567
0001f0 45 7e 42 be 59 7f 29 bd 1d b3 96 3d fa 0a be 3d
       -0.1899348 -0.041381214 0.07358382 0.09279437
000200 76 71 79 be 69 98 2f bd 39 1c 1d 3d 09 90 bb 3d
       -0.24359688 -0.04286996 0.038356993 0.09158332
000210 98 6f 83 bd aa ac e4 bc 1c 67 5c bc 6c a0 07 3c
       -0.06417769 -0.027914364 -0.013452318 0.008277994
000220 97 20 a0 bd d6 0e a6 bb bc 3e 73 3c 50 47 3e bc
       -0.07818716 -0.0050676866 0.0148465 -0.011613682
000230 54 6c 2c 3d 01 57 e8 3c e5 ce c5 3d cb ec 97 bb
       0.042095497 0.0283618 0.096586026 -0.004636382
000240 28 0e 50 3d 91 d9 f8 3c b5 87 b6 3d f4 99 14 3d
       0.05079475 0.030377181 0.08912603 0.036279634
000250 2c 42 2a be fe 63 d5 3d 3d f0 c9 bd 0f 48 92 3d
       -0.16626805 0.104194626 -0.09860275 0.0714265
000260 e2 cf 29 3d 43 05 64 bd 92 33 56 3b b9 f8 74 bd
       0.041458018 -0.05566908 0.0032684547 -0.059807513
000270 ce 7c 03 bd 38 ed 1f bc a4 e6 d6 bc cb 32 a2 3c
       -0.032101445 -0.009761147 -0.026233025 0.01979961
000280 4a 03 5b bb 1b d7 db bd 2e 81 13 3e 98 c2 c2 bd
       -0.0033418708 -0.107343875 0.14404747 -0.09509772
000290 a4 b4 54 bb 77 ab 87 bd 0a 27 7f bd f8 88 d9 3d
       -0.0032456303 -0.06624501 -0.06229309 0.10621828
0002a0 ec f5 5c 3d 07 f8 b7 3d 4e ff 2f bd 92 31 ac bc
       0.053945467 0.08982854 -0.042968087 -0.02101973
0002b0 fd 51 1f be 9b 05 1b 3d 5b e5 da bc 4b b2 86 bc
       -0.1555862 0.037847143 -0.026720693 -0.016442439
0002c0 e9 ed 83 3c 55 01 c5 bc 4c 73 91 bc 34 73 14 3c
       0.016104655 -0.024048487 -0.017755173 0.00906067
0002d0 8b a3 53 3e 25 1d b8 bb 32 dc 04 bd 9d 35 8c bd
       0.20667855 -0.0056187087 -0.032436557 -0.068461634
0002e0 d2 cc 11 3e c9 67 89 bd 51 7b df 3d 3b 29 a9 bd
       0.14238289 -0.067092486 0.109121926 -0.08259817
0002f0 80 8c 11 bc cd 2f 83 bd 57 d6 89 3d b5 a5 86 3d
       -0.0088835955 -0.06405602 0.06730335 0.06574575
000300 c1 60 b7 3c a8 f9 0e bd ea 96 e1 bd 7e 50 03 3e
       0.022385003 -0.03490606 -0.11015113 0.12823674
000310 64 b4 41 bd d0 b9 87 3c 11 ec fd 3b 4b 27 a0 bd
       -0.047291175 0.016568094 0.0077490886 -0.078199945
000320 0b 69 7a bb fe ae c6 bc 26 5d 0f bc f2 33 03 3d
       -0.0038209583 -0.024253365 -0.008750236 0.03203196
000330 ce 2a c2 3d c4 99 cd bd 8e 2e 6e 3c 0b 04 9d 3b
       0.094808206 -0.10039094 0.014537467 0.0047917417
000340 34 58 02 3d 27 35 00 3d 78 64 34 bd 9f 4e 4e 3d
       0.0318224 0.03130069 -0.044041127 0.050367948
000350 b9 0b 2a be 20 53 99 bc c5 b6 92 3d 4d 6f 0a 3d
       -0.16606034 -0.018716395 0.07163767 0.03379755
000360 e8 b4 16 be a9 ef cf 3c 65 10 d1 3d 4a 4c f5 3d
       -0.14717448 0.025382834 0.10208205 0.119774416
000370 d5 9f 11 3c 0a 6f bf 3c ac 5e aa 3d 94 8a 52 3d
       0.008888205 0.023368377 0.083188385 0.05140169
000380 d6 f0 c8 bd c8 31 45 3c 2b ce ae bd b9 84 84 3d
       -0.09811561 0.012035795 -0.08535417 0.06470627
000390 97 9b 05 bc fb 49 17 3d 20 ca fd 3d ce 4d ef 3d
       -0.008154771 0.036935788 0.12392068 0.11684762
0003a0 68 e2 b8 bd 2b 0a f6 3c 18 fe 07 be 1a ca b6 bb
       -0.090275586 0.030034145 -0.13280523 -0.0055782916
0003b0 3e 38 ae bc bd 0d 2c 3c 32 bd 78 3d ee 08 7b bd
       -0.021267053 0.010501322 0.060727306 -0.061287813
0003c0 9c c0 c3 3b 45 b3 ca 3b b8 9c 4f 3d fb 95 77 bd
       0.0059738886 0.0061859214 0.050686568 -0.060445767
0003d0 4b 61 50 bd 2f 9f 84 3c 3d b7 04 3e 0b 10 ed 3d
       -0.050874036 0.016189186 0.12960525 0.115753256
0003e0 97 ab 3d 3c 8a 1b ab bd ab 9f 84 bd 62 bd bd 3c
       0.011576555 -0.08354862 -0.06475767 0.023161594
0003f0 82 d6 5b bd c2 2a a2 bd 89 15 29 3d 36 e6 b1 3d
       -0.053671367 -0.07918312 0.041280303 0.086864874

seq_midi.3.s5.seq.C_bias f4 [40, 2]
000000 2d 06 c3 bd 00 00 00 00 83 5f 2f be 00 00 00 00
       -0.09522662 0.0 -0.17126279 0.0
000010 b2 c0 11 be 00 00 00 00 22 0d 0c 3e 00 00 00 00
       -0.14233664 0.0 0.13676885 0.0
000020 29 64 20 be 00 00 00 00 dd a0 2d be 00 00 00 00
       -0.15663208 0.0 -0.16955896 0.0
000030 88 d8 29 3e 00 00 00 00 65 de b1 bc 00 00 00 00
       0.16586506 0.0 -0.021712491 0.0
000040 60 0b 5c 3d 00 00 00 00 6d c7 4c 3e 00 00 00 00
       0.053721786 0.0 0.1999795 0.0
000050 32 c6 2a bd 00 00 00 00 76 8f 1d 3e 00 00 00 00
       -0.04169292 0.0 0.15386757 0.0
000060 c0 a4 4d 3e 00 00 00 00 70 34 82 3d 00 00 00 00
       0.20082378 0.0 0.06357658 0.0
000070 35 7b 0e be 00 00 00 00 fc 26 29 be 00 00 00 00
       -0.13914187 0.0 -0.16518778 0.0
000080 0a 55 a7 3c 00 00 00 00 dd 27 1b 3e 00 00 00 00
       0.020426292 0.0 0.15151925 0.0
000090 fb 42 09 bd 00 00 00 00 6f 03 5a bd 00 00 00 00
       -0.033511143 0.0 -0.05322593 0.0
0000a0 e4 1e 85 3d 00 00 00 00 b6 1a c7 3c 00 00 00 00
       0.065000325 0.0 0.024304729 0.0
0000b0 75 12 22 be 00 00 00 00 cc a2 42 3e 00 00 00 00
       -0.15827353 0.0 0.19007415 0.0
0000c0 d6 b7 9d 3e 00 00 00 00 14 79 0c be 00 00 00 00
       0.30804318 0.0 -0.13718063 0.0
0000d0 65 46 de bd 00 00 00 00 6b c4 3a bd 00 00 00 00
       -0.108532704 0.0 -0.045597475 0.0
0000e0 bf 55 49 be 00 00 00 00 11 ee eb bd 00 00 00 00
       -0.19661616 0.0 -0.11520017 0.0
0000f0 3e 68 27 3e 00 00 00 00 54 33 59 be 00 00 00 00
       0.16348359 0.0 -0.21210986 0.0
000100 6d 21 73 3d 00 00 00 00 7e a2 77 be 00 00 00 00
       0.05935805 0.0 -0.2418308 0.0
000110 e6 d2 4b be 00 00 00 00 99 2d c8 ba 00 00 00 00
       -0.1990467 0.0 -0.0015272378 0.0
000120 26 b2 d4 bd 00 00 00 00 32 77 a9 bd 00 00 00 00
       -0.103855416 0.0 -0.08274688 0.0
000130 30 e4 d7 bd 00 00 00 00 ba b2 45 3e 00 00 00 00
       -0.1054157 0.0 0.1930646 0.0
