pretrained_models/PianoSSM_L_MH_maestro_all_44100_model.pth (torch, 557253 bytes, 29 tensors)

seq_midi.1.seq.0.seq.C_bias f4 [88, 2]
0	0x3e3e6c4a	0.18595996
1	0x00000000	0.0
2	0x3dfaadc1	0.12240172
3	0x00000000	0.0
4	0x3e920e92	0.2852674
5	0x00000000	0.0
6	0x3dfdcad1	0.123922
7	0x00000000	0.0
8	0xbe534adc	-0.20634025
9	0x00000000	0.0
10	0x3e3fbc07	0.1872407
11	0x00000000	0.0
12	0x3d042c91	0.032269064
13	0x00000000	0.0
14	0xbeb36cd6	-0.35043973
15	0x00000000	0.0
16	0xbc0ff1ab	-0.0087856455
17	0x00000000	0.0
18	0x3e05384c	0.13009757
19	0x00000000	0.0
20	0xbdac73bf	-0.08420514
21	0x00000000	0.0
22	0xbe184ed0	-0.14873815
23	0x00000000	0.0
24	0x3c9e55b0	0.019327968
25	0x00000000	0.0
26	0x3e20c0df	0.15698574
27	0x00000000	0.0
28	0x3dc78d6b	0.0974377
29	0x00000000	0.0
30	0x3d8e4858	0.06947392
31	0x00000000	0.0
32	0xbd83a799	-0.06428451
33	0x00000000	0.0
34	0xbd8d0a52	-0.06886734
35	0x00000000	0.0
36	0xbe2b5f80	-0.16735649
37	0x00000000	0.0
38	0x3e445ec1	0.19176771
39	0x00000000	0.0
40	0xbd8306f5	-0.06397811
41	0x00000000	0.0
42	0x3e74f1e1	0.23920394
43	0x00000000	0.0
44	0x3d6e5f56	0.05819639
45	0x00000000	0.0
46	0xbd2735e6	-0.040822886
47	0x00000000	0.0
48	0x3dd2f6c9	0.10300977
49	0x00000000	0.0
50	0x3d209063	0.039200198
51	0x00000000	0.0
52	0xbe08ca04	-0.13358313
53	0x00000000	0.0
54	0xbec8ff17	-0.39257118
55	0x00000000	0.0
56	0x3d18ddfa	0.03732107
57	0x00000000	0.0
58	0xbda70a6f	-0.08156287
59	0x00000000	0.0
60	0xbe76a1e1	-0.2408519
61	0x00000000	0.0
62	0x3e454d57	0.19267784
63	0x00000000	0.0
64	0x3cf94e81	0.030432941
65	0x00000000	0.0
66	0x3ead7b7d	0.33883277
67	0x00000000	0.0
68	0x3e61d82f	0.22055124
69	0x00000000	0.0
70	0x3d867bcf	0.06566583
71	0x00000000	0.0
72	0x3d21c501	0.03949452
73	0x00000000	0.0
74	0xbe34e994	-0.17667228
75	0x00000000	0.0
76	0xbe2373a1	-0.15962078
77	0x00000000	0.0
78	0x3ea1e524	0.31620133
79	0x00000000	0.0
80	0xbcbe186d	-0.023205006
81	0x00000000	0.0
82	0xbe9f976c	-0.31170213
83	0x00000000	0.0
84	0x3eb105db	0.3457478
85	0x00000000	0.0
86	0x3d12001f	0.035644647
87	0x00000000	0.0
88	0x3dcdf0c6	0.100556895
89	0x00000000	0.0
90	0xbdfe1d95	-0.12407986
91	0x00000000	0.0
92	0xbcba47c2	-0.022739295
93	0x00000000	0.0
94	0xbb923188	-0.004461471
95	0x00000000	0.0
96	0x3c26a887	0.010172016
97	0x00000000	0.0
98	0xbc748245	-0.014923637
99	0x00000000	0.0
100	0x3de23632	0.11045493
101	0x00000000	0.0
102	0xbe7301cc	-0.23731154
103	0x00000000	0.0
104	0x3b8f8ede	0.004381045
105	0x00000000	0.0
106	0x3cc84343	0.024446135
107	0x00000000	0.0
108	0xbe61d898	-0.2205528
109	0x00000000	0.0
110	0xbd280953	-0.041024517
111	0x00000000	0.0
112	0xbe29665c	-0.16542953
113	0x00000000	0.0
114	0x3eb3f683	0.3514901
115	0x00000000	0.0
116	0x3e27c94a	0.1638538
117	0x00000000	0.0
118	0xbdcfae51	-0.1014067
119	0x00000000	0.0
120	0xbdc27816	-0.09495561
121	0x00000000	0.0
122	0x3d9a4933	0.07533493
123	0x00000000	0.0
124	0xbd7c4708	-0.06159118
125	0x00000000	0.0
126	0x3ea0839e	0.31350416
127	0x00000000	0.0
128	0xbeabe6bd	-0.33574477
129	0x00000000	0.0
130	0x3da63538	0.081156194
131	0x00000000	0.0
132	0x3e4dec46	0.20109662
133	0x00000000	0.0
134	0xbda0de4e	-0.07854901
135	0x00000000	0.0
136	0x3e392579	0.18080701
137	0x00000000	0.0
138	0x3e627645	0.22115429
139	0x00000000	0.0
140	0xbd270e5e	-0.040785186
141	0x00000000	0.0
142	0xbd7472b2	-0.059679694
143	0x00000000	0.0
144	0xbe2e550d	-0.17024632
145	0x00000000	0.0
146	0x3de86961	0.113482244
147	0x00000000	0.0
148	0x3e66d369	0.22541584
149	0x00000000	0.0
150	0xbe2cd648	-0.16878617
151	0x00000000	0.0
152	0x3cfa8b10	0.030583888
153	0x00000000	0.0
154	0xbe0cb61a	-0.13741341
155	0x00000000	0.0
156	0x3e2796db	0.1636614
157	0x00000000	0.0
158	0x3e0c6fd3	0.13714533
159	0x00000000	0.0
160	0xbd7a7d0a	-0.061154403
161	0x00000000	0.0
162	0x3eabfaa3	0.33589658
163	0x00000000	0.0
164	0xbe4f2067	-0.20227204
165	0x00000000	0.0
166	0x3cbc0f35	0.02295647
167	0x00000000	0.0
168	0xbdc356b0	-0.09538019
169	0x00000000	0.0
170	0x3e0891bc	0.13336843
171	0x00000000	0.0
172	0xbc030329	-0.007996359
173	0x00000000	0.0
174	0xbe22cb00	-0.15897751
175	0x00000000	0.0

seq_midi.1.seq.0.seq.C f4 [88, 128, 2]
0	0xbb3d3d21	-0.0028875547
1	0xbc396182	-0.011314752
2	0xbb9df927	-0.004820961
3	0x3bca9881	0.0061827307
4	0xbc6a6e8d	-0.014308584
5	0x3cd54afa	0.026036728
6	0x3b1d9202	0.0024043326
7	0xbb4370d1	-0.0029821882
8	0x3db15c2e	0.0866016
9	0x3dcf66d3	0.10127034
10	0x3c18684d	0.009302211
11	0xbcccc47a	-0.024996031
12	0xbc711ba7	-0.0147160655
13	0x3c948ca2	0.018133465
14	0x3bb2bdc5	0.005454751
15	0x3b4b4266	0.0031014918
16	0xbb0aae2e	-0.0021160948
17	0xb9021679	-0.00012406138
18	0xbd96e9a9	-0.07368786
19	0xbd12c42c	-0.035831615
20	0xbb089aeb	-0.0020844291
21	0x3b4b6492	0.0031035286
22	0x3d19c1f3	0.03753848
23	0xbe17066a	-0.1474854
24	0x3bea25aa	0.007145603
25	0xbbf4f3be	-0.0074753454
26	0xbdc6313f	-0.09677362
27	0x3b0664a8	0.0020506773
28	0xbcf444a0	-0.02981788
29	0x3cc6fac0	0.024289489
30	0x3d08ab2a	0.03336636
31	0x3d1fe1bd	0.03903364
32	0x3b358437	0.0027697214
33	0x3b564fce	0.0032701376
34	0xbdb11e2f	-0.08648335
35	0x3cbc66db	0.022998264
36	0x3d158478	0.036503285
37	0xbc755e4c	-0.014976095
38	0xbdbccd21	-0.09218813
39	0xbd113d6f	-0.03545898
40	0xbcc51d77	-0.024061901
41	0xbd2054a5	-0.039143223
42	0xbc166179	-0.009178513
43	0x3d8c6637	0.068554334
44	0x3d1deeda	0.038557865
45	0x3afd87c2	0.0019342827
46	0xbca3ec78	-0.020010218
47	0xb9f9abab	-0.00047620884
48	0xbceb298f	-0.02870634
49	0xbd751aca	-0.05984
50	0xbcaeebe0	-0.021352708
51	0xbc816376	-0.015794497
52	0xbd0a7641	-0.033804182
53	0xbdd53b1f	-0.10411667
54	0xbc8368b4	-0.016041137
55	0xbcae6331	-0.021287533
56	0x3d111711	0.03542239
57	0x3d0450e0	0.03230369
58	0xbc458ba1	-0.012057216
59	0xbc164819	-0.009172463
60	0x3bfac9e9	0.007653464
61	0xbc00e13b	-0.007866199
62	0xbc3b2484	-0.01142228
63	0xbb72628e	-0.0036985013
64	0xbd879588	-0.06620318
65	0x3b831a97	0.0040009725
66	0x3d483106	0.048874877
67	0xbd286c99	-0.04111919
68	0x3d492be7	0.049114134
69	0x3c659960	0.014013618
70	0xbd0c4c27	-0.034252312
71	0xbcb2ccb3	-0.021826124
72	0xbd13f306	-0.036120437
73	0x3d83dfec	0.06439194
74	0x3b09f517	0.0021050626
75	0x3d23b350	0.039965928
76	0x3c0b0be6	0.0084867235
77	0xbda61061	-0.08108593
78	0x3d4f1732	0.05055923
79	0x3d3c7836	0.04601308
80	0xbe2af2b8	-0.16694152
81	0xbc6252df	-0.013813703
82	0xbd0269f5	-0.03183933
83	0xbdc15f1d	-0.094419695
84	0x3dca270b	0.09870728
85	0x3d5a7668	0.053335577
86	0x3d49e4d2	0.049290486
87	0x3d4fe8f5	0.050759275
88	0xbdcd4e4c	-0.100246996
89	0x3d130c04	0.03590013
90	0xbc8f71d0	-0.017510325
91	0xbbe66ea8	-0.007032234
92	0x3d01162c	0.031515285
93	0x3e64d5fa	0.2234725
94	0x3b4024f2	0.0029318896
95	0x3b3a9710	0.0028471388
96	0x3d7e3bd1	0.062068764
97	0xbe16cf7d	-0.14727588
98	0xbcaf6c24	-0.02141387
99	0xbda1de70	-0.07903755
100	0x3cc32ef6	0.023826104
101	0x3cff1a1a	0.031140376
102	0x3b3b02db	0.0028535638
103	0x3bbb790c	0.005721217
104	0xbab61958	-0.0013893051
105	0xba1c4970	-0.0005961871
106	0xbca29991	-0.019848617
107	0x3e0a5a3d	0.13510986
108	0x3da875cf	0.08225595
109	0x3d074426	0.033023976
110	0xbcb8c88e	-0.02255657
111	0x3c37c13c	0.011215504
112	0x3b80bea5	0.0039289766
113	0xbd773506	-0.0603533
114	0x3cd6d268	0.026223376
115	0xbc0ecdba	-0.008716041
116	0x3c1e1ca7	0.009650386
117	0xbc500324	-0.012696061
118	0xbcd75db7	-0.026289804
119	0xbd7c0829	-0.06153122
120	0xbba07364	-0.004896568
121	0x3cf5d33a	0.030007947
122	0x3c912231	0.017716499
123	0xbdb92807	-0.09040838
124	0xbbe735e2	-0.007055984
125	0x3db63e2d	0.08898578
126	0x3b34e348	0.002760129
127	0xbbfa6914	-0.007641921
128	0xbd27f018	-0.041000456
129	0x3d4be501	0.049778942
130	0xbd9fd2a2	-0.07803847
131	0x3c610996	0.013735196
132	0x3b8f2c8c	0.004369324
133	0xbd8e8009	-0.069580145
134	0xbe0181a7	-0.12647115
135	0xbd5e0a17	-0.05420884
136	0xbd317a0f	-0.043329295
137	0xbc880ddd	-0.016608173
138	0x3c31081d	0.010805157
139	0xbd41fdaa	-0.047361054
140	0x3cf96e84	0.030448206
141	0x3dc091f5	0.09402839
142	0x3e046e81	0.12932779
143	0x3ccfc7ea	0.025363881
144	0xbe19bb1e	-0.15012786
145	0x3e5e121c	0.21686596
146	0xbca878e0	-0.02056545
147	0xbce83ab7	-0.02834831
148	0x3ccb7a8d	0.02483871
149	0xbc0377a2	-0.008024128
150	0xbdb414e7	-0.08793049
151	0xbdba459e	-0.0909531
152	0x3c359621	0.011083157
153	0x39a89dfd	0.00032161167
154	0xbdd4a0ad	-0.10382209
155	0x3d6a984d	0.05727415
156	0x3cf17fce	0.029479887
157	0x3cbe10b8	0.023201331
158	0x3d46f24c	0.048570916
159	0x3c10273a	0.008798415
160	0x3a67d60b	0.00088438456
161	0x3d0328ff	0.03202152
162	0xbc69e24a	-0.014275143
163	0xbc9980f4	-0.018738247
164	0xbdb1aba3	-0.08675315
165	0x3dcf3a5e	0.101185545
166	0x3accbe5c	0.0015620696
167	0xbce64e3a	-0.028113473
168	0x3c6d3047	0.014476842
169	0x3c88b6cb	0.016688725
170	0xbbbac8a3	-0.0057001873
171	0x3db66976	0.08906834
172	0x3c58ce86	0.013232833
173	0xbe138de5	-0.14409597
174	0x3d970bab	0.07375272
175	0x3c70228b	0.014656673
176	0x3d1ed7e7	0.03878012
177	0xbc3fb8c7	-0.011701769
178	0xbda12259	-0.078678794
179	0xbdb778d6	-0.089585945
180	0xbd9d2725	-0.07673482
181	0x3e601a23	0.2188497
182	0x3d737132	0.059434123
183	0x3cb249e6	0.021763753
184	0xbd51d0e3	-0.0512246
185	0x3d02d244	0.031938806
186	0xbcdfa871	-0.027301999
187	0xbd30f09e	-0.04319822
188	0x3c0f1326	0.008732593
189	0xbbf22510	-0.007389672
190	0xbc761e8f	-0.015021934
191	0xbd24099d	-0.04004823
192	0xbd34397e	-0.04400014
193	0x3bb6cb14	0.005578408
194	0x3d796257	0.0608848
195	0xbdc472e4	-0.09592226
196	0xbd080ef5	-0.03321739
197	0xbcefe024	-0.029281683
198	0x3bc7a918	0.0060931556
199	0xb9fad74b	-0.00047844122
200	0x3d179ec5	0.03701665
201	0xbc864fba	-0.016395438
202	0x3e49f0d1	0.1972077
203	0xbdede22e	-0.11615406
204	0xbe0771f7	-0.13227068
205	0xbd950122	-0.07275607
206	0xbbf90ea3	-0.007600622
207	0xbc8be745	-0.017078051
208	0x3d1a4bab	0.03766982
209	0x3d21914e	0.039445214
210	0xbd76a0eb	-0.060212057
211	0xbca9d5ab	-0.020731768
212	0xbd51ec36	-0.05125066
213	0x3e0cdfc3	0.13757233
214	0xbd090ce3	-0.033459555
215	0xbd2d77b6	-0.042350493
216	0xbd4a5c71	-0.049404565
217	0x3dd79ae4	0.1052759
218	0xbd05b42e	-0.032642536
219	0xbe693e9c	-0.2277779
220	0xbb57a26a	-0.0032903203
221	0x3b21aff9	0.0024671538
222	0x3da15550	0.078776
223	0x3db3c0d7	0.08777016
224	0xbd761880	-0.06008196
225	0x3d6c95e7	0.057760146
226	0xbd11d818	-0.035606474
227	0x3d12ad12	0.035809584
228	0x39ae929e	0.00033297105
229	0x3bd28d02	0.006425501
230	0xbda27f34	-0.07934418
231	0xbc6170cc	-0.013759803
232	0x3d87f173	0.0663785
233	0xbde7e8a5	-0.1132367
234	0xbcdf3896	-0.027248662
235	0xbced696f	-0.028980939
236	0x3bd59738	0.006518271
237	0x3d877e1f	0.066158526
238	0x3daba68b	0.08381375
239	0xbe021b29	-0.12705673
240	0x3d6b22f2	0.057406373
241	0xbd43ef92	-0.047835894
242	0x3ddb7c9d	0.107171275
243	0x3b25efc6	0.0025319918
244	0x3c9570e0	0.0182423
245	0xbc04a3cd	-0.008095694
246	0x3d212bb4	0.03934832
247	0x3d2d90f2	0.04237456
248	0x3d0d30e5	0.034470458
249	0x3c0453ab	0.008076589
250	0xbcba1bf0	-0.0227184
251	0x3c98cc6d	0.018652165
252	0xbb4ba8e6	-0.0031076013
253	0x3d19bea9	0.037535343
254	0xbc919c38	-0.017774686
255	0x3cb05a11	0.021527322

seq_midi.1.seq.0.seq.norm f4 [128]
0	0x3f374795	0.715936
1	0x3f14b129	0.58082825
2	0xbf834a9d	-1.0257145
3	0x3f44a511	0.7681437
4	0xbf8370fe	-1.0268857
5	0xbd57cdf2	-0.05268664
6	0xbfd92919	-1.6965667
7	0x3ecf34ca	0.40469962
8	0x3f2d754c	0.67757106
9	0xc011db39	-2.2790053
10	0x3f679f4f	0.9047746
11	0xbe6db757	-0.2321447
12	0x3f264d0f	0.6496133
13	0xbebbce41	-0.36680797
14	0x3e2f3f10	0.171139
15	0xbf854ec6	-1.0414665
16	0x3f35060f	0.7071237
17	0xbf13b370	-0.57695675
18	0xbfecb330	-1.8492184
19	0xbe9c50bc	-0.30530345
20	0xbfee606d	-1.8623177
21	0xbf8bf5b2	-1.0934355
22	0xbfe6b2a7	-1.802327
23	0x3eb2b55c	0.3490399
24	0xc02f50fc	-2.739318
25	0xc00109b2	-2.0162168
26	0xbfcd187c	-1.6023097
27	0xc0180a1b	-2.3756168
28	0xbf4c04a7	-0.796946
29	0xc0562118	-3.34577
30	0x3f0bce5e	0.54611766
31	0xc0432361	-3.0490344
32	0x3ec67eec	0.3876871
33	0xbf47be66	-0.780249
34	0xbff7af01	-1.9350282
35	0x3dc4296d	0.09578214
36	0xbf75c4b3	-0.96003264
37	0x3eabad90	0.33530855
38	0xbf8a7418	-1.0816679
39	0xc0086f64	-2.1317987
40	0xbf4b1701	-0.79331976
41	0xc0020fb2	-2.032208
42	0xbf12ccc3	-0.5734369
43	0x3e8bd2c7	0.27309248
44	0xbea40084	-0.32031643
45	0xc02d79fb	-2.71057
46	0xbefc533d	-0.49282256
47	0xbfb02bd2	-1.3763373
48	0xbf2b1aa5	-0.6683753
49	0xc04bdc2b	-3.185313
50	0xc0889e88	-4.269352
51	0xc03c457a	-2.9417405
52	0xc077619f	-3.8653333
53	0xbed873df	-0.42275903
54	0xbfd59593	-1.6686271
55	0xbfbf2a6b	-1.493482
56	0xbfe4628d	-1.7842575
57	0xc02f5a19	-2.7398741
58	0xbf7c57fe	-0.98571765
59	0xc061078d	-3.5160859
60	0xc047bdf8	-3.1209698
61	0xc090c792	-4.5243616
62	0xc04384c8	-3.0549793
63	0xc09782b9	-4.7347074
64	0xc0603b0d	-3.5036042
65	0xc06a2001	-3.6582034
66	0xbfde5bf6	-1.7371814
67	0xc05a4acc	-3.4108152
68	0xc06d9b82	-3.7126164
69	0xc06c4926	-3.6919646
70	0xbf40aed4	-0.75266767
71	0xbfcdeee1	-1.6088525
72	0xbf026c30	-0.5094633
73	0xc07bf8e8	-3.937067
74	0xc077cba9	-3.8718054
75	0xc07b708f	-3.928745
76	0xc068a9ee	-3.6353717
77	0xbf8ce27f	-1.1006621
78	0xbf91db77	-1.13951
79	0xbe567dfa	-0.20946494
80	0xc03ecf47	-2.9814012
81	0xc056c12d	-3.3555405
82	0xbf0b4125	-0.5439628
83	0xc0225c77	-2.5368936
84	0xbebd11c0	-0.36927605
85	0xc00a7d08	-2.1638813
86	0xbe947999	-0.28999022
87	0xc04c8406	-3.195558
88	0xc0261a94	-2.5953722
89	0xbf20b9ae	-0.62783325
90	0xbf5af7ca	-0.85534346
91	0xbfef163a	-1.8678658
92	0x3c8da958	0.017292663
93	0x3dc279cb	0.094958864
94	0xc0388f77	-2.8837564
95	0xc0196996	-2.3970695
96	0x3ee574a2	0.44815546
97	0xbfe83b82	-1.814316
98	0xbfeeeb9e	-1.8665655
99	0xc0529fc5	-3.2910016
100	0xc0172cde	-2.3621135
101	0xbeddda35	-0.4333054
102	0xbf9d703b	-1.2299875
103	0xc025c612	-2.5902143
104	0xbf56e5f7	-0.8394465
105	0xc01d22dc	-2.4552526
106	0xc034e572	-2.8265042
107	0xc00888c4	-2.1333475
108	0xc034f6ac	-2.8275557
109	0xc00fd37b	-2.2472827
110	0x3f6ea45b	0.93219537
111	0xbe962c94	-0.29330885
112	0xbe0f8bb1	-0.14018132
113	0xc02f74d5	-2.7415059
114	0xc00c1627	-2.188852
115	0xbfb8c70f	-1.4435748
116	0xbe9a5a9d	-0.30147257
117	0xc029cb35	-2.6530278
118	0xbfc66c94	-1.5501885
119	0xbffc7609	-1.9723521
120	0xbf1c5311	-0.6106425
121	0xbfb4329e	-1.4077947
122	0xbf3a0063	-0.7265684
123	0xc004064b	-2.062884
124	0xc004b3b9	-2.0734694
125	0xbfeba474	-1.8409562
126	0xbfa21613	-1.2662987
127	0xc0109214	-2.258916

seq_midi.1.seq.0.seq.angle f4 [128]
0	0xbfc93bff	-1.5721434
1	0xbfc915e8	-1.570981
2	0xbfca96ba	-1.5827248
3	0xbfc944ed	-1.572416
4	0xbfc96ef2	-1.5736983
5	0xbfc9bf86	-1.5761573
6	0xbfccbe2c	-1.5995536
7	0xbfc91b76	-1.5711505
8	0xbfc91d51	-1.5712072
9	0xbfcf984c	-1.6218352
10	0xbfc91d1f	-1.5712012
11	0xbfcccadd	-1.5999409
12	0xbfc91aeb	-1.571134
13	0xbfc91898	-1.571063
14	0xbfc92c59	-1.5716659
15	0xbfc91bbf	-1.5711592
16	0xbfc91665	-1.5709959
17	0xbfd57db6	-1.6678989
18	0xbfc9a7a7	-1.5754288
19	0xbfd3a9b0	-1.653616
20	0xbfc91882	-1.5710604
21	0xbfc976d3	-1.5739387
22	0xbfc919a8	-1.5710955
23	0xbfc99ced	-1.5751015
24	0xbfcf6c1c	-1.6204867
25	0xbfc948f4	-1.5725389
26	0xbfcc8f6a	-1.5981266
27	0xbfd3c909	-1.6545726
28	0xbfc91800	-1.5710449
29	0xbfc92b94	-1.5716424
30	0xbfc93708	-1.5719919
31	0xbfd27b3e	-1.644386
32	0xbfca69b5	-1.5813509
33	0xbfc9f253	-1.5777076
34	0xbfcb1573	-1.5865921
35	0xbfcd3441	-1.6031572
36	0xbfc9b2c5	-1.5757681
37	0xbfc926f3	-1.5715011
38	0xbfc99453	-1.574839
39	0xbfcb8d84	-1.5902562
40	0xbfd4a718	-1.6613493
41	0xbfddc3ea	-1.7325413
42	0xbfc9dac3	-1.5769886
43	0xbfc9f2c3	-1.577721
44	0xbfce673f	-1.6125258
45	0xbfc93205	-1.571839
46	0xbfd20e73	-1.641066
47	0xbfc9796f	-1.5740184
48	0xbfc9f27f	-1.5777129
49	0xbfd61d2d	-1.6727654
50	0xbfc9e5c9	-1.577325
51	0xbfc935e1	-1.5719568
52	0xbfca58ab	-1.5808309
53	0xbfd7813c	-1.6836314
54	0xbfcbec63	-1.5931515
55	0xbfc976c6	-1.5739372
56	0xbfc93415	-1.5719019
57	0xbfced9ee	-1.6160257
58	0xbfcaf265	-1.5855223
59	0xbff06444	-1.8780599
60	0xbfd7c6cf	-1.6857547
61	0xbfebb40e	-1.8414323
62	0xbfeb5e4f	-1.8388156
63	0xc00614eb	-2.0950267
64	0x402e19ca	2.720324
65	0x3ff376e9	1.9020663
66	0x3ff28a9b	1.8948549
67	0x3ff37d1e	1.9022558
68	0x3fe0749c	1.7535586
69	0x3fe071dc	1.7534747
70	0x3fce8a85	1.6136023
71	0x3fea6ed9	1.8315078
72	0x3fd73c6b	1.6815313
73	0x3fd8ab18	1.6927214
74	0x3fe03461	1.7515985
75	0x3fc9505a	1.5727646
76	0x3fc9499a	1.5725586
77	0x3fc91a68	1.5711184
78	0x3fca5a61	1.5808831
79	0x3fd260ab	1.6435751
80	0x3fd1589c	1.6355166
81	0x3fd33f2f	1.6503657
82	0x3fc9f85d	1.577892
83	0x3fd59f04	1.6689153
84	0x3fd17a09	1.6365367
85	0x3fcaa115	1.5830408
86	0x3fd30c5c	1.6488147
87	0x3fd5ba47	1.6697472
88	0x3fd02152	1.6260169
89	0x3fcae7e5	1.5852019
90	0x3fc9491c	1.5725436
91	0x3fcbe6ae	1.5929773
92	0x3fcad775	1.5847002
93	0x3fcb179e	1.5866582
94	0x3fc92dee	1.5717142
95	0x3fd175a3	1.6364025
96	0x3fc98af3	1.5745529
97	0x3fcf395d	1.6189381
98	0x3fcfcf5f	1.623516
99	0x3fc9390b	1.5720533
100	0x3fcc1ad3	1.5945686
101	0x3fca435d	1.5801808
102	0x3fcc4fc8	1.5961847
103	0x3fcc14e5	1.5943877
104	0x3fc9cf62	1.5766413
105	0x3fd4f368	1.6636782
106	0x3fc9719a	1.5737793
107	0x3fcdc763	1.6076473
108	0x3fc927fa	1.5715325
109	0x3fca5a9a	1.5808899
110	0x3fc91b44	1.5711446
111	0x3fcf82c1	1.6211778
112	0x3fcf42ae	1.6192224
113	0x3fd6d348	1.6783228
114	0x3fc92a51	1.5716039
115	0x3fcbd5e4	1.5924649
116	0x3fccd34f	1.6001986
117	0x3fc97a2d	1.574041
118	0x3fcbd513	1.59244
119	0x3fcdd092	1.6079276
120	0x3fc9f21f	1.5777014
121	0x3fcb5344	1.5884786
122	0x3fc916ba	1.5710061
123	0x3fcccb78	1.5999594
124	0x3fc957de	1.572994
125	0x3fc91839	1.5710517
126	0x3fc91b83	1.5711521
127	0x3fce8aa2	1.6136057

seq_midi.2.s5.seq.C_bias f4 [60, 2]
0	0x3e304576	0.17213997
1	0x00000000	0.0
2	0xbe47aa7c	-0.19498628
3	0x00000000	0.0
4	0x3cfa065d	0.030520612
5	0x00000000	0.0
6	0xbe64bfdb	-0.22338812
7	0x00000000	0.0
8	0xbe48ceca	-0.19610134
9	0x00000000	0.0
10	0xbe1e419f	-0.1545472
11	0x00000000	0.0
12	0x3e73572e	0.23763725
13	0x00000000	0.0
14	0x3e34048d	0.17579861
15	0x00000000	0.0
16	0x3da025ea	0.078197315
17	0x00000000	0.0
18	0x3e882e47	0.26597807
19	0x00000000	0.0
20	0x3e39b758	0.18136346
21	0x00000000	0.0
22	0xbe47cee2	-0.19512513
23	0x00000000	0.0
24	0xbdffb778	-0.12486166
25	0x00000000	0.0
26	0x3da59484	0.08084968
27	0x00000000	0.0
28	0x3d4bc5ef	0.04974931
29	0x00000000	0.0
30	0x3e64ffd6	0.22363219
31	0x00000000	0.0
32	0x3e0d8fe8	0.13824427
33	0x00000000	0.0
34	0x3d050ef2	0.032484956
35	0x00000000	0.0
36	0x3e0c4a7e	0.13700292
37	0x00000000	0.0
38	0xbe4517e9	-0.19247402
39	0x00000000	0.0
40	0x3e55b665	0.20870359
41	0x00000000	0.0
42	0x3d8e972d	0.06962428
43	0x00000000	0.0
44	0xbe09ce75	-0.13457663
45	0x00000000	0.0
46	0x3e2f11ad	0.17096587
47	0x00000000	0.0
48	0x3e7a909d	0.24469228
49	0x00000000	0.0
50	0xbd1b84b6	-0.03796836
51	0x00000000	0.0
52	0x3e833913	0.25629482
53	0x00000000	0.0
54	0x3e6048a3	0.21902709
55	0x00000000	0.0
56	0xbe5bda98	-0.21470106
57	0x00000000	0.0
58	0xbe54cc04	-0.20780951
59	0x00000000	0.0
60	0x3e4e7e68	0.20165408
61	0x00000000	0.0
62	0x3dd330eb	0.10312065
63	0x00000000	0.0
64	0x3c07b10c	0.008281957
65	0x00000000	0.0
66	0xbdcf82a9	-0.10132343
67	0x00000000	0.0
68	0x3e554e7c	0.2083072
69	0x00000000	0.0
70	0x3e619ba4	0.22032028
71	0x00000000	0.0
72	0xbe563105	-0.20917137
73	0x00000000	0.0
74	0xbe623df9	-0.22093953
75	0x00000000	0.0
76	0x3e1053b8	0.14094436
77	0x00000000	0.0
78	0xbe679425	-0.22615106
79	0x00000000	0.0
80	0x3e6b01f6	0.22949967
81	0x00000000	0.0
82	0x3e42d72a	0.19027391
83	0x00000000	0.0
84	0xbcb374c3	-0.021906262
85	0x00000000	0.0
86	0x3e838f73	0.2569538
87	0x00000000	0.0
88	0x3e6688c2	0.22513106
89	0x00000000	0.0
90	0xbe5002db	-0.2031359
91	0x00000000	0.0
92	0xbe2545b0	-0.16139865
93	0x00000000	0.0
94	0x3e18631e	0.1488156
95	0x00000000	0.0
96	0xbe8e5998	-0.2780273
97	0x00000000	0.0
98	0xbdbf89dd	-0.09352467
99	0x00000000	0.0
100	0x3e21a845	0.15786846
101	0x00000000	0.0
102	0x3e71ca15	0.23612244
103	0x00000000	0.0
104	0x3d69908c	0.057022616
105	0x00000000	0.0
106	0xbe298e2c	-0.1655814
107	0x00000000	0.0
108	0xbdc1cd6f	-0.094630115
109	0x00000000	0.0
110	0xbdd44617	-0.10364931
111	0x00000000	0.0
112	0x3e454fd4	0.19268733
113	0x00000000	0.0
114	0xbc3db58c	-0.011578929
115	0x00000000	0.0
116	0xbe52e5c3	-0.2059546
117	0x00000000	0.0
118	0x3e2b4c31	0.16728283
119	0x00000000	0.0

seq_midi.2.s5.seq.C f4 [60, 128, 2]
0	0xbd0b3bfd	-0.033992756
1	0xbe184f37	-0.14873968
2	0xbe1e07e4	-0.15432698
3	0x3d514a51	0.051096264
4	0x3b09c08e	0.0021019313
5	0x3a8524d7	0.0010158074
6	0xbc4c9659	-0.012487018
7	0x3cfcca0e	0.030858066
8	0xbc315cbb	-0.010825331
9	0x3ab6d335	0.0013948443
10	0x3abf09d8	0.0014575077
11	0xbbac2091	-0.0052529057
12	0x3d0ff182	0.03514243
13	0xbbfa6ecd	-0.007642603
14	0x3cd19490	0.025583535
15	0x3ca0cc29	0.019628601
16	0x3a42724f	0.0007417546
17	0xbcfec4ac	-0.03109964
18	0xbc7e7511	-0.0155308405
19	0x3bede0ce	0.007259465
20	0x3d9e6ed9	0.07735986
21	0xbc1e8810	-0.0096759945
22	0xbd315f21	-0.043303613
23	0xbd1c631d	-0.03818046
24	0x38d45868	0.00010125415
25	0xb9e01042	-0.00042736722
26	0xbaa7de39	-0.0012807316
27	0xbbcbe8ce	-0.006222821
28	0x3bb5c4c3	0.0055471375
29	0x3b8a2fce	0.0042171245
30	0x3be536fb	0.0069950796
31	0xbba6b3cd	-0.005087352
32	0xbc2fd1fd	-0.010731217
33	0x3b3628ce	0.0027795318
34	0xbb4d34bd	-0.0031311952
35	0x3b896f80	0.0041942
36	0x3c35ec39	0.011103683
37	0x3d018c61	0.031628016
38	0x3b191178	0.002335636
39	0x3bfb0158	0.0076600723
40	0xbc424526	-0.011857307
41	0xbcd3e9f8	-0.025868401
42	0xb93d9442	-0.00018079675
43	0xbab0ce64	-0.0013489244
44	0xbd9d28f0	-0.07673824
45	0x3d65e7a7	0.056129124
46	0xbda50c81	-0.080590256
47	0xbcc4bcc4	-0.024015792
48	0xbd12fac1	-0.03588367
49	0xbbf2fd40	-0.0074154437
50	0x3ce74e01	0.028235437
51	0x3e0cd6e6	0.13753852
52	0xbcd1fa91	-0.025632175
53	0xbb8f5f69	-0.0043753874
54	0x3a84630a	0.0010100317
55	0x3a2663c5	0.0006347264
56	0xbab17206	-0.001353801
57	0xbb570546	-0.003280954
58	0xbcc1c070	-0.023651332
59	0x3d55f6c9	0.052237306
60	0x3d99cb0c	0.07509431
61	0x3d6c4ca2	0.05769027
62	0x3b58c8bb	0.003307863
63	0x39ed4833	0.00045257955
64	0x3c87175d	0.016490633
65	0x3b249d3f	0.002511814
66	0x3b11ac31	0.0022227878
67	0x3ae76899	0.0017655074
68	0x3c23ad77	0.009990088
69	0xbc4c4998	-0.012468718
70	0xbabbcf3a	-0.0014328726
71	0xbadd1515	-0.0016867245
72	0xba5d4772	-0.0008441127
73	0x3a049311	0.0005057315
74	0xbce4ca45	-0.02792848
75	0x3c437ccc	0.011931609
76	0xbaa53bd3	-0.001260633
77	0xbad6070f	-0.0016329008
78	0xbd60a1eb	-0.054841917
79	0xbe089910	-0.13339639
80	0x3c2d4272	0.010574924
81	0x3c5cd194	0.013477702
82	0x3dd3b3f7	0.1033706
83	0xbdb91a26	-0.090381905
84	0x3b9101d6	0.0044252677
85	0x3967ab72	0.00022093745
86	0xbb0a903d	-0.0021143102
87	0x3a455942	0.0007528254
88	0x3a98d17d	0.0011659112
89	0xbac8dacd	-0.0015323997
90	0xbd22aee4	-0.03971757
91	0xbcbd0d5a	-0.023077656
92	0x3b95c127	0.0045701447
93	0x3bd2c207	0.0064318213
94	0x3e0bbd32	0.13646391
95	0x3dedf081	0.11618138
96	0x3bb7c39e	0.005608036
97	0xbd279b85	-0.0409198
98	0x3e6d1719	0.23153342
99	0x3e659084	0.2241841
100	0x3b5a39b6	0.0033298559
101	0x3b157daf	0.002281051
102	0xbd74cc9b	-0.05976544
103	0xbd437910	-0.047722876
104	0x3bea3048	0.007146869
105	0xbd1d2906	-0.0383692
106	0x39631845	0.00021657448
107	0x3954047b	0.00020219565
108	0xba982431	-0.0011607466
109	0x3add9757	0.0016906065
110	0x3809c0d2	3.2842923e-05
111	0x3a198a9e	0.00058571424
112	0x3c31f761	0.010862202
113	0xbb704329	-0.0036661124
114	0xba138725	-0.0005627743
115	0xbb9dc0fd	-0.0048142658
116	0xbc84e779	-0.016223656
117	0xbd0c113d	-0.034196127
118	0xbbe09c37	-0.0068545598
119	0x3ac53ead	0.0015048586
120	0xbd7c175b	-0.06154571
121	0xbca553a1	-0.020181479
122	0xbc8b97e9	-0.01704021
123	0x3d0b969a	0.03407917
124	0x3bf39cfa	0.0074344845
125	0x3ba63c68	0.005073119
126	0x3d83ecf4	0.064416796
127	0x3b70ca3d	0.0036741637
128	0x3d266f5a	0.040633537
129	0xbd87d4a8	-0.06632358
130	0x3d22f7a1	0.03978694
131	0x3cacc2c8	0.021088973
132	0xbce7d779	-0.028300988
133	0x3ac30837	0.0014879768
134	0x3caaab5f	0.02083367
135	0x3d03a7dc	0.032142505
136	0x3c816659	0.015795873
137	0x3c5dffb0	0.01354973
138	0xbb577316	-0.0032874993
139	0x39ceec50	0.00039467448
140	0xbd8a151d	-0.06742308
141	0xbd93869a	-0.072034076
142	0x3ce58a41	0.028020026
143	0x3d09f8ab	0.033684414
144	0x3dc6750a	0.09690292
145	0xbc45418c	-0.012039553
146	0x3c4cee6e	0.012508018
147	0xbd368c3b	-0.044567328
148	0x3ccf3e18	0.025298163
149	0x3c0925c0	0.008370817
150	0xbd71ea60	-0.059061408
151	0xbdb5d409	-0.08878333
152	0x3bdf1d59	0.0068089184
153	0x3c2a1bb3	0.010382581
154	0xbd2ae32a	-0.041720547
155	0xbd40ce68	-0.047071844
156	0x3ac77f2b	0.0015220394
157	0x3a1296ed	0.00055919477
158	0xbd9538cb	-0.07286223
159	0x3da280dc	0.07934734
160	0x3b0e14e8	0.0021679942
161	0xba65d302	-0.00087670994
162	0xbd86bc58	-0.065788925
163	0x3d3cceda	0.046095707
164	0xbaa9cb02	-0.0012954178
165	0xbce169ef	-0.027516333
166	0xba5677b2	-0.0008181288
167	0x39c12e2b	0.00036846226
168	0x3a9a1686	0.001175598
169	0xbb7d548b	-0.0038655128
170	0xbdabf4ee	-0.08396326
171	0x3d980e60	0.07424617
172	0xbb53f23c	-0.0032340428
173	0xbc24fc0c	-0.010069858
174	0xbd8f05d7	-0.06983536
175	0xbceede37	-0.029158695
176	0xbb2d2891	-0.0026421885
177	0x3a718d80	0.00092145056
178	0xbcc1a7b2	-0.023639534
179	0x3b8be7c3	0.0042695715
180	0xbb82c11d	-0.003990306
181	0x38c562d1	9.412098e-05
182	0x3b8af48c	0.004240578
183	0xb925bd6a	-0.00015806188
184	0x3cf1c330	0.029512018
185	0xbbe4411f	-0.006965771
186	0x3cc87b4c	0.024472855
187	0xbc5163c6	-0.0127801355
188	0x3ac148e2	0.0014746452
189	0x3c3d79ef	0.011564716
190	0xbbecb9af	-0.0072242836
191	0xbba0bc86	-0.0049052862
192	0x3d027a2e	0.0318548
193	0xbd9073db	-0.07053348
194	0xbc2cd14a	-0.010547945
195	0xbac89657	-0.0015303594
196	0xbaf4a884	-0.0018665944
197	0x3b5990b8	0.0033197831
198	0x3aa953fb	0.0012918705
199	0xb89f20b8	-7.587805e-05
200	0xbb6ec87f	-0.0036435423
201	0x3acf1f57	0.0015802187
202	0x3dd92c56	0.106041595
203	0xbc4b5841	-0.012411178
204	0x3b9dc18e	0.0048143333
205	0xbafb90d7	-0.0019192946
206	0xbc0debf1	-0.00866221
207	0x3de8849f	0.113534205
208	0x3bf98f90	0.007615991
209	0xbcd9000c	-0.02648928
210	0x3cdb7239	0.026787864
211	0xbe0ad5ee	-0.1355817
212	0xbbec11e7	-0.0072042826
213	0xbaffeeea	-0.0019526158
214	0x3c9c0152	0.019043598
215	0xbc91f1aa	-0.01781543
216	0xbcc886a8	-0.024478272
217	0x3bad838f	0.005295224
218	0xbb9821dd	-0.0046427087
219	0x3d193956	0.037408195
220	0x3d3d54f4	0.046223596
221	0x3c98767e	0.018611189
222	0x3d457d05	0.04821493
223	0x3d1a3d7d	0.037656296
224	0x392ba3ab	0.00016368802
225	0xb983d5e4	-0.00025145628
226	0x3cfc1798	0.03077297
227	0x3d1d88dd	0.0384606
228	0xb954d0f3	-0.00020295735
229	0x3c39204a	0.011299202
230	0x3d64cdf1	0.055860464
231	0xbc22b3f1	-0.009930597
232	0xbd066860	-0.032814384
233	0x3cfcd541	0.030863406
234	0xbd49212f	-0.049103912
235	0x3c8d7347	0.017266883
236	0xbb07b963	-0.0020709864
237	0xbb854c51	-0.0040679355
238	0xbd87d6f9	-0.066328
239	0xbc3410e2	-0.010990353
240	0x3e32f486	0.17476091
241	0x3ddbdc46	0.10735373
242	0xbbfbef73	-0.0076884567
243	0xbc69f705	-0.014280085
244	0x39abb0b6	0.00032747322
245	0x3a3ef4d9	0.000728441
246	0x3e17d4fa	0.14827338
247	0x3d7c5b5d	0.06161057
248	0x3d937684	0.072003394
249	0xbd8bb90f	-0.068224065
250	0x3ccdbd71	0.025114747
251	0xbb3c6a5d	-0.002874992
252	0x3e3e0eee	0.18560383
253	0x3da7ff93	0.08203044
254	0xbbff0615	-0.0077827075
255	0x3d2453c1	0.040118936

seq_midi.2.s5.seq.norm f4 [128]
0	0xbf77190b	-0.9652259
1	0xbeec200b	-0.46118197
2	0xbfce0635	-1.6095644
3	0xbfbf0b49	-1.4925319
4	0x3eb3204f	0.34985587
5	0xc01af4f4	-2.4212008
6	0xc00d8781	-2.2113955
7	0xbe9ad346	-0.30239314
8	0xbd8cc2a7	-0.068730645
9	0xc013884d	-2.3051941
10	0xbecd6c3a	-0.40121633
11	0xc018ba9b	-2.3863895
12	0x3ee05dab	0.43821463
13	0xc0085ab8	-2.130537
14	0xc01eb04a	-2.4795098
15	0xbf8abf78	-1.0839682
16	0xbf82f97b	-1.0232385
17	0x3e0acb0d	0.1355402
18	0xc0114995	-2.270116
19	0x3e4ab11e	0.19794127
20	0xc016f57a	-2.3587327
21	0x3ed35b79	0.41280726
22	0xbedb218c	-0.42799032
23	0xbf00a396	-0.5024961
24	0x3e881236	0.26576394
25	0xbf930e1a	-1.1488678
26	0x3ebbc350	0.3667245
27	0x3f25c315	0.64750797
28	0x3f0e7bca	0.5565764
29	0xbfeb716b	-1.8393987
30	0xbf016496	-0.50544107
31	0xc01eaa73	-2.4791534
32	0xbf2043b6	-0.6260332
33	0xc04b11d2	-3.1729627
34	0xbfeb821e	-1.8399084
35	0x3f000049	0.50000435
36	0x3e9ac392	0.30227333
37	0x3dfbc4bb	0.12293383
38	0xc05da98c	-3.4634733
39	0xbf9252fd	-1.1431576
40	0xc0284747	-2.6293504
41	0xbec3c08c	-0.3823284
42	0xc04ec711	-3.2309
43	0xc0476dea	-3.1160836
44	0xc0260cdf	-2.5945356
45	0xbf49599d	-0.78652364
46	0xc03ffaef	-2.9996908
47	0xbce24cb5	-0.027624467
48	0x3e88d983	0.26728448
49	0xbf6c10b6	-0.92213
50	0xc06512c0	-3.5792694
51	0xbfc6979f	-1.5515021
52	0xbfc776a8	-1.5583086
53	0xc07ed9cd	-3.9820435
54	0xc08163df	-4.0434413
55	0xc073c59e	-3.8089366
56	0xc0616424	-3.521737
57	0xc06c6dc2	-3.694199
58	0xbfb8ba21	-1.4431802
59	0xc06fff7f	-3.7499692
60	0xc03a16bf	-2.9076383
61	0xc061172c	-3.5170393
62	0xc08c8313	-4.3910003
63	0xc03e2b23	-2.9713829
64	0xc0811b5b	-4.0345893
65	0xc0406661	-3.0062487
66	0xc0500b3e	-3.2506862
67	0xc01fd5c5	-2.4974225
68	0xc0774a3f	-3.8639066
69	0xc096aa44	-4.7082844
70	0xbfb7a140	-1.4346085
71	0xbff66763	-1.9250301
72	0xbfc04006	-1.5019538
73	0xbe5a1bb5	-0.21299632
74	0xbfdd47cc	-1.7287536
75	0xbf5914e0	-0.8479748
76	0xc00fd804	-2.2475595
77	0xc0242f18	-2.5653744
78	0xc0850e55	-4.1579995
79	0xbfd4b365	-1.6617247
80	0xc03132b2	-2.7687192
81	0xbf842d82	-1.0326388
82	0xbf0dd89b	-0.5540864
83	0xc059d7ed	-3.403804
84	0xc043b17e	-3.0577083
85	0xbf3ab95f	-0.72939104
86	0xc0339c73	-2.806424
87	0xbf99b866	-1.2009399
88	0x3ebf83fa	0.37405378
89	0xc0500bce	-3.2507205
90	0xc00865ee	-2.1312213
91	0xc05da3f1	-3.4631312
92	0xbfe3b942	-1.7790911
93	0xbe471e36	-0.19445118
94	0xbff32b52	-1.8997595
95	0xbfdccf64	-1.725079
96	0xbfa89775	-1.3171221
97	0xc002fccf	-2.0466802
98	0xbffa94fe	-1.9576719
99	0x3ecc2ca6	0.39877814
100	0xc043a754	-3.057088
101	0xbf1b5875	-0.6068185
102	0x3e4a565b	0.19759504
103	0xbdf4c2fd	-0.119512536
104	0xc021683e	-2.5219874
105	0xbf91af85	-1.1381689
106	0xc025fe03	-2.5936286
107	0x3d5c12dc	0.053728923
108	0xc00fbfae	-2.2460742
109	0xbf3eedce	-0.7458161
110	0x3e2e6b92	0.17033222
111	0xc0226a6f	-2.5377462
112	0x3ec2fc75	0.38083234
113	0xbe5f7263	-0.21820979
114	0xbfd0444f	-1.6270846
115	0xbd24409f	-0.04010069
116	0xbfd42f19	-1.6576873
117	0xbd41645f	-0.047214862
118	0x3f1b6656	0.6070303
119	0xbd9208b4	-0.07130566
120	0xbfc7f42a	-1.5621388
121	0xbfb2718c	-1.3940902
122	0x3f01a21f	0.50638
123	0xbe466318	-0.19373739
124	0xbf1ff8db	-0.624891
125	0xc00638f4	-2.0972261
126	0xbfb11f64	-1.3837705
127	0xbf2b1ba1	-0.66839033

seq_midi.2.s5.seq.angle f4 [128]
0	0xbfc9aa48	-1.5755091
1	0xbfcf0630	-1.6173763
2	0xbfc93326	-1.5718734
3	0xbfc93372	-1.5718825
4	0xbfc91825	-1.5710493
5	0xbfc93868	-1.5720339
6	0xbfcde0d1	-1.6084234
7	0xbfc91560	-1.5709648
8	0xbfcbfa22	-1.593571
9	0xbfca503a	-1.5805733
10	0xbfcd70d6	-1.605006
11	0xbfde429f	-1.7364081
12	0xbfc912a0	-1.5708809
13	0xbfc9175c	-1.5710254
14	0xbfc980ef	-1.5742472
15	0xbfc947f8	-1.5725088
16	0xbfc96c0d	-1.57361
17	0xbfc93f3f	-1.5722426
18	0xbfd3f2f9	-1.6558524
19	0xbfc913a0	-1.5709114
20	0xbfd0b398	-1.6304808
21	0xbfc9220b	-1.5713514
22	0xbfc9ca08	-1.576478
23	0xbfd041ba	-1.6270058
24	0xbfc93f50	-1.5722446
25	0xbfca9bf5	-1.5828844
26	0xbfc93800	-1.5720215
27	0xbfc91f18	-1.5712614
28	0xbfc939b6	-1.5720737
29	0xbfc937a6	-1.5720108
30	0xbfc91820	-1.5710487
31	0xbfc927ae	-1.5715234
32	0xbfcac835	-1.5842348
33	0xbfc9469d	-1.5724674
34	0xbfca9b7b	-1.5828699
35	0xbfc98b53	-1.5745643
36	0xbfc92910	-1.5715656
37	0xbfc99f9e	-1.5751836
38	0xbfc91e93	-1.5712456
39	0xbfc91547	-1.5709618
40	0xbfccfbbe	-1.6014326
41	0xbfcaa2a7	-1.5830888
42	0xbfc9382d	-1.5720268
43	0xbfc94f47	-1.5727319
44	0xbfc929f1	-1.5715925
45	0xbfc9461d	-1.5724522
46	0xbfc936e0	-1.5719872
47	0xbfcb4022	-1.5878947
48	0xbfc953c5	-1.572869
49	0xbfc9f7ca	-1.5778744
50	0xbfc94834	-1.572516
51	0xbfc94559	-1.5724288
52	0xbfc9237c	-1.5713954
53	0xbfc92e02	-1.5717165
54	0xbfc94476	-1.5724018
55	0xbfc91f31	-1.5712644
56	0xbfc95192	-1.5728018
57	0xbfc92677	-1.5714864
58	0xbfc917f3	-1.5710434
59	0xbfc99085	-1.5747229
60	0xbfcf0e47	-1.6176232
61	0xbfe0c373	-1.7559646
62	0xbfc995e3	-1.5748867
63	0xbfe88df2	-1.8168318
64	0xc0458f62	-3.0868764
65	0x3fd3e14d	1.6553131
66	0x3fdda16a	1.7314885
67	0x3ff44c8e	1.9085863
68	0x3fd7129b	1.6802553
69	0x3fc9ba9d	1.5760075
70	0x3fc93a76	1.5720966
71	0x3fe223e2	1.76672
72	0x3fcc5ac8	1.5965204
73	0x3fcd2485	1.602677
74	0x3fca0e23	1.5785564
75	0x3fc9e123	1.5771831
76	0x3fc923cc	1.5714049
77	0x3fd63618	1.6735258
78	0x3fc919c1	1.5710984
79	0x3fd2d83f	1.6472243
80	0x3fc95cb5	1.5731417
81	0x3fca2097	1.5791196
82	0x3fc9e7b9	1.5773841
83	0x3fc92f03	1.5717472
84	0x3fc97ec6	1.5741813
85	0x3fcb0b68	1.5862856
86	0x3fd0575c	1.627666
87	0x3fc97e4e	1.574167
88	0x3fc98b2b	1.5745596
89	0x3fd6d8bd	1.6784893
90	0x3fc98159	1.5742599
91	0x3fc96fa3	1.5737194
92	0x3fcbb57f	1.5914763
93	0x3fcbc55d	1.5919605
94	0x3fc91cc6	1.5711906
95	0x3fc9196b	1.5710882
96	0x3fc974fc	1.5738826
97	0x3fcc5294	1.5962701
98	0x3fc94193	1.5723137
99	0x3fc9183a	1.5710518
100	0x3fc93142	1.5718157
101	0x3fc916a8	1.5710039
102	0x3fc914b2	1.5709441
103	0x3fcb4882	1.5881503
104	0x3fcfc32f	1.623144
105	0x3fce3f60	1.611309
106	0x3fc9a3d1	1.5753118
107	0x3fca5667	1.5807618
108	0x3fc9bfe5	1.5761687
109	0x3fc9147b	1.5709375
110	0x3fc91508	1.5709543
111	0x3fc9668c	1.573442
112	0x3fc91ab7	1.5711278
113	0x3fce51a2	1.6118662
114	0x3fc9130b	1.5708936
115	0x3fcb689f	1.5891303
116	0x3fcdbe2d	1.6073662
117	0x3fc914a8	1.5709429
118	0x3fc92e47	1.5717248
119	0x3fcbdb85	1.5926367
120	0x3fcde3b7	1.6085118
121	0x3fc91bd9	1.5711623
122	0x3fc92412	1.5714133
123	0x3fcb8778	1.5900717
124	0x3fc943fe	1.5723875
125	0x3fd18e13	1.6371483
126	0x3fc91b6e	1.5711496
127	0x3fca1b73	1.5789627

seq_midi.2.skipLayer.weight f4 [60, 88]
0	0xbd1c68da	-0.03818593
1	0xbdb24924	-0.08705357
2	0xbd8a144a	-0.06742151
3	0xbad1897d	-0.0015986409
4	0xbc504016	-0.012710592
5	0xbd48e32c	-0.049044773
6	0xbb110586	-0.0022128536
7	0x3dc5b8ec	0.09654412
8	0x3d0642d5	0.03277858
9	0x3b51b291	0.0031997303
10	0x3ce7f771	0.028316231
11	0xbbc361a8	-0.0059625693
12	0x3b7d2683	0.003862769
13	0x3c860942	0.016361836
14	0xbc962f73	-0.018333172
15	0x3c27d07b	0.010242577
16	0x3c96f4e2	0.018427316
17	0xbd8c5dcc	-0.06853828
18	0x3d0fc91e	0.03510391
19	0xbcf0a8be	-0.029377338
20	0xbbaf7eb3	-0.00535568
21	0xbdb5614f	-0.08856451
22	0x3cb93115	0.022606412
23	0xbd5c4039	-0.053772185
24	0xbd803598	-0.06260222
25	0xbd86b8f2	-0.06578244
26	0x3c9a66d5	0.018847862
27	0xbc1d85b3	-0.009614396
28	0xbd90a361	-0.07062412
29	0x3db935fc	0.090435
30	0xbda54e9f	-0.080716364
31	0xbd2c5f31	-0.04208297
32	0x3d4bbf4a	0.049742974
33	0xbc80eeb6	-0.015738826
34	0xbdaf5aab	-0.085622154
35	0xbde820cb	-0.1133438
36	0x3bf4a370	0.0074657723
37	0x3c4465b2	0.011987137
38	0x3cc923e4	0.024553247
39	0xbdbe1bea	-0.09282668
40	0x3d3d9229	0.046281967
41	0x3db5918f	0.08865654
42	0xbd8d7ace	-0.06908189
43	0xbd5b5b8b	-0.0535541
44	0x3d1f581a	0.03890238
45	0x3d95e9f9	0.07320017
46	0xbc26ef56	-0.010188898
47	0xbcda5175	-0.02665017
48	0xbd70e915	-0.058816034
49	0xbb7b31b5	-0.0038329188
50	0xbd3f6216	-0.0467244
51	0x3d92801c	0.07153341
52	0x3cc12dc3	0.023581391
53	0x3d812d07	0.063074164
54	0x3dd94947	0.1060968
55	0x3d44d7c4	0.048057333
56	0xbd775e81	-0.06039286
57	0xbd9dd62c	-0.07706866
58	0x3d24d12c	0.040238544
59	0x3d5abea8	0.05340448
60	0x3d0af19b	0.03392182
61	0x3c911270	0.017708987
62	0x3d63abc5	0.055583734
63	0xbd92a707	-0.07160764
64	0x3dbf9242	0.09354068
65	0xbd1b5260	-0.037920356
66	0xbd38bad0	-0.045100033
67	0x3d2b5d1b	0.04183684
68	0x3e02b0ed	0.12762804
69	0xbd686981	-0.05674124
70	0x3c88812f	0.016663162
71	0x3c710573	0.014710772
72	0x3d52e268	0.05148545
73	0xbdc06d4e	-0.09395848
74	0xbd225367	-0.03963032
75	0x3d68176c	0.05666296
76	0xbd305772	-0.043052144
77	0x3d233b6b	0.039851587
78	0xbc5a304e	-0.013317181
79	0xbd2019a2	-0.039086945
80	0x3c7e26a1	0.01551214
81	0xbe20ca60	-0.157022
82	0x3cfb3334	0.030664064
83	0xbe25bfa4	-0.16186386
84	0xbd08dd02	-0.033413894
85	0xbd0afb1f	-0.033930894
86	0xbd4187a9	-0.047248516
87	0x3ca9273e	0.020648595
88	0x3d7c2ad2	0.061564274
89	0x3b1a64e3	0.0023558668
90	0x3df40860	0.1191566
91	0x3d9be536	0.07612078
92	0x3e2a940a	0.16658035
93	0x3e14a751	0.14516951
94	0xbce69b2f	-0.02815017
95	0xbd436276	-0.04770132
96	0x3df6d091	0.120515
97	0x3cd546c8	0.026034728
98	0xbe4e5638	-0.20150077
99	0x3da82ee9	0.082120724
100	0x3d36110d	0.044449855
101	0x3d0d0c37	0.034435477
102	0x3d38d2db	0.045122962
103	0xbc8d9b0b	-0.017285844
104	0x3d462fac	0.048385307
105	0x3d8a487e	0.06752108
106	0xbd137349	-0.035998616
107	0xbc9f9a37	-0.019482715
108	0xbca82649	-0.020526068
109	0x3ce49da2	0.027907196
110	0x3dbb7637	0.09153407
111	0x3daf75ea	0.08567412
112	0x3ca3fad3	0.020017063
113	0x3cb8ffa4	0.022582836
114	0x3c9df42c	0.01928147
115	0xbb5d445e	-0.0033762674
116	0xbd98baf2	-0.07457532
117	0x3d81b726	0.06333761
118	0x3e0d048a	0.13771263
119	0xbc471c20	-0.012152702
120	0x3dc73486	0.09726815
121	0x3e0f5253	0.13996248
122	0x3d7dcc78	0.061962575
123	0x3c838ae3	0.016057437
124	0x3d25f16f	0.040513452
125	0xbc052964	-0.008127544
126	0xbd09885b	-0.033577304
127	0x3e009055	0.12555058
128	0xbdb27549	-0.087137766
129	0xbc3ee052	-0.011650162
130	0x3e367bfd	0.17820735
131	0x3ce7e06d	0.028305257
132	0xbc81e8ba	-0.015858043
133	0xbe021950	-0.12704968
134	0xbca0b7ce	-0.019618895
135	0x3cafeafe	0.021474358
136	0x3dea93e1	0.11453987
137	0x3d7a6fa3	0.06114162
138	0x3d1a4fc2	0.03767372
139	0xbdc9555b	-0.098307334
140	0xbcd47ddf	-0.025938926
141	0xbe2411e1	-0.16022445
142	0xbd6cfd69	-0.05785886
143	0xbdbb7e32	-0.09154929
144	0x3e0a2f88	0.13494694
145	0x3c7674ef	0.015042528
146	0x3c8bdca3	0.017072981
147	0x3d8d8c8a	0.06911571
148	0xbc10f9f3	-0.008848655
149	0x3cce9f4e	0.025222447
150	0xbd4fe38a	-0.050754108
151	0x3d75f462	0.060047515
152	0x3cc95213	0.024575269
153	0x3d80fc26	0.062980935
154	0x3c97ac56	0.018514793
155	0x3ce7950b	0.028269311
156	0xbb73d540	-0.0037205964
157	0x3dba4540	0.0909524
158	0x3c4d2de6	0.01252315
159	0xbd34124b	-0.043962758
160	0xbcf2831e	-0.029603537
161	0xbc0cb660	-0.008588403
162	0xbd4fe92e	-0.050759487
163	0xbd16b534	-0.036793903
164	0x3e082a68	0.13297427
165	0xbd0f5e80	-0.03500223
166	0x3d631e60	0.05544889
167	0x3c8858aa	0.01664384
168	0x3b911cae	0.0044284677
169	0x3e133ef7	0.14379488
170	0x3caf7430	0.021417707
171	0x3d7e19a1	0.06203616
172	0xbbce8014	-0.006301889
173	0xbb98197f	-0.0046417112
174	0xbdb54403	-0.08850863
175	0x3dee50c2	0.11636497
176	0xbc8bbfcd	-0.017059231
177	0xbdcff420	-0.10153985
178	0xbcaa955d	-0.020823175
179	0xbd1f8a4d	-0.038950253
180	0xbced9d93	-0.029005801
181	0x3c055176	0.008137098
182	0xbd397795	-0.045280058
183	0x3caab472	0.020837996
184	0xbd04d645	-0.032430906
185	0x3dd7eeed	0.10543618
186	0x3d2c38d7	0.042046394
187	0xbd7131d9	-0.05888543
188	0x3cf38402	0.029726032
189	0x3c30da7b	0.010794277
190	0x3d24b009	0.040206943
191	0xbd89b0de	-0.06723188
192	0xbd688228	-0.05676475
193	0xbd07fada	-0.033198215
194	0xbd8efdca	-0.06982
195	0x3d2de9f2	0.042459436
196	0x3bf8c238	0.007591512
197	0x3c730900	0.014833689
198	0xbd0b8cba	-0.034069754
199	0xbc8d474b	-0.01724591
200	0xbd37f5c5	-0.04491212
201	0x3d1ec220	0.03875935
202	0xbda18d9b	-0.07888337
203	0x3d3b2910	0.045693457
204	0xbce211b2	-0.027596328
205	0x3d1f5832	0.03890247
206	0xbe25ac54	-0.16179019
207	0xbddd2cda	-0.107995704
208	0x3a4eff39	0.00078963075
209	0x3cda962e	0.02668294
210	0x3d9a053b	0.07520529
211	0x3c3dca4c	0.011583876
212	0xbcb54648	-0.02212824
213	0xbdd48f00	-0.103788376
214	0xbc5f9785	-0.013646965
215	0xbd527dd7	-0.05138954
216	0xbd8a7b27	-0.06761771
217	0x3c3c4e60	0.011493295
218	0xbb9c821d	-0.004776253
219	0x3e50d947	0.20395385
220	0xbd8173d9	-0.06320924
221	0x3dc86245	0.097843684
222	0x3d5fbbdf	0.054622527
223	0x3cea4844	0.028598912
224	0xbda6994d	-0.081347086
225	0x3e021767	0.1270424
226	0xb9cacfe9	-0.00038683348
227	0xbc186f9e	-0.009303955
228	0xbcd53f52	-0.02603117
229	0x3e034b21	0.12821628
230	0xbd5a8366	-0.053347968
231	0x3e38e066	0.18054351
232	0xbdf71ad9	-0.12065668
233	0xbd25f0e4	-0.040512934
234	0xbd6d42ab	-0.057924908
235	0xbb67d72d	-0.0035376057
236	0xbd11b64f	-0.035574254
237	0xbdc56ba0	-0.096396685
238	0xba070037	-0.00051498733
239	0xbdd1fefc	-0.102537125
240	0xbd591bc7	-0.053005006
241	0xbcbac9a4	-0.022801228
242	0xbd59549e	-0.053059213
243	0xbd117a43	-0.03551699
244	0xbbcfe258	-0.006344121
245	0xbd6c379c	-0.05767022
246	0x3d6fc0be	0.058533423
247	0x3dfc112e	0.12307964
248	0xbe74be7f	-0.23900793
249	0xbd7f803b	-0.06237815
250	0xbda4cdb4	-0.08047047
251	0x3da90dc4	0.08254579
252	0xbe0370ff	-0.12836073
253	0xbdbce784	-0.092238456
254	0xba679cdf	-0.00088353263
255	0x3da350d6	0.079744026

seq_midi.3.s5.seq.C_bias f4 [40, 2]
0	0xbda572b7	-0.08078521
1	0x00000000	0.0
2	0xbd3583ca	-0.044315137
3	0x00000000	0.0
4	0xbe1923e1	-0.14955093
5	0x00000000	0.0
6	0x3e1e90fc	0.15484995
7	0x00000000	0.0
8	0xbd25305f	-0.040329333
9	0x00000000	0.0
10	0x3e3c7f70	0.18407989
11	0x00000000	0.0
12	0x3d855aa0	0.06511426
13	0x00000000	0.0
14	0x3e2003f1	0.15626504
15	0x00000000	0.0
16	0x3e32d85b	0.17465346
17	0x00000000	0.0
18	0x3e25ba96	0.16184458
19	0x00000000	0.0
20	0x3e49d36d	0.19709559
21	0x00000000	0.0
22	0x3e764418	0.24049413
23	0x00000000	0.0
24	0x3e1b52a7	0.15168248
25	0x00000000	0.0
26	0xbd8ff812	-0.070297375
27	0x00000000	0.0
28	0xbd97211a	-0.073793605
29	0x00000000	0.0
30	0x3e6af42c	0.22944707
31	0x00000000	0.0
32	0xbe0b7897	-0.1362022
33	0x00000000	0.0
34	0x3dbc942e	0.092079505
35	0x00000000	0.0
36	0x3d90b27a	0.07065292
37	0x00000000	0.0
38	0x3e33cd9f	0.17558907
39	0x00000000	0.0
40	0xbe8a693b	-0.2703341
41	0x00000000	0.0
42	0x3d7370e3	0.05943383
43	0x00000000	0.0
44	0xbe5595b6	-0.20857891
45	0x00000000	0.0
46	0xbde65773	-0.11247148
47	0x00000000	0.0
48	0xbd8e24f3	-0.06940641
49	0x00000000	0.0
50	0x3e5c2c51	0.2150128
51	0x00000000	0.0
52	0x3d145c36	0.03622075
53	0x00000000	0.0
54	0xbd84767b	-0.06467911
55	0x00000000	0.0
56	0xbe68045c	-0.22657913
57	0x00000000	0.0
58	0xbc9952ad	-0.01871618
59	0x00000000	0.0
60	0xbde198dd	-0.110154845
61	0x00000000	0.0
62	0xbdb0d578	-0.08634466
63	0x00000000	0.0
64	0xbe412289	-0.1886083
65	0x00000000	0.0
66	0x3bf602d9	0.0075076637
67	0x00000000	0.0
68	0x3e7bbe2c	0.24584264
69	0x00000000	0.0
70	0x3df037e1	0.11729408
71	0x00000000	0.0
72	0xbcf089bb	-0.02936255
73	0x00000000	0.0
74	0x3c2c3e37	0.01051288
75	0x00000000	0.0
76	0x3e3f6510	0.18690896
77	0x00000000	0.0
78	0x3e1050cb	0.1409332
79	0x00000000	0.0

seq_midi.3.s5.seq.C f4 [40, 128, 2]
0	0x39ef48ef	0.00045639972
1	0x3ac3694d	0.0014908701
2	0x3d9df9cb	0.0771366
3	0xbcfe6417	-0.031053586
4	0x3c4e4ab8	0.0125910565
5	0x3b361ea1	0.0027789252
6	0x3a415d11	0.00073762337
7	0x3b20c675	0.0024532352
8	0xbe1d9326	-0.15388164
9	0x3c0a570d	0.008443606
10	0x3d72dc06	0.059291862
11	0xbd1a2dd4	-0.03764136
12	0x3d1ccda4	0.03828205
13	0x3cf797e2	0.03022379
14	0x3df80eee	0.121122226
15	0xbdc6e50a	-0.097116545
16	0xbab50e5f	-0.0013813487
17	0xbd35afca	-0.0443571
18	0xbcda10ea	-0.026619393
19	0xbb54d14e	-0.0032473388
20	0xbb91565a	-0.0044353427
21	0x3bbd779e	0.0057820817
22	0x3d72cb44	0.05927588
23	0x3dad73e9	0.08469374
24	0xbda670df	-0.08126997
25	0x3d487510	0.048939764
26	0xbb673d37	-0.003528429
27	0x3c6a5c0a	0.01430417
28	0x3b513b70	0.0031926297
29	0xbc23ee5d	-0.010005561
30	0xbb642cd8	-0.0034816768
31	0x3c3e7bd4	0.011626203
32	0xbc9bfd67	-0.01904173
33	0xbcab3e4b	-0.020903727
34	0x3d9dedb9	0.077113576
35	0x3ccb0a25	0.02478511
36	0xbcd86cee	-0.02641913
37	0xbdd7f755	-0.10545222
38	0x3b4cc7e8	0.0031247083
39	0xbc2cc2bc	-0.010544475
40	0xbadb6173	-0.0016737416
41	0xbbf552d3	-0.00748668
42	0x3ce3dec1	0.027816178
43	0x3cfb7c6b	0.030698976
44	0x3c16f43e	0.009213505
45	0x3c906aea	0.017629106
46	0xbb861649	-0.004092012
47	0xbd8fa893	-0.07014575
48	0x3c99cddc	0.01877492
49	0xbc6b1d52	-0.014350252
50	0xbc54c7a5	-0.012987052
51	0x3cc8c40d	0.024507547
52	0x3b9a0bc6	0.0047011105
53	0x3c99f2cd	0.018792534
54	0xbc912713	-0.017718827
55	0x3db99ed9	0.09063501
56	0x3ca66468	0.02031155
57	0x3bd49d90	0.0064885095
58	0xbc3b1a8c	-0.0114199035
59	0x3ca9caa6	0.020726513
60	0x3c864151	0.016388567
61	0xbcd25581	-0.025675537
62	0xbab4022c	-0.0013733557
63	0x3c956286	0.018235456
64	0xbca5af80	-0.020225286
65	0x3b0fddbe	0.0021952237
66	0x3d34661d	0.044042695
67	0x3dab5969	0.08366663
68	0xbc5263cf	-0.012841179
69	0x3c78eb70	0.015192851
70	0x3d16405a	0.036682464
71	0xbd476987	-0.048684623
72	0xbdafe608	-0.08588797
73	0x3d17569b	0.036947828
74	0xbcf1bb47	-0.029508246
75	0x3c58b002	0.013225557
76	0xbc0fc60b	-0.0087752445
77	0x3a8c6dd1	0.001071388
78	0x3c6f4b75	0.014605393
79	0x3c06b9bb	0.0082229925
80	0x3bc4ccb5	0.0060058483
81	0x3bfaeac1	0.0076573794
82	0x3b6eb6aa	0.0036424794
83	0xbb7c75af	-0.0038522293
84	0x3bd2c2e7	0.0064319256
85	0xbd374c79	-0.044750664
86	0xbc9ba192	-0.018997941
87	0x3d96aac8	0.07356793
88	0x3c4edc67	0.01262579
89	0xbc05134f	-0.008122279
90	0xbd322286	-0.043489955
91	0xbd792f9f	-0.06083643
92	0x3b8b58f0	0.0042525455
93	0xbc14e9af	-0.009088918
94	0xbd4541ab	-0.04815833
95	0xbb20aaa0	-0.0024515763
96	0xbdfcb052	-0.12338318
97	0xbd4bf645	-0.049795408
98	0xbbc53dfb	-0.0060193515
99	0xbc1fb50b	-0.009747754
100	0x3b35605c	0.0027675843
101	0x3b8423bc	0.00403258
102	0x3d959913	0.07304587
103	0x3c998d38	0.018744096
104	0xbbab6847	-0.0052309367
105	0xbacee5a2	-0.0015784989
106	0x3c0be5e6	0.008538699
107	0x3c42b6cd	0.011884403
108	0x3c15d1ff	0.009144305
109	0x3b93d275	0.0045111724
110	0xba3f2971	-0.0007292247
111	0xbaa4b6a4	-0.0012566638
112	0xbc1321dd	-0.008980242
113	0xbcd5f105	-0.026115904
114	0x3b5f6d2b	0.0034092169
115	0xbbdbe247	-0.006710324
116	0x3a698e8e	0.0008909487
117	0x3c12ad5b	0.008952464
118	0x3d4ec838	0.050483912
119	0x3cb86274	0.022507884
120	0x3bb49ae7	0.00551163
121	0xbcc6f2de	-0.02428573
122	0x3d98348d	0.07431898
123	0x3d134aa6	0.035959862
124	0x3d72f006	0.059310935
125	0xbd2d5eb9	-0.042326663
126	0x3b2f26a5	0.0026725915
127	0x396f9ce2	0.0002285126
128	0x3d610428	0.054935604
129	0xbcd0ccef	-0.025488345
130	0x3d40fc78	0.047115773
131	0xbc3f7598	-0.011685751
132	0xbd9ea495	-0.07746235
133	0x3c4972bb	0.01229542
134	0xbb937f84	-0.004501285
135	0x3c62e086	0.013847476
136	0xbe0d741d	-0.13813825
137	0x3ea2c7e8	0.3179314
138	0xbd186785	-0.0372081
139	0x3cb2e27e	0.021836516
140	0x3d69d6fe	0.0570898
141	0xbdc20af7	-0.09474748
142	0xbc8be7f9	-0.017078387
143	0xbc9a7f0c	-0.018859409
144	0x3dccaf9c	0.09994432
145	0x3dfae83c	0.122513264
146	0xbb783c1b	-0.0037877623
147	0x3b2414f3	0.00250369
148	0x3e1f7e62	0.15575555
149	0x3d5797e7	0.0526351
150	0xbcded56b	-0.027201375
151	0xbd3e8a82	-0.04651881
152	0x3c0b434d	0.0084999325
153	0x3af0de33	0.0018376767
154	0x3d203f77	0.039123025
155	0x3da39fc9	0.07989461
156	0xbca7a756	-0.020465534
157	0xbccf4224	-0.025300093
158	0xbc1102b5	-0.008850743
159	0x3a2d1064	0.00066018687
160	0xbda2d9e6	-0.07951717
161	0x3db93159	0.090426154
162	0xbb97e15c	-0.004635019
163	0x3c372b8e	0.011179818
164	0x3dc1ecc7	0.0946899
165	0x3d7115d0	0.058858693
166	0xbc73ee70	-0.014888391
167	0x3c0e8727	0.008699215
168	0x3d5d57e3	0.054038893
169	0x3d10ae21	0.035322312
170	0xbaaaa5a0	-0.0013019331
171	0x3a116470	0.00055462774
172	0xbc0ec05e	-0.008712856
173	0x3b6b1c5e	0.0035875062
174	0x3d060dc8	0.032727987
175	0xbd74b8d9	-0.059746597
176	0xbdeca22a	-0.11554368
177	0x3e29ebbc	0.16593832
178	0xbd83d854	-0.06437746
179	0x3ceacb1b	0.028661301
180	0xbb58127e	-0.0032970007
181	0x3c66775c	0.014066543
182	0xbc5203a7	-0.012818254
183	0xbcc3f3ec	-0.023920022
184	0xbd091abc	-0.03347276
185	0xbcbf0d38	-0.023321733
186	0xbd8a72be	-0.067601666
187	0xbc777eab	-0.015105884
188	0x3cba20b7	0.022720678
189	0xbca3e554	-0.020006813
190	0x3bb658fe	0.005564808
191	0x399364cc	0.00028113124
192	0x3b2a08a7	0.0025945099
193	0xbdd4519b	-0.103671275
194	0x3bb0d54d	0.005396521
195	0x3bc0c834	0.005883241
196	0xbc0fff60	-0.0087889135
197	0xbd14945f	-0.03627431
198	0xbdd668ea	-0.104692295
199	0xbd55202a	-0.052032627
200	0xbcc50b3b	-0.024053207
201	0xbcc7530a	-0.024331588
202	0xbda45346	-0.08023696
203	0xbc5798be	-0.013158975
204	0xbb947d29	-0.004531522
205	0x3c12331b	0.008923317
206	0x3d47f091	0.048813406
207	0xbcd9338f	-0.026513843
208	0x3d2b3dba	0.041806914
209	0xbbbd985f	-0.0057859863
210	0xbbf116d7	-0.007357459
211	0xbd3f6c06	-0.04673388
212	0xbb91bbc0	-0.0044474304
213	0x39c50dea	0.00037585135
214	0x3e18234e	0.14857218
215	0xbdfef72c	-0.12449488
216	0x3cd1db22	0.025617186
217	0x3c9a3575	0.018824318
218	0x3cc4821a	0.023987819
219	0x3d8ab96e	0.06773649
220	0xbc00463b	-0.007829244
221	0x3bffc4da	0.007805449
222	0x3bb032d0	0.005377151
223	0x3daf51ce	0.08560525
224	0x3c363aac	0.011122387
225	0x3d53ef5f	0.051741954
226	0xbbbd1c46	-0.0057711927
227	0xbc1e9e4f	-0.009681298
228	0x3a685c0e	0.0008863815
229	0xbcb53d35	-0.022123912
230	0x3c878912	0.016544852
231	0xbe06be60	-0.1315856
232	0xbd4590ee	-0.04823392
233	0xbb0e6ae4	-0.0021731192
234	0xbd9776b8	-0.07395691
235	0x3e51ade2	0.20476487
236	0x3b258697	0.0025257224
237	0xbbe1fc26	-0.0068965135
238	0x3c38192f	0.011236473
239	0x3b392a3f	0.002825394
240	0x3bde0280	0.0067752004
241	0x3c2f9a19	0.010717892
242	0x3bf3d9a6	0.007441717
243	0x3b929744	0.0044735987
244	0xbcdaced2	-0.026709948
245	0x3c9b2d07	0.01894237
246	0xbc9683a7	-0.018373324
247	0xbd836fc9	-0.06417806
248	0x3b56b526	0.0032761781
249	0x3c35c6e5	0.011094783
250	0x3d214f06	0.039382003
251	0x3d4f0034	0.050537303
252	0x3b8b82a3	0.0042575165
253	0x3ad042cb	0.0015889046
254	0x3c47340e	0.012158407
255	0xb9254a03	-0.00015763198
