pretrained_models/PianoSSM_S_MH_maestro_all_24000_model.pth (torch, 305196 bytes, 29 tensors)

seq_midi.1.seq.0.seq.C_bias f4 [88, 2]
0	0xbb63439d	-0.0034677752
1	0x00000000	0.0
2	0x3d0a9824	0.0338365
3	0x00000000	0.0
4	0xbe5c4104	-0.21509176
5	0x00000000	0.0
6	0xbd8ac742	-0.06776287
7	0x00000000	0.0
8	0x3e7d5360	0.24738836
9	0x00000000	0.0
10	0xbe0a0672	-0.13479021
11	0x00000000	0.0
12	0xbd20e1bc	-0.039277777
13	0x00000000	0.0
14	0xbe64ac58	-0.22331369
15	0x00000000	0.0
16	0xbe424f5e	-0.18975589
17	0x00000000	0.0
18	0x3e828bbf	0.25497243
19	0x00000000	0.0
20	0xbd2884d9	-0.04114232
21	0x00000000	0.0
22	0x3e81d38b	0.25356707
23	0x00000000	0.0
24	0xbd6bf4fd	-0.057606686
25	0x00000000	0.0
26	0xbdb0a24e	-0.08624707
27	0x00000000	0.0
28	0xbc762948	-0.015024491
29	0x00000000	0.0
30	0x3db25fb8	0.08709663
31	0x00000000	0.0
32	0xbe5458de	-0.20737025
33	0x00000000	0.0
34	0xbe38451d	-0.17995115
35	0x00000000	0.0
36	0xbe445381	-0.19172479
37	0x00000000	0.0
38	0xbd62c354	-0.05536206
39	0x00000000	0.0
40	0xbd77b829	-0.060478363
41	0x00000000	0.0
42	0xbede4edb	-0.43419537
43	0x00000000	0.0
44	0xbe8e97e2	-0.27850252
45	0x00000000	0.0
46	0x3e8b58af	0.27216098
47	0x00000000	0.0
48	0xbe56d076	-0.20977959
49	0x00000000	0.0
50	0x3e568e0f	0.20952629
51	0x00000000	0.0
52	0x3e3a4377	0.18189798
53	0x00000000	0.0
54	0x3ddc6ffc	0.10763547
55	0x00000000	0.0
56	0xbd9008b9	-0.07032914
57	0x00000000	0.0
58	0xbd20cad5	-0.039255936
59	0x00000000	0.0
60	0xbe81d835	-0.25360265
61	0x00000000	0.0
62	0x3e4b151c	0.19832271
63	0x00000000	0.0
64	0x3def69e0	0.11690116
65	0x00000000	0.0
66	0xbd6bc851	-0.057564083
67	0x00000000	0.0
68	0xbeaa44f0	-0.3325572
69	0x00000000	0.0
70	0xbe024645	-0.12722118
71	0x00000000	0.0
72	0xbd71a2bd	-0.05899309
73	0x00000000	0.0
74	0x3dd8f08e	0.10592757
75	0x00000000	0.0
76	0xbe547e28	-0.2075125
77	0x00000000	0.0
78	0x3d86bfc3	0.065795444
79	0x00000000	0.0
80	0xbdfc9eab	-0.12334951
81	0x00000000	0.0
82	0xbeb20d45	-0.3477575
83	0x00000000	0.0
84	0x3e6d70f0	0.23187613
85	0x00000000	0.0
86	0xbe5e75d0	-0.2172463
87	0x00000000	0.0
88	0xbd56df76	-0.052459203
89	0x00000000	0.0
90	0xbea0bd39	-0.31394365
91	0x00000000	0.0
92	0xbe7f2de7	-0.24919854
93	0x00000000	0.0
94	0x3ea42bda	0.32064706
95	0x00000000	0.0
96	0xbeaccdc7	-0.33750746
97	0x00000000	0.0
98	0xbe9ecb56	-0.31014508
99	0x00000000	0.0
100	0xbefa8ca9	-0.4893544
101	0x00000000	0.0
102	0xbe9405d0	-0.28910685
103	0x00000000	0.0
104	0x3d24d263	0.040239703
105	0x00000000	0.0
106	0xbe67ad16	-0.22624621
107	0x00000000	0.0
108	0x3db7b670	0.08970344
109	0x00000000	0.0
110	0x3d4133a7	0.0471684
111	0x00000000	0.0
112	0xbe757c7b	-0.23973267
113	0x00000000	0.0
114	0xbdbd8a8b	-0.092549406
115	0x00000000	0.0
116	0xbd45d703	-0.048300754
117	0x00000000	0.0
118	0xbe6eda8d	-0.23325558
119	0x00000000	0.0
120	0x3d87865b	0.06617423
121	0x00000000	0.0
122	0x3e59b71e	0.2126126
123	0x00000000	0.0
124	0xbe8d50e1	-0.27600768
125	0x00000000	0.0
126	0xbc519d88	-0.012793906
127	0x00000000	0.0
128	0x3d846c49	0.06465966
129	0x00000000	0.0
130	0xbdffbef8	-0.12487596
131	0x00000000	0.0
132	0x3ce28ae9	0.027654128
133	0x00000000	0.0
134	0xbdacfd1f	-0.084467165
135	0x00000000	0.0
136	0xbc80624f	-0.015671877
137	0x00000000	0.0
138	0xbc9a3f73	-0.018829083
139	0x00000000	0.0
140	0xbe0937f8	-0.13400257
141	0x00000000	0.0
142	0x3e6e4f61	0.23272468
143	0x00000000	0.0
144	0x3e85051a	0.25980455
145	0x00000000	0.0
146	0xbd930b93	-0.07179942
147	0x00000000	0.0
148	0x3e85bc78	0.26120353
149	0x00000000	0.0
150	0xbe7bb680	-0.24581337
151	0x00000000	0.0
152	0x3dd4c82e	0.10389744
153	0x00000000	0.0
154	0xbea95cef	-0.33078715
155	0x00000000	0.0
156	0x3d32e3aa	0.04367415
157	0x00000000	0.0
158	0xbc87776c	-0.016536437
159	0x00000000	0.0
160	0x3e2a4629	0.16628326
161	0x00000000	0.0
162	0x3d282c4c	0.04105787
163	0x00000000	0.0
164	0xbd8c14f3	-0.06839933
165	0x00000000	0.0
166	0xbe5b4793	-0.21414022
167	0x00000000	0.0
168	0x3e0aba0b	0.13547532
169	0x00000000	0.0
170	0xbd8a88f5	-0.06764404
171	0x00000000	0.0
172	0x3e68fcd9	0.22752704
173	0x00000000	0.0
174	0x3e2255f1	0.15853097
175	0x00000000	0.0

seq_midi.1.seq.0.seq.C f4 [88, 64, 2]
0	0x3d3418c2	0.043968923
1	0x3e159233	0.14606552
2	0x3d74aa8f	0.05973297
3	0xbca3f103	-0.020012384
4	0xbcff869f	-0.031192122
5	0xbd296c04	-0.041362777
6	0xbead97d0	-0.33904886
7	0x3e4bd49b	0.19905321
8	0xbddab4f5	-0.10679046
9	0x3cd81fea	0.026382405
10	0xbcadd62c	-0.02122029
11	0xbd13f189	-0.036119018
12	0xbd2759b6	-0.04085704
13	0x3c134c34	0.008990336
14	0x3e15bb93	0.14622335
15	0xbdd4220a	-0.10358055
16	0x3e544b58	0.20731866
17	0xbe1c9bb3	-0.1529377
18	0x3bfc3479	0.007696685
19	0xbca33daf	-0.019926874
20	0xbd8aa3d3	-0.06769528
21	0x3e330d87	0.17485629
22	0x3d257dcf	0.040403184
23	0xbca7f7ab	-0.02050384
24	0x3cc03c9f	0.023466406
25	0x3e0151f2	0.12628916
26	0x3b9ff744	0.0048817713
27	0xbd23c848	-0.039985925
28	0xbe163601	-0.14669038
29	0xbe33ed3f	-0.17570971
30	0xbd1b0f90	-0.03785664
31	0xbce9d314	-0.028543033
32	0xbe4df4d9	-0.20112933
33	0x3cb75a4b	0.022381922
34	0x3da4c23d	0.080448605
35	0x3d29ab40	0.041423082
36	0x3ced07f7	0.028934462
37	0xbd41230b	-0.04715256
38	0xbd01f926	-0.031731747
39	0x3d933d86	0.07189469
40	0xbca71e9d	-0.02040034
41	0xbc248139	-0.010040575
42	0xbc8bf848	-0.017086163
43	0xbb8c2cdc	-0.0042778086
44	0x3ce85e71	0.028365346
45	0xbc909bda	-0.01765244
46	0x3dc5cf47	0.09658676
47	0x3d05d927	0.032677796
48	0xbd510dea	-0.05103866
49	0x3c74f62e	0.014951272
50	0xbd275ae7	-0.040858176
51	0x3cc72f7e	0.024314638
52	0x3cf8ecb6	0.03038631
53	0xbd9d8fc1	-0.076934345
54	0x3ceca13d	0.028885478
55	0xbc9fff7b	-0.019531002
56	0x3c8d3393	0.017236507
57	0xbce84565	-0.028353402
58	0xb9dddaa6	-0.0004231531
59	0x3cdf2271	0.027238103
60	0x3d4c3a1b	0.0498601
61	0xbdbf498a	-0.09340198
62	0x3bd4e625	0.006497162
63	0xbc35303b	-0.011058862
64	0x3c32cdbb	0.010913308
65	0xbcbb1304	-0.022836216
66	0xbc5d408a	-0.013504157
67	0xbb2d71c6	-0.002646552
68	0xbca79fec	-0.020461999
69	0xbd225264	-0.039629355
70	0x3dc2261c	0.09479925
71	0x3d50b210	0.050951064
72	0x3cb09aeb	0.021558246
73	0xbd8361b4	-0.0641512
74	0x3d43612f	0.047700103
75	0xbd596110	-0.05307108
76	0x3cf6f918	0.030148074
77	0x3bbb8ba9	0.005723436
78	0x3cfb390a	0.030666847
79	0xbbf33bb6	-0.0074228896
80	0xbda3d7da	-0.08000155
81	0x3d54b1f0	0.051927507
82	0x3c28ed55	0.010310491
83	0xbd2fe9a7	-0.042947438
84	0x3db481ec	0.08813843
85	0xbdfc7077	-0.123261385
86	0x3e872c3c	0.26400936
87	0xbe9a0ec5	-0.30089393
88	0x3d2a13c4	0.041522756
89	0x3da2e1b1	0.079532035
90	0x3cabc8f7	0.020969851
91	0x3cc7360e	0.024317767
92	0x3d32b62f	0.043630775
93	0x3b697fb8	0.0035629105
94	0xbd1a1cc5	-0.037625093
95	0xbc5f465e	-0.013627617
96	0xbc7f3b2d	-0.015578073
97	0xbd5851da	-0.052812435
98	0xbc8540d8	-0.016266271
99	0xbac2a6bf	-0.001485072
100	0xbcf12e37	-0.029440982
101	0xbc902383	-0.017595058
102	0xbd31e873	-0.04343457
103	0xbbe28aa4	-0.0069135
104	0xbd1f6f94	-0.03892477
105	0xbbf9654f	-0.007610954
106	0xbc97ee7f	-0.018546341
107	0x3d732b35	0.059367377
108	0x3e15c3d8	0.1462549
109	0x3e2c3809	0.1681825
110	0x3d663d00	0.056210518
111	0x3d91cbb9	0.07118935
112	0xbd9402c9	-0.07227094
113	0x3d1efb20	0.03881371
114	0xbd7c49f7	-0.061593976
115	0x3d4e4444	0.050358072
116	0x3d52efc7	0.0514982
117	0x3e093d53	0.134023
118	0xbd3f3a64	-0.046686545
119	0xb8074f30	-3.2260257e-05
120	0xbcfec58e	-0.03110006
121	0xbd31ebdc	-0.043437824
122	0xbcdd0c49	-0.026983397
123	0xbbbaf210	-0.0057051256
124	0x3e061c0e	0.1309664
125	0x3d7d3a98	0.061823457
126	0x3cc4245d	0.02394312
127	0x3d81e460	0.06342387
128	0x3c6dde2e	0.014518304
129	0x3ddb7e4b	0.10717448
130	0xbe8972df	-0.26845452
131	0xbae04a16	-0.0017111923
132	0xbad81ef9	-0.0016488723
133	0xbca6a058	-0.02034013
134	0xbd87cf33	-0.06631317
135	0xbd7a6d94	-0.061139658
136	0xbc0489ce	-0.008089496
137	0xbc40d207	-0.011768824
138	0xbd496f6b	-0.049178522
139	0xbc5f28a5	-0.01362053
140	0xbd6f27c1	-0.05838752
141	0xbbcd2687	-0.0062606963
142	0xbdfe0361	-0.12402988
143	0xbc9f317d	-0.019432778
144	0x3e27c23e	0.16382691
145	0xbe15a196	-0.14612421
146	0x3c8a2493	0.016863143
147	0x3c044fe2	0.008075686
148	0xbc42303d	-0.011852321
149	0xbcf1726f	-0.029473512
150	0x3dabbbe7	0.08385449
151	0xbdd0e571	-0.102000125
152	0x3bbb78c7	0.005721185
153	0xbda58ed4	-0.08083883
154	0x3bf84bf6	0.0075774146
155	0xbba3e7b2	-0.0050019855
156	0xbdfb1b91	-0.12261117
157	0x3e0a0ceb	0.1348149
158	0xbd1133a9	-0.035449658
159	0xbe14fc05	-0.14549263
160	0xbd875836	-0.06608622
161	0x3e1425e4	0.14467579
162	0xbb905b67	-0.0044054273
163	0xbd7e58d5	-0.062096436
164	0x3ce197da	0.027538229
165	0xbb523e79	-0.0032080694
166	0x3c7aa58b	0.015298258
167	0xbce8ae66	-0.028403472
168	0xbd404aa5	-0.046946187
169	0x3ca56534	0.020189859
170	0xbcb80315	-0.022462407
171	0x3ce85bcf	0.02836409
172	0x3c6ecc99	0.014575147
173	0x3d1ba7ee	0.038001947
174	0xbd9b3051	-0.07577575
175	0x3e35aa11	0.17740656
176	0xbb690c94	-0.0035560476
177	0x3c893132	0.016747091
178	0xbccce8e3	-0.025013393
179	0x3d1b3cb8	0.037899703
180	0x3ca3562c	0.01993855
181	0xbda8acfe	-0.08236121
182	0xbd1bac76	-0.03800627
183	0xbc7e0301	-0.015503646
184	0xbcb13585	-0.021631965
185	0x3d5bb767	0.053641703
186	0xbd183b69	-0.037166033
187	0x3cc017f6	0.023448925
188	0xbe0d41da	-0.13794652
189	0xbda08cea	-0.07839377
190	0xbc151673	-0.009099591
191	0x3caf222f	0.021378605
192	0x3c8ff174	0.017571189
193	0xbb28e509	-0.0025771281
194	0xbd302d21	-0.04301179
195	0x3aa26952	0.0012391007
196	0xbcf6df44	-0.030135758
197	0xbc5f49a7	-0.0136284
198	0x3b8c3285	0.0042784833
199	0xbc02a42a	-0.00797371
200	0x3d46c646	0.048528932
201	0xbc9a9a80	-0.0188725
202	0x3cdfbabc	0.027310722
203	0xbe0382a0	-0.12842798
204	0xbd91315b	-0.07089492
205	0xbd0fb957	-0.035088863
206	0x3cc8cf9c	0.024513058
207	0xbc445b3f	-0.011984645
208	0x3bfaa842	0.0076494524
209	0xbd2ec95e	-0.042672507
210	0x3c5d72d5	0.013516148
211	0xbca9fc95	-0.020750323
212	0xbda1eb4e	-0.07906209
213	0xbb668e5f	-0.0035180075
214	0x3ce16d63	0.02751798
215	0xbd4a2d7e	-0.04935979
216	0x3c175b4b	0.0092380745
217	0xbb5be67a	-0.0033554123
218	0x3baaea74	0.0052159373
219	0x3c93edea	0.018057782
220	0xbe0cab7d	-0.13737293
221	0xbe6969ac	-0.22794217
222	0xbd50a646	-0.05093982
223	0xbcde87b9	-0.027164327
224	0x3db83081	0.089936264
225	0xbe3e8ae8	-0.18607676
226	0x3d33012d	0.043702293
227	0x3b076f95	0.0020665873
228	0x3d165335	0.036700446
229	0xbcd0b6e7	-0.02547784
230	0xbbcbc6dc	-0.0062187742
231	0x3c271a70	0.010199174
232	0x3c081723	0.0083062975
233	0x3b60ef0d	0.0034322173
234	0x3e66fd59	0.22557582
235	0x3dd9b7d0	0.106307626
236	0xbd918082	-0.07104589
237	0x3d196992	0.037454195
238	0xbe123e84	-0.1428166
239	0x3e0c21af	0.13684724
240	0x3d0b4531	0.034001533
241	0xbd53cf61	-0.051711444
242	0x3cde956d	0.027170861
243	0x3c7c346d	0.015393359
244	0x3e025d9a	0.12731019
245	0xbdc5df1e	-0.09661697
246	0xbc97f4b6	-0.018549304
247	0x3cc46f80	0.023978949
248	0xbd1ede2f	-0.03878611
249	0x3bf48d9c	0.00746317
250	0xbba83b02	-0.0051339874
251	0xbb42c831	-0.0029721374
252	0xbda3969a	-0.07987709
253	0x3e6f424f	0.23365138
254	0x3d1dd5de	0.038534038
255	0x3c443ca8	0.011977352

seq_midi.1.seq.0.seq.norm f4 [64]
0	0xbdb18fa9	-0.08669979
1	0x3ea5af90	0.32360506
2	0xbfd9420b	-1.697328
3	0x3f402e3e	0.7507056
4	0xbfe7f1ba	-1.8120644
5	0xbf523e62	-0.8212644
6	0xc01e9f6b	-2.47848
7	0xbcbdacba	-0.023153652
8	0xbdb3d599	-0.08780975
9	0xc049247f	-3.1428525
10	0xbe315058	-0.17315805
11	0xbf878c3a	-1.0589669
12	0x3dd841a2	0.105593935
13	0xbfa551b7	-1.2915562
14	0xbf184e4a	-0.5949446
15	0xc00013e3	-2.0012138
16	0xbd81c069	-0.063355274
17	0xbfc2f0e7	-1.5229768
18	0xc03a68a9	-2.912638
19	0xbfbba73c	-1.4660411
20	0xc046181b	-3.0952213
21	0xc01c90a9	-2.4463294
22	0xc050a0c0	-3.2598114
23	0xbf55a32a	-0.83452094
24	0xc04d6926	-3.2095428
25	0xc04d4790	-3.2074928
26	0xc046b828	-3.10499
27	0xc04b8e83	-3.1805732
28	0xc036d8c2	-2.8569798
29	0xc0933ecd	-4.601416
30	0xbfe2bc54	-1.7713723
31	0xc0762cdc	-3.846488
32	0xc02dc2b3	-2.7150085
33	0xc0479fe0	-3.119133
34	0xc0517edd	-3.2733681
35	0xc0010ca7	-2.0163972
36	0xc03350f2	-2.8018155
37	0xbf968b7a	-1.1761315
38	0xc01bf615	-2.4368947
39	0xc05687c5	-3.3520367
40	0xbff6e745	-1.9289328
41	0xc03e1927	-2.9702852
42	0xbfacd69e	-1.3502996
43	0xbe807d35	-0.25095525
44	0xbf44d579	-0.76888233
45	0xc041be77	-3.02725
46	0xbf199406	-0.5999149
47	0xbfbbfd1f	-1.4686621
48	0xbf26ed3a	-0.6520573
49	0xc04ccfef	-3.2001913
50	0xc04e24eb	-3.2210033
51	0xc0242888	-2.5649738
52	0xc0584e02	-3.3797612
53	0x3d667d30	0.05627173
54	0xbf59cfc3	-0.85082644
55	0xbef856b3	-0.48503646
56	0xbf35e050	-0.710454
57	0xbfb432c3	-1.4077991
58	0xbddb02e6	-0.10693912
59	0xc03a466d	-2.9105484
60	0xbf8f0bf2	-1.117552
61	0xc032cda6	-2.7938018
62	0xbef34abf	-0.47517964
63	0xbffe43c3	-1.9864429

seq_midi.1.seq.0.seq.angle f4 [64]
0	0xbfdc47c9	-1.7209407
1	0xbfd69b37	-1.6766118
2	0xbfc92b52	-1.5716345
3	0xbfcdaedb	-1.6068987
4	0xbfc94df4	-1.5726914
5	0xbfc955ae	-1.5729272
6	0xbfd79777	-1.6843098
7	0xbfca1e58	-1.579051
8	0xbfe038b6	-1.7517307
9	0xbfc937e9	-1.5720187
10	0xbfd4a614	-1.6613183
11	0xbfc93536	-1.5719364
12	0xbfcad71c	-1.5846896
13	0xbfc9239c	-1.5713992
14	0xbfc91672	-1.5709975
15	0xbfd759be	-1.6824262
16	0xbfcb3c47	-1.587777
17	0xbfc93a67	-1.5720948
18	0xbfdb86f6	-1.7150562
19	0xbfc9289b	-1.5715517
20	0xbfdb7937	-1.7146367
21	0xbfcad6c3	-1.584679
22	0xbfc97a56	-1.5740459
23	0xbfcca90d	-1.598909
24	0xbffdcac3	-1.9827503
25	0xbfefa3c1	-1.8721849
26	0xbff8eb03	-1.944672
27	0xc003a718	-2.0570736
28	0xbfe0493c	-1.7522349
29	0xc002d141	-2.0440218
30	0xbfdf10ea	-1.7427037
31	0xbfefce9d	-1.8734928
32	0xc0390458	-2.8908901
33	0x4003ccf9	2.0593855
34	0x3ffeeaee	1.9915445
35	0x3fe11593	1.7584709
36	0x3fdd2b04	1.7278752
37	0x3fca6405	1.5811774
38	0x3fe11f94	1.7587762
39	0x3fdecec9	1.7406856
40	0x3fcb081b	1.5861849
41	0x3fc941aa	1.5723164
42	0x3fc924f0	1.5714397
43	0x3fccc795	1.5998408
44	0x3fc9adf7	1.5756215
45	0x3fc946ce	1.5724733
46	0x3fca0dbb	1.578544
47	0x3fc92703	1.571503
48	0x3fc99f52	1.5751746
49	0x3fc9415a	1.5723069
50	0x3fe84dd2	1.8148749
51	0x3fc94668	1.5724611
52	0x3fc95678	1.5729513
53	0x3fc9c713	1.5763878
54	0x3fcbb89a	1.5915711
55	0x3fc9c818	1.5764189
56	0x3fc9c23b	1.57624
57	0x3fc91bfb	1.5711664
58	0x3fde1d8e	1.7352769
59	0x3fc95611	1.572939
60	0x3fc91dcc	1.5712218
61	0x3fc93caf	1.5721644
62	0x3fc917b9	1.5710365
63	0x3fc9369d	1.5719792

seq_midi.2.s5.seq.C_bias f4 [60, 2]
0	0x3dfbc699	0.12293739
1	0x00000000	0.0
2	0x3e2df952	0.1698964
3	0x00000000	0.0
4	0x3e03c86b	0.12869422
5	0x00000000	0.0
6	0xbe5eea22	-0.21769002
7	0x00000000	0.0
8	0xbe298965	-0.16556318
9	0x00000000	0.0
10	0x3e74bdaf	0.23900484
11	0x00000000	0.0
12	0xbe698fa9	-0.22808708
13	0x00000000	0.0
14	0xbe115652	-0.14193085
15	0x00000000	0.0
16	0x3ccca9c8	0.024983302
17	0x00000000	0.0
18	0xbe556925	-0.2084089
19	0x00000000	0.0
20	0x3e122f31	0.14275815
21	0x00000000	0.0
22	0xbe6f0f71	-0.23345734
23	0x00000000	0.0
24	0xbe24b0e6	-0.16083106
25	0x00000000	0.0
26	0xbe42edfc	-0.19036096
27	0x00000000	0.0
28	0xbe301411	-0.17195155
29	0x00000000	0.0
30	0xbe8cd139	-0.27503374
31	0x00000000	0.0
32	0xbe0dfd14	-0.13866073
33	0x00000000	0.0
34	0x3e2aba2c	0.16672581
35	0x00000000	0.0
36	0xbe805aea	-0.25069362
37	0x00000000	0.0
38	0xbde5da7b	-0.112233125
39	0x00000000	0.0
40	0x3e6e8315	0.23292191
41	0x00000000	0.0
42	0x3d9fb118	0.0779745
43	0x00000000	0.0
44	0xbde02c1b	-0.109459125
45	0x00000000	0.0
46	0x3e618189	0.2202207
47	0x00000000	0.0
48	0xbe8f7879	-0.280216
49	0x00000000	0.0
50	0xbe7ac323	-0.24488501
51	0x00000000	0.0
52	0xbb3060ba	-0.0026913122
53	0x00000000	0.0
54	0xbe8ae639	-0.2712877
55	0x00000000	0.0
56	0x3e6d7888	0.2319051
57	0x00000000	0.0
58	0x3e3ef461	0.1864791
59	0x00000000	0.0
60	0x3e247644	0.1606074
61	0x00000000	0.0
62	0xbe178b68	-0.14799273
63	0x00000000	0.0
64	0x3e6e8346	0.23292264
65	0x00000000	0.0
66	0xbe069223	-0.13141684
67	0x00000000	0.0
68	0x3de69228	0.11258346
69	0x00000000	0.0
70	0xbe1fdd82	-0.15611842
71	0x00000000	0.0
72	0x3e303393	0.17207174
73	0x00000000	0.0
74	0xbe89bb75	-0.2690083
75	0x00000000	0.0
76	0xbe687883	-0.22702222
77	0x00000000	0.0
78	0x3e537f13	0.20653944
79	0x00000000	0.0
80	0xbd87fa12	-0.06639494
81	0x00000000	0.0
82	0x3e4b25f3	0.19838695
83	0x00000000	0.0
84	0x3e6f83dc	0.23390144
85	0x00000000	0.0
86	0xbe6dbf21	-0.23217441
87	0x00000000	0.0
88	0x3d1b7be7	0.03795996
89	0x00000000	0.0
90	0x3e921f5a	0.28539544
91	0x00000000	0.0
92	0x3e51f36f	0.20503019
93	0x00000000	0.0
94	0xbe82a52d	-0.25516644
95	0x00000000	0.0
96	0xbe28e33e	-0.16492936
97	0x00000000	0.0
98	0xbe01484c	-0.12625235
99	0x00000000	0.0
100	0x3e2791d2	0.1636422
101	0x00000000	0.0
102	0xbe81c2c1	-0.25343898
103	0x00000000	0.0
104	0x3d6e05c0	0.058110952
105	0x00000000	0.0
106	0x3e6088e8	0.21927226
107	0x00000000	0.0
108	0x3cc76b3e	0.02434313
109	0x00000000	0.0
110	0xbd959d57	-0.07305401
111	0x00000000	0.0
112	0xbe31ea1c	-0.17374462
113	0x00000000	0.0
114	0x3e8d240f	0.27566573
115	0x00000000	0.0
116	0xbdf281b0	-0.11841142
117	0x00000000	0.0
118	0x3c0380fa	0.008026356
119	0x00000000	0.0

seq_midi.2.s5.seq.C f4 [60, 64, 2]
0	0xbc02743f	-0.007962286
1	0xbbd83621	-0.0065982495
2	0x3d2f69d0	0.04282552
3	0x3c6bf9c3	0.01440281
4	0x3c1acfb2	0.0094489325
5	0x3dec0ed8	0.11526269
6	0xbb0c0e3d	-0.0021370791
7	0x3ba42f69	0.0050105345
8	0xbd1a65b2	-0.03769464
9	0x3c7ffb2e	0.015623851
10	0xbd29a34b	-0.041415494
11	0x3c1a0388	0.009400256
12	0xbe2e5cb4	-0.17027551
13	0xbd2b67e7	-0.041847136
14	0xba955a2d	-0.0011394672
15	0xbc34a679	-0.011026018
16	0xbd9b7ff6	-0.07592766
17	0x3e40741d	0.18794294
18	0xbc346b3e	-0.011011897
19	0x3d4f395d	0.050591815
20	0xbd51f63a	-0.05126021
21	0xbae3e9a8	-0.001738836
22	0x3e2baf48	0.16766083
23	0x3d1a7b1e	0.03771507
24	0x3e4dba22	0.20090535
25	0xbe0135eb	-0.12618224
26	0x3ba9c72d	0.0051812143
27	0xbb632904	-0.0034661898
28	0xbba78597	-0.0051123607
29	0x3daf8713	0.08570685
30	0x3d58bb45	0.05291297
31	0xbcb7fd5c	-0.022459678
32	0x3cba4ea9	0.022742586
33	0x3d61efdb	0.055160385
34	0xbb81235c	-0.0039409827
35	0x3b9102e1	0.004425392
36	0xbda543ca	-0.0806957
37	0xbd94ec7c	-0.07271668
38	0xbc69e21f	-0.014275103
39	0xbbd7af85	-0.006582203
40	0x3bdcf250	0.006742753
41	0xba729b86	-0.0009254742
42	0x3e710768	0.23537982
43	0x3e3555dd	0.17708535
44	0x3c4edc40	0.012625754
45	0x3bd17b18	0.0063928477
46	0x3b99bbbd	0.0046915696
47	0xbcc8a268	-0.024491504
48	0xbcc737c7	-0.024318589
49	0xbc49b71f	-0.012311726
50	0x3c62b092	0.013836043
51	0xbad61def	-0.0016335825
52	0x3dff1d78	0.124567926
53	0xbc8ef166	-0.017449092
54	0x3d29d32a	0.041461147
55	0xbd58a541	-0.052891973
56	0x3e650806	0.22366342
57	0xbd053cad	-0.032528568
58	0xbd987e01	-0.07445908
59	0x3c5d53fa	0.013508791
60	0x3d72c5dd	0.05927073
61	0x3c7f7d8b	0.015593897
62	0xbc7633aa	-0.015026966
63	0x3d60477f	0.054755684
64	0x3d541e9a	0.051786996
65	0xbdd068fc	-0.10176274
66	0xbdc9c230	-0.098514915
67	0xbc71dcaa	-0.014762083
68	0x3d75288e	0.05985313
69	0xbd6bbbcc	-0.057552144
70	0x3d3d9190	0.046281397
71	0x3cc95d58	0.024580643
72	0x3e0240a5	0.12719972
73	0x3e0d9653	0.13826875
74	0xbdabe13e	-0.08392571
75	0xbda4af4b	-0.08041247
76	0xbab1d7a2	-0.0013568292
77	0x3a9fa398	0.0012179492
78	0xbda3987b	-0.07988068
79	0x3db66570	0.089060664
80	0xbd290ac0	-0.041270018
81	0xbd9a4c18	-0.07534045
82	0x3d4967ea	0.049171366
83	0xbdd82dbe	-0.105556
84	0x3b02aca6	0.0019939332
85	0x3bbc9f40	0.0057562888
86	0x3c0b21d0	0.008491948
87	0xbbdd408c	-0.0067520794
88	0xbb8299f4	-0.003985638
89	0x3c5d7fd3	0.013519245
90	0x3e7c3f50	0.24633527
91	0x3aaf6aaf	0.0013383235
92	0xbc8435fd	-0.016139025
93	0xbde89ee9	-0.11358435
94	0x3d65425f	0.0559715
95	0xbdbc3ee3	-0.09191682
96	0x3c0137d9	0.00788685
97	0xbd5b7afc	-0.053584084
98	0x3bb6f79f	0.005583718
99	0x3c00caa9	0.007860818
100	0xbb9a418d	-0.0047075213
101	0xbc04be49	-0.008102008
102	0xbdc6c3d2	-0.097053185
103	0xbda4d588	-0.0804854
104	0xbdaca8d7	-0.08430641
105	0x3e0a7061	0.13519432
106	0x3b8098c5	0.0039244615
107	0xbba9b5f1	-0.00517916
108	0x3c83953f	0.016062377
109	0x3e008314	0.12550002
110	0xbe0b5209	-0.13605513
111	0xbe468606	-0.19387063
112	0x3d011fa1	0.031524304
113	0xbd131bae	-0.03591507
114	0x3ca09be7	0.01960559
115	0xbdfb0939	-0.122576185
116	0x3b1e3014	0.0024137544
117	0x388c30c9	6.684807e-05
118	0x3c5e0b53	0.013552505
119	0xbe2aeb66	-0.1669136
120	0xbca0d5d5	-0.019633213
121	0xbcf9eff7	-0.030509932
122	0xbc721197	-0.014774702
123	0x3dabad3e	0.08382653
124	0xbdd3db7c	-0.10344598
125	0x3bc44d88	0.0059906878
126	0xbcb53a46	-0.022122514
127	0xbca2c36d	-0.019868577
128	0xbc30ed75	-0.010798802
129	0x3aaeea0a	0.0013344896
130	0x3c7c8bd3	0.015414196
131	0x3b08b193	0.0020857796
132	0x3cff3be4	0.031156488
133	0x3e4cccda	0.2000002
134	0x3b12ec75	0.0022418771
135	0xbba6586b	-0.005076458
136	0xbc32eead	-0.010921163
137	0x3dc8bcde	0.098016486
138	0xbd3e684e	-0.04648619
139	0xbd8849db	-0.06654712
140	0xbe9bcece	-0.30431217
141	0xbe61aae7	-0.2203785
142	0xbbcfa392	-0.006336638
143	0x3bb9289d	0.0056505934
144	0xbd486abd	-0.04892992
145	0xbda0c202	-0.07849504
146	0xbd2f8730	-0.042853534
147	0x3d84c3c7	0.06482654
148	0x3dc01b61	0.09380222
149	0x3ceb11b8	0.028694972
150	0xbcdac906	-0.026707184
151	0xbc8a6d85	-0.016897926
152	0xbd2cba57	-0.042169895
153	0xbca67bb8	-0.020322666
154	0xbbff7799	-0.0077962396
155	0x3becca41	0.007226259
156	0x3d29f363	0.041491877
157	0x3ebe0b83	0.37118158
158	0xbc2b1a16	-0.010443231
159	0xbb398756	-0.0028309426
160	0x3e09cf60	0.13458014
161	0x3e10e3f7	0.14149462
162	0x3b6b7c79	0.0035932346
163	0x3b847d8b	0.004043286
164	0x3c73759d	0.014859584
165	0x3c284549	0.010270425
166	0x3ccdf42a	0.02514084
167	0x3af61d62	0.0018777067
168	0xbba76992	-0.0051090205
169	0x3ab2e0b1	0.0013647286
170	0x3dd56648	0.10419899
171	0xbcd340c1	-0.025787713
172	0xbc18cc4b	-0.009326051
173	0xbb9385cf	-0.004502035
174	0x3d8fe67f	0.070263855
175	0xbdc9f9a4	-0.09862068
176	0xbc1b9788	-0.009496577
177	0x3c2b16c4	0.0104424395
178	0x3beadc37	0.007167365
179	0x3bc6ffe5	0.0060729855
180	0xba47fd34	-0.0007628978
181	0xbb467ea4	-0.0030287886
182	0xbc7fb4f9	-0.015607112
183	0x3cc11f8b	0.023574611
184	0x3c163e32	0.009170102
185	0x3bed19b7	0.0072357315
186	0x3d484d5f	0.04890191
187	0xbc0ec774	-0.0087145455
188	0x3cb3d8d9	0.021953987
189	0xbd71055f	-0.058843013
190	0xbc60e189	-0.013725647
191	0x3be47477	0.0069718915
192	0xbcfaa901	-0.030598165
193	0x3cc8e5e5	0.024523685
194	0xbd9ab563	-0.07554128
195	0xbe17bfa6	-0.14819202
196	0xbdf8c569	-0.12147028
197	0x3de15465	0.11002425
198	0x3d1b4113	0.037903856
199	0xbc9b0744	-0.018924363
200	0xbd72dc1e	-0.05929195
201	0xbdb39708	-0.08769041
202	0xbd871c7b	-0.06597229
203	0xbe2a3e78	-0.16625392
204	0xbb1681a8	-0.0022965465
205	0xb9c27d12	-0.00037095748
206	0x3dceb7d1	0.10093654
207	0xbd508d60	-0.050916076
208	0xbd3d3629	-0.04619423
209	0x3c93be1f	0.018034993
210	0xbc84d31d	-0.016213948
211	0x3b852d06	0.004064205
212	0x3bc72d00	0.0060783625
213	0x3bd3815a	0.006454629
214	0x3c82167f	0.015879868
215	0x3d885f01	0.066587456
216	0x3bb046c2	0.0053795287
217	0xbb247844	-0.0025096098
218	0x3c6ce0c6	0.014457887
219	0x3b7b5359	0.003834924
220	0xbd0351bb	-0.032060366
221	0xbd92b682	-0.07163717
222	0xbbca9ec4	-0.006183477
223	0x3d23d4fa	0.039998032
224	0x3b086f8e	0.0020818445
225	0xbd607354	-0.054797485
226	0xbb4a3d05	-0.0030859124
227	0xbaebd791	-0.0017993321
228	0x3c9fcfb1	0.019508215
229	0x3bfb4216	0.00766779
230	0x3ddbac65	0.10726241
231	0xbd9f73df	-0.077857725
232	0xbce7d21a	-0.028298426
233	0x3d47cb50	0.04877788
234	0x3b927fa2	0.0044707814
235	0x3c627953	0.013822871
236	0xbd41e92b	-0.047341507
237	0xbd7cbcd2	-0.06170351
238	0x3dab0ea2	0.083524
239	0x3da98ed2	0.08279194
240	0x3dc0c58c	0.09412679
241	0xbe58aea5	-0.21160372
242	0x3ddcc217	0.10779207
243	0x3e19e8b9	0.15030183
244	0x3d04d6d3	0.032431435
245	0xbc429975	-0.011877407
246	0xbe02a1cf	-0.12757038
247	0xbe6a80e5	-0.22900732
248	0x3c57579e	0.013143448
249	0xbb80fc3f	-0.00393632
250	0xbe0ae7cf	-0.1356499
251	0x3cb60ab7	0.022221906
252	0x3cac7d1a	0.021055747
253	0xbceb66c1	-0.02873552
254	0x393cdcaa	0.00018011281
255	0xbab966e7	-0.0014145047

seq_midi.2.s5.seq.norm f4 [64]
0	0xc00dde99	-2.2167113
1	0xbf535616	-0.8255323
2	0xbd8693b4	-0.06571141
3	0xc054b092	-3.323277
4	0xc03fc845	-2.9965985
5	0xc03b737a	-2.9289231
6	0x3ac7051a	0.0015184016
7	0xc06a5e01	-3.6619875
8	0xbc10eb92	-0.008845227
9	0xbd7216a2	-0.059103616
10	0xbf72c661	-0.9483395
11	0x3d44d1f3	0.048051786
12	0xbff6f958	-1.9294844
13	0xbfe09fd3	-1.7548774
14	0xbf3ae307	-0.73002666
15	0xc04a4825	-3.1606534
16	0x3de4a70a	0.11164673
17	0xc036a102	-2.8535771
18	0xc03f3dee	-2.988155
19	0xbf96676b	-1.1750311
20	0xc045570d	-3.0834382
21	0xbe738896	-0.23782572
22	0xc02b8676	-2.6800818
23	0xbf4da7ba	-0.80334055
24	0xc0327ace	-2.7887454
25	0xc071af0d	-3.7763093
26	0xc02e8d13	-2.7273605
27	0xc02b9f4b	-2.6815975
28	0xc00c99de	-2.1968913
29	0xc02d7246	-2.7100997
30	0xc06198f1	-3.5249598
31	0xc08a3d67	-4.3199954
32	0xc0210e69	-2.5165045
33	0xbfe6629b	-1.7998842
34	0xc0337fdb	-2.8046787
35	0xc03639d4	-2.8472795
36	0xbfb3f9bc	-1.4060588
37	0xc0215d56	-2.5213218
38	0xc0156129	-2.3340552
39	0xc049b249	-3.1515067
40	0xc04ddf2d	-3.2167466
41	0xc0599013	-3.3994186
42	0xc01cbc9d	-2.449012
43	0xc0206d34	-2.5066652
44	0xc05f6f85	-3.4911816
45	0xbf1cb4c2	-0.61213315
46	0xc004e786	-2.076631
47	0xbf8e2c32	-1.1107237
48	0xc01bd981	-2.4351504
49	0xc027d643	-2.6224525
50	0xc0408be8	-3.0085392
51	0xc00900a6	-2.1406646
52	0xc00ae48c	-2.1701994
53	0xc037ac78	-2.8699017
54	0x3e0ad975	0.13559516
55	0x3e90db64	0.28292382
56	0x3e795c35	0.2435158
57	0x3eff5d3f	0.4987583
58	0xc011b5e9	-2.276728
59	0xbe9d1015	-0.30676332
60	0xc00a3ddb	-2.1600254
61	0x3f72fc98	0.9491668
62	0xbfeeb203	-1.8648075
63	0xc039c380	-2.9025574

seq_midi.2.s5.seq.angle f4 [64]
0	0xbfc93ad4	-1.5721078
1	0xbfc9603d	-1.5732495
2	0xbfca4736	-1.5802982
3	0xbfc94847	-1.5725182
4	0xbfe5c013	-1.7949241
5	0xbfe99055	-1.8247172
6	0xbfc91837	-1.5710515
7	0xbfc9b92a	-1.5759633
8	0xbfc933c5	-1.5718924
9	0xbfc91699	-1.5710021
10	0xbfcb54e0	-1.5885277
11	0xbfd2c8d4	-1.6467538
12	0xbfde6902	-1.7375796
13	0xbfc92c8e	-1.5716722
14	0xbfcfe5d8	-1.6242018
15	0xbfe780b0	-1.8086147
16	0xbfc9bc79	-1.5760642
17	0xbfc9460b	-1.57245
18	0xbff8ac21	-1.942753
19	0xbfc91c0e	-1.5711687
20	0xbfc97749	-1.5739528
21	0xbfc9175c	-1.5710254
22	0xbfc93381	-1.5718843
23	0xbfcb98fb	-1.5906061
24	0xbfcd19bc	-1.6023479
25	0xbfc99627	-1.5748948
26	0xbfe8c4ce	-1.818506
27	0xbffb875f	-1.9650687
28	0xbfeaad4a	-1.8334134
29	0xbfdce01f	-1.7255896
30	0xbfe6101a	-1.7973664
31	0xbff67304	-1.925385
32	0x3fed6088	1.8545084
33	0x400040c2	2.0039525
34	0x3fee923a	1.8638375
35	0x3ff585c5	1.9181448
36	0x3fde5c02	1.7371829
37	0x3feadc3d	1.8348461
38	0x3fc9291e	1.5715673
39	0x40018b3f	2.024124
40	0x3ff8b1c9	1.9429256
41	0x3fe73e2c	1.8065848
42	0x3fc935af	1.5719508
43	0x3fc94bfc	1.5726314
44	0x3fc9514e	1.5727937
45	0x3fce62b0	1.6123867
46	0x3fe37d68	1.7772646
47	0x3fdab327	1.7085923
48	0x3fe54692	1.7912161
49	0x3fc93975	1.572066
50	0x3fc950c4	1.5727773
51	0x3fcce29e	1.6006658
52	0x3fe86542	1.8155901
53	0x3fc96663	1.5734371
54	0x3fcebbd6	1.6151073
55	0x3fc9181a	1.571048
56	0x3fcd7ebd	1.6054302
57	0x3fcf6d4b	1.6205229
58	0x3fc93ac9	1.5721065
59	0x3fc9b8a1	1.5759469
60	0x3fc93139	1.5718147
61	0x3fc97073	1.5737442
62	0x3fcbe185	1.5928198
63	0x3fcac289	1.5840617

seq_midi.2.skipLayer.weight f4 [60, 88]
0	0xbd6cf4f5	-0.057850797
1	0x3dd094d2	0.10184635
2	0x3dc3e4b7	0.09565108
3	0xbc84813c	-0.016174905
4	0x3d45f35d	0.048327792
5	0x3ccd5fda	0.02507012
6	0xbd869584	-0.065714866
7	0xbd802801	-0.0625763
8	0x3c5cbd75	0.013472904
9	0xbd51ee39	-0.051252577
10	0xbc816dc9	-0.01579942
11	0xbc9fe1ef	-0.019516913
12	0x3bd42716	0.006474386
13	0xbe19a232	-0.15003279
14	0x3ca40f8c	0.020026945
15	0xbd54a2aa	-0.05191294
16	0xbc28afb2	-0.010295795
17	0x3d368a05	0.04456522
18	0x3e0cc33d	0.13746352
19	0xbc4c4a78	-0.012468927
20	0xbb8bc423	-0.0042653247
21	0x3dc5620d	0.09637842
22	0xbdce90e7	-0.10086232
23	0xbca54928	-0.020176485
24	0x3d02eb9e	0.031962983
25	0x3d6e6b01	0.058207516
26	0x3dab658c	0.08368978
27	0xbc9e4aed	-0.019322837
28	0x3c457052	0.012050705
29	0xbc8c5b8d	-0.017133499
30	0x3dd0355f	0.1016643
31	0x3d000058	0.031250328
32	0xbcf0647e	-0.029344793
33	0x3d069c9a	0.03286419
34	0x3cadda92	0.021222387
35	0x3d82cf2a	0.0638717
36	0x3d1a3f51	0.03765804
37	0xbcf174e2	-0.02947468
38	0xbc6e423b	-0.014542158
39	0xbd82a014	-0.06378189
40	0xbd24b63b	-0.04021285
41	0x3e05650f	0.13026832
42	0x3d23ba91	0.039972845
43	0xbdafef56	-0.085905716
44	0x3cc2618d	0.023728156
45	0x3dcc616b	0.099795185
46	0xbd8b9ec9	-0.06817395
47	0xbea0c717	-0.31401893
48	0x3e018344	0.1264773
49	0x3d49def0	0.049284875
50	0xbd11e441	-0.03561807
51	0x3cd65488	0.026163355
52	0x3cb5874c	0.022159241
53	0x3cf0cfff	0.029396055
54	0xbbeb1afb	-0.007174847
55	0xbda67049	-0.081268854
56	0x3d8479f1	0.06468571
57	0x3cea356b	0.028589925
58	0xbcce3656	-0.025172394
59	0x3e127f92	0.14306477
60	0x3e052be3	0.13005023
61	0x3da19a15	0.07890717
62	0x3e198554	0.14992267
63	0x3d3558a1	0.044273976
64	0xbe18a915	-0.1490825
65	0xbde28e4b	-0.110622965
66	0xbe119d4e	-0.14220163
67	0xbd9838c6	-0.07432704
68	0xbd11970d	-0.035544444
69	0x3bb8ea76	0.0056431843
70	0x3bf81f70	0.007572107
71	0xbe0b9140	-0.13629627
72	0xbde7f4df	-0.11326002
73	0xbd138c63	-0.036022555
74	0xbe495f48	-0.19665253
75	0x3d6b25aa	0.057408966
76	0x3c98ab64	0.018636413
77	0x3e4dad8e	0.20085737
78	0xbce55bc0	-0.027997851
79	0x3d51554f	0.051106747
80	0x3d68c288	0.056826144
81	0xbc11eb0f	-0.00890614
82	0xbe8d0745	-0.2754461
83	0xbc98a7d2	-0.01863471
84	0x3ce07788	0.027400747
85	0x3cf72157	0.030167265
86	0xbd98965b	-0.07450553
87	0xbb2b731e	-0.0026161144
88	0xbb9ed175	-0.0048467466
89	0xbd94627b	-0.07245346
90	0x3d3deb63	0.04636706
91	0x3d0cbb88	0.03435853
92	0xbb82b307	-0.003988627
93	0x3d04861f	0.03235447
94	0xbdae9c24	-0.08525875
95	0x3d075eb3	0.033049297
96	0x3d89ff47	0.067381434
97	0xbd84db4a	-0.064871386
98	0x3c66e83f	0.014093458
99	0xbdac1d36	-0.08404009
100	0x3c150f70	0.009097919
101	0x3dc73ae0	0.097280264
102	0x3baa56e6	0.0051983474
103	0xbcc5c1d5	-0.024140278
104	0xbdb4c324	-0.088262826
105	0xbd332739	-0.043738578
106	0xbd9231e8	-0.07138425
107	0x3dcccaaf	0.09999596
108	0xbd9a7b1e	-0.07543014
109	0x3e4afd64	0.19823223
110	0x3d6fef18	0.058577627
111	0xbd8a59d2	-0.06755413
112	0x3d596240	0.053072214
113	0x3e1ed0e0	0.15509367
114	0x3ddd1c8d	0.10796461
115	0xbc60a5bb	-0.013711388
116	0xbdc6c532	-0.09705581
117	0xbc00c0d7	-0.007858477
118	0x3cf453bc	0.029825084
119	0xbcbe5996	-0.023236077
120	0xbdad9284	-0.08475211
121	0x3d944b75	0.07240955
122	0x3d76266b	0.060095232
123	0x3cd36aa0	0.025807679
124	0x3d3925d4	0.04520209
125	0xbd9f4f5e	-0.0777881
126	0x3d375e8f	0.044767912
127	0x3d4c8636	0.04993268
128	0x3cb58fc3	0.022163277
129	0x3da4fa72	0.08055581
130	0x3d1f3698	0.038870424
131	0x3d85666b	0.06513675
132	0x3d428f7c	0.04750012
133	0x3cab3c2f	0.020902721
134	0x3e00066f	0.12502454
135	0xbd15d911	-0.036583964
136	0x3d8ebaee	0.06969248
137	0x3d120cb9	0.035656665
138	0x3e815553	0.2526041
139	0x3d6c3a15	0.05767258
140	0x3caf918d	0.021431709
141	0x3d95b772	0.0731038
142	0xbda4b69e	-0.08042644
143	0xbd473b8d	-0.048640776
144	0x3d282c55	0.041057903
145	0xbcd1b186	-0.025597345
146	0x3d957ef2	0.072996035
147	0x3d6b39c7	0.057428148
148	0x3d807d4c	0.062738985
149	0x3cc0a303	0.02351523
150	0x3d6c5cba	0.05770562
151	0xbd81cd4c	-0.063379854
152	0xbbac9f81	-0.005268038
153	0xbdbed92e	-0.093187675
154	0xbc704319	-0.014664435
155	0x3c9f2bb5	0.01943002
156	0xbc7b5680	-0.015340447
157	0xbd464e8d	-0.048414756
158	0xbb85239b	-0.0040630824
159	0xbd8d2f77	-0.06893819
160	0xbdee2486	-0.1162806
161	0xbd6c3851	-0.057670895
162	0xbdfaeebb	-0.122525655
163	0xbd44213d	-0.04788326
164	0x3da18603	0.07886889
165	0x3dd33ecd	0.10314713
166	0xbc48af83	-0.0122488765
167	0xbb8fdfa6	-0.0043906746
168	0x3ce0f70f	0.027461557
169	0x3b6a3301	0.0035735967
170	0x3c202865	0.009775256
171	0x3def77bb	0.11692759
172	0x3dccd123	0.10000827
173	0xb99be325	-0.0002973314
174	0xbd8105bc	-0.06299922
175	0xbb1a8d6c	-0.002358283
176	0xbd04c62c	-0.032415554
177	0x3daad3ed	0.08341203
178	0x3e7d849e	0.2475762
179	0xbbabb49a	-0.0052400352
180	0xbc2f91dc	-0.010715928
181	0x3de46a10	0.11153042
182	0xbd97f91f	-0.07420563
183	0xbc2ea1e5	-0.010658716
184	0xbc85ed7a	-0.01634859
185	0x3c97df64	0.018539138
186	0x3d5a8e89	0.05335859
187	0xbd9a0376	-0.07520191
188	0x3d9e29d0	0.07722819
189	0xbcccebe7	-0.02501483
190	0xbd96306a	-0.07333453
191	0xbd87f81a	-0.066391185
192	0x3dccd5b0	0.10001695
193	0x3c426f47	0.011867351
194	0xbd309dc5	-0.04311921
195	0x3d9c2261	0.07623745
196	0x3908f1ba	0.00013060021
197	0x3d9099e5	0.07060603
198	0x3dfaf944	0.12254575
199	0xbd52835e	-0.051394813
200	0xbd043115	-0.03227337
201	0x3dca523c	0.09878966
202	0xbd214ab6	-0.03937789
203	0x3dcb7338	0.099340856
204	0x3d881563	0.06644704
205	0x3e0934ac	0.13398999
206	0xbd0b3bd9	-0.033992622
207	0x3ca294af	0.019846288
208	0x3d40e22e	0.0470907
209	0x3cb23563	0.021753972
210	0x3d31a9dc	0.04337488
211	0xbcebd570	-0.028788298
212	0x3d51466d	0.051092554
213	0x3d45f7d5	0.048332054
214	0x3c928486	0.017885458
215	0x3cd235fd	0.02566051
216	0xbd045f07	-0.032317188
217	0x3e0c3e24	0.1369558
218	0x3d18f43d	0.0373423
219	0xbb028ff6	-0.0019922233
220	0xbdbbe75a	-0.09174986
221	0x3d465120	0.04841721
222	0xbb183348	-0.0023223925
223	0xbdbfcd5d	-0.09365342
224	0x3e0bd686	0.13656053
225	0x3dcce094	0.100037724
226	0xbd107fad	-0.03527801
227	0x3d8cc1ef	0.068729274
228	0x3d15cf72	0.03657479
229	0xbd1de6be	-0.03855013
230	0x3d84d20d	0.064853765
231	0x3d3e1c29	0.046413574
232	0x3d883e4c	0.06652507
233	0x3d1960d8	0.037445873
234	0x3dc6ce54	0.09707323
235	0x3cbc0aaf	0.022954313
236	0x3d3f8a80	0.046762943
237	0x3d7b854f	0.06140643
238	0x3e03b61f	0.12862442
239	0x3d86a3ed	0.06574235
240	0x3d55d0a3	0.052200925
241	0xbd318047	-0.043335225
242	0xbdbf4427	-0.09339171
243	0xbcbb662a	-0.022875864
244	0xbdedcab1	-0.11610926
245	0xbd82e18e	-0.063906774
246	0xbc549726	-0.01297549
247	0xbe24f848	-0.16110337
248	0xbe41245c	-0.18861526
249	0xbdba3600	-0.09092331
250	0xbe34dff8	-0.17663562
251	0xbcc830b1	-0.02443728
252	0x3d1703f5	0.036869008
253	0x3d2bf9b7	0.041986194
254	0x3df2acbc	0.11849353
255	0xbd3c5f14	-0.04598911

seq_midi.3.s5.seq.C_bias f4 [40, 2]
0	0x3d7c8484	0.061649814
1	0x00000000	0.0
2	0x3e46f5f8	0.19429767
3	0x00000000	0.0
4	0x3debec09	0.115196295
5	0x00000000	0.0
6	0x3df18357	0.11792629
7	0x00000000	0.0
8	0x3d036f45	0.032088537
9	0x00000000	0.0
10	0xbd91be21	-0.07116342
11	0x00000000	0.0
12	0xbed1c1d7	-0.409682
13	0x00000000	0.0
14	0xbcee8fd6	-0.02912132
15	0x00000000	0.0
16	0xbd8621a3	-0.065493844
17	0x00000000	0.0
18	0x3d86bffd	0.065795876
19	0x00000000	0.0
20	0x3df7f8d4	0.12108007
21	0x00000000	0.0
22	0xbc5a7155	-0.0133326845
23	0x00000000	0.0
24	0x3cb1a415	0.021684686
25	0x00000000	0.0
26	0x3cae280c	0.02125933
27	0x00000000	0.0
28	0x3d461f05	0.048369426
29	0x00000000	0.0
30	0xbdcbb1da	-0.09946032
31	0x00000000	0.0
32	0x3dd1aa0f	0.10237514
33	0x00000000	0.0
34	0x3d98bc54	0.07457796
35	0x00000000	0.0
36	0xbd117a65	-0.035517115
37	0x00000000	0.0
38	0x3d22fdab	0.039792698
39	0x00000000	0.0
40	0x3e37289d	0.17886586
41	0x00000000	0.0
42	0x3d332086	0.04373219
43	0x00000000	0.0
44	0xbde22c5e	-0.110436186
45	0x00000000	0.0
46	0xbc06e334	-0.00823288
47	0x00000000	0.0
48	0x3e18e7b0	0.14932132
49	0x00000000	0.0
50	0xbeec352a	-0.4613431
51	0x00000000	0.0
52	0x3da38d54	0.079859406
53	0x00000000	0.0
54	0xbe216dfa	-0.15764609
55	0x00000000	0.0
56	0x3c810f2b	0.015754303
57	0x00000000	0.0
58	0x3d72361f	0.059133645
59	0x00000000	0.0
60	0x3e9e8a4c	0.30964887
61	0x00000000	0.0
62	0xba16820a	-0.0005741423
63	0x00000000	0.0
64	0x3e5d7d0d	0.21629734
65	0x00000000	0.0
66	0xbd005538	-0.03133127
67	0x00000000	0.0
68	0xbc3e094a	-0.011598894
69	0x00000000	0.0
70	0x3d85f337	0.0654053
71	0x00000000	0.0
72	0x3d5cedc7	0.0539377
73	0x00000000	0.0
74	0xbd3717a4	-0.04470028
75	0x00000000	0.0
76	0xbc91ea13	-0.01781181
77	0x00000000	0.0
78	0x3db593cf	0.08866083
79	0x00000000	0.0

seq_midi.3.s5.seq.C f4 [40, 64, 2]
0	0xbd28b534	-0.041188434
1	0x3a7ff8f0	0.00097645726
2	0x3af4af9c	0.0018668058
3	0xb856cd6c	-5.121289e-05
4	0xbbb24ed4	-0.005441526
5	0x3c95bd45	0.018278727
6	0xbd1120ce	-0.035431676
7	0x3d6f0997	0.058358755
8	0x3b3e7513	0.002906148
9	0xbbe10c0f	-0.0068678926
10	0x3e24ee81	0.16106607
11	0x3d02207c	0.03176926
12	0x3ce6ed08	0.028189197
13	0x3cd51776	0.026012164
14	0xbae7e4df	-0.001769211
15	0x3a488686	0.000764944
16	0xbe898b89	-0.2686427
17	0xbcc65c0e	-0.024213817
18	0x3a8a0de5	0.0010532705
19	0xba115901	-0.00055445737
20	0x3bceeb9d	0.0063147084
21	0x3c840f10	0.016120464
22	0xbddc6c7b	-0.107628785
23	0xbe9289e5	-0.2862083
24	0xbc10abd5	-0.00883003
25	0xbc925777	-0.017863972
26	0x3ae39f1f	0.0017366147
27	0xbbbfcea1	-0.0058534895
28	0x3a743196	0.000931525
29	0xbb5f7d9a	-0.0034101964
30	0xbb0b28f9	-0.0021234138
31	0xbbbc6100	-0.005748868
32	0xba97c945	-0.0011580369
33	0xbadb67f6	-0.0016739357
34	0xbd813ad7	-0.06310051
35	0x3cd30809	0.025760667
36	0xbca7f139	-0.020500766
37	0xbc3e2aab	-0.0116068525
38	0xbd15c6fa	-0.036566712
39	0x3dd3254c	0.10309848
40	0xb9fa85d0	-0.00047783414
41	0x3b2d4258	0.002643725
42	0xbb14d53d	-0.0022710108
43	0x3ba43190	0.005010791
44	0xbb700f90	-0.003663037
45	0xbd127f10	-0.035765707
46	0xbccd7528	-0.025080279
47	0x3d266282	0.040621288
48	0x3c05dd97	0.008170507
49	0x3c38f4d7	0.011288843
50	0x3b6fd455	0.0036595066
51	0xbce658bc	-0.028118484
52	0xbca28cde	-0.019842561
53	0xbc94037b	-0.018068066
54	0x3d65b732	0.05608291
55	0xbd0f900e	-0.03504949
56	0xbb01da88	-0.0019814093
57	0xbaca05ee	-0.0015413144
58	0x3c17c26a	0.0092626605
59	0xbac1a38c	-0.0014773472
60	0x3c04566d	0.008077246
61	0x3c224141	0.009903253
62	0xbd568062	-0.05236853
63	0xbb7b41af	-0.003833871
64	0xbc21ddc9	-0.009879538
65	0xbc2b0fc9	-0.010440775
66	0xbd493c46	-0.049129747
67	0xbdc98286	-0.098393485
68	0xbc2a5da0	-0.0103982985
69	0x3d80bfef	0.062866084
70	0xbb64e8c5	-0.003492878
71	0xba72a9d6	-0.0009256875
72	0xbcf4cd4d	-0.029883051
73	0x3bc69fd5	0.006061534
74	0x3d889ce2	0.06670548
75	0xbd39a2ee	-0.045321397
76	0xbbfd0ee8	-0.007722724
77	0xbb64eba4	-0.0034930492
78	0xbb9b6560	-0.0047423095
79	0x3ae2fb1d	0.0017317269
80	0xbd66cb56	-0.05634626
81	0x3becc6b5	0.007225836
82	0xbbae91e2	-0.005327449
83	0x3b6ae655	0.0035842855
84	0xbc8ad84c	-0.016948842
85	0x3b2a7fa9	0.0026016033
86	0xbd3447ca	-0.044013776
87	0xbd48fc63	-0.04906882
88	0xbc4d8d0d	-0.012545836
89	0xbbc64d8e	-0.0060517257
90	0xbc1671b1	-0.00918238
91	0x3c9363f1	0.017991992
92	0x3b9ea1c3	0.004841061
93	0xbb323527	-0.0027192326
94	0xbb46fc6e	-0.0030362862
95	0x3b9d3889	0.0047979993
96	0x3ade0b25	0.0016940577
97	0xbb0b0518	-0.0021212753
98	0x3db758b1	0.089524634
99	0x3cf8bac3	0.030362492
100	0xba98a74b	-0.0011646537
101	0x3d223d6f	0.03960937
102	0x3a56b51a	0.00081904384
103	0xbc467ac7	-0.012114233
104	0xbb77159f	-0.0037702096
105	0x3be18e46	0.0068834154
106	0xbc3966ec	-0.011316042
107	0xbe3118c0	-0.17294598
108	0xbac4ce36	-0.0015015069
109	0x3aeccffc	0.0018067355
110	0xbcd5fd34	-0.026121713
111	0x3bbe5aba	0.0058091553
112	0x3b349318	0.0027553495
113	0xbaa31863	-0.0012443181
114	0x3dc251e3	0.09488275
115	0xbdd6db08	-0.10490996
116	0xbc81eaf7	-0.01585911
117	0xbd4293f7	-0.04750439
118	0x3abefd7d	0.0014571395
119	0xbbcb0efb	-0.006196854
120	0x3c907706	0.01763488
121	0xba02eb22	-0.0004994144
122	0x3b03e711	0.002012674
123	0xbb87363e	-0.004126339
124	0x3d05f466	0.03270378
125	0xbc94dbbb	-0.018171182
126	0x3c9697ea	0.018382985
127	0x3dbb11ca	0.09134252
128	0xbd38f128	-0.04515186
129	0x3d486f78	0.04893443
130	0xba8cbe9c	-0.0010737958
131	0x3908fd42	0.00013064317
132	0x3b5bbc4d	0.0033528984
133	0x3d810364	0.06299475
134	0xba293993	-0.00064554176
135	0x399662b0	0.00028683757
136	0x3d95086b	0.07276996
137	0x3d1f3985	0.038873214
138	0xbd9a1307	-0.075231604
139	0xbee054f8	-0.43814826
140	0x3c8472d7	0.016168041
141	0x3d7f1b3d	0.062281836
142	0xbb997b17	-0.004683863
143	0xbbc84223	-0.0061113997
144	0x3da1e317	0.07904642
145	0x3e0270f5	0.12738402
146	0x3b309bfc	0.0026948443
147	0x3b0cf6f3	0.0021509498
148	0x3b82b8c1	0.0039893095
149	0x3cddd534	0.027079202
150	0xbe32332b	-0.17402332
151	0x3f48085a	0.78137743
152	0xbbf8149c	-0.007570816
153	0x3c8ff439	0.01757251
154	0x3b795d81	0.0038050117
155	0xbd401cd4	-0.046902493
156	0xb9f06e03	-0.00045858332
157	0xb8ce1d49	-9.8283e-05
158	0xba912b96	-0.0011075612
159	0x3bcf33d7	0.0063233185
160	0x3b020e4e	0.0019844952
161	0xbad201e6	-0.0016022294
162	0xbcd032f1	-0.025414916
163	0x3e5399b5	0.20664103
164	0x3aa16c86	0.0012315668
165	0xbaf905a5	-0.0018998875
166	0x3cc44853	0.023960268
167	0xbc1acf2b	-0.009448807
168	0x3b9d6040	0.0048027337
169	0xbb17ab9c	-0.0023143059
170	0xbcfe8de6	-0.031073522
171	0xbc19ce5a	-0.009387577
172	0x3c1f41cd	0.009720278
173	0x3d851402	0.06497957
174	0xbcce255e	-0.025164302
175	0xbcb56ce9	-0.022146659
176	0xbd35b370	-0.044360578
177	0x3d25f54f	0.040517148
178	0x3d670f02	0.056410797
179	0x3cd1ba0c	0.02560141
180	0xbd825fa0	-0.06365895
181	0x3d2e4634	0.04254742
182	0x3de995a3	0.11405494
183	0xbe111d86	-0.14171419
184	0xbb3a41e1	-0.0028420615
185	0xba30f1d5	-0.0006749903
186	0xba05a089	-0.0005097469
187	0xbc87763c	-0.01653587
188	0xbc3d14d8	-0.011540614
189	0xbc632078	-0.013862722
190	0xbdf9ee96	-0.1220371
191	0xbc0a57ab	-0.008443753
192	0xbd60ed1e	-0.054913633
193	0x3dc8c590	0.09803307
194	0xbd7378a8	-0.05944124
195	0xbc97cad2	-0.01852933
196	0xbc8a416b	-0.016876897
197	0x3c95eb9d	0.018300826
198	0x3a8038d1	0.0009782558
199	0xba1582ae	-0.0005703372
200	0x3ceceaef	0.028920619
201	0xbb9dc4b5	-0.004814709
202	0x3d84f404	0.06491855
203	0x3d1abbcd	0.037776757
204	0xbb9c61ec	-0.0047724154
205	0xbb5fa000	-0.0034122467
206	0xbbebeb9c	-0.0071997177
207	0xbbaaa2c3	-0.005207391
208	0x3d156383	0.036471855
209	0xbc8433ca	-0.016137976
210	0xbbc20821	-0.005921379
211	0xbc77b22c	-0.015118163
212	0xbc0ee345	-0.0087211775
213	0xbcdf49cd	-0.02725687
214	0x3db1993d	0.08671806
215	0xbe7702ee	-0.24122211
216	0x3bc7f9de	0.0061027845
217	0x3b654d56	0.0034988723
218	0x3d02ba27	0.03191581
219	0x3af39ad2	0.0018585569
220	0xbcb2198c	-0.021740697
221	0x3bff2d58	0.007787388
222	0xbc4ded61	-0.012568803
223	0x3a75a480	0.0009370521
224	0xbbc0b5c7	-0.0058810445
225	0xbc06359a	-0.008191491
226	0x3e9cc7fb	0.30621323
227	0x3e915ef2	0.2839275
228	0xbda1540b	-0.07877358
229	0x3ca7c2e1	0.020478668
230	0xbc2ac9c0	-0.0104240775
231	0xbd8a02d7	-0.06738823
232	0xbb0b464e	-0.0021251622
233	0x3d186bcb	0.037212174
234	0xbb599966	-0.0033203005
235	0x3dbd3159	0.09237928
236	0x3bf19ff1	0.007373803
237	0x3a6304fe	0.00086601067
238	0xbd6a11d2	-0.0571459
239	0xbc7a833a	-0.015290076
240	0xbcd0c0a2	-0.02548248
241	0xbba585e1	-0.00505136
242	0xbddaa35e	-0.10675691
243	0x3ef4232e	0.4768309
244	0xbd5aba30	-0.05340022
245	0xbd73a481	-0.059483055
246	0x3c0943b6	0.00837796
247	0x3c713de0	0.014724225
248	0xbb19279a	-0.0023369552
249	0x39ba7a64	0.00035567873
250	0x3d480686	0.048834346
251	0x3c6a4a5d	0.014299956
252	0x3c8b64a0	0.017015755
253	0xbd97d51a	-0.07413693
254	0x3e932761	0.2874098
255	0x3c33052a	0.010926524

seq_midi.3.s5.seq.norm f4 [64]
0	0xbf71913e	-0.94362247
1	0xc054431a	-3.3165956
2	0xbe383b51	-0.17991377
3	0xc0455680	-3.0834045
4	0xbf9de76f	-1.2336253
5	0x3dc217e0	0.0947721
6	0xbfbbf70c	-1.4684768
7	0xc011b31a	-2.2765565
8	0x3e5eebbb	0.21769612
9	0xc00de5fc	-2.2171621
10	0xbe98a7c7	-0.29815504
11	0x3ea12d32	0.31479794
12	0xbf5354e1	-0.8255139
13	0xbed50b85	-0.4161035
14	0xc07e5960	-3.974205
15	0xc0208a76	-2.508451
16	0xc00a435c	-2.1603613
17	0x3e78ad56	0.24284872
18	0xbfbb1cb2	-1.4618132
19	0xc046eb2e	-3.1081042
20	0xc0279fb2	-2.619122
21	0xc014b213	-2.3233688
22	0xbfc39d10	-1.5282307
23	0xc082feaa	-4.093587
24	0xbeb69481	-0.35660174
25	0xc04c4479	-3.1916792
26	0xc0589873	-3.3843048
27	0xbfab967e	-1.3405302
28	0xc0377c31	-2.866955
29	0xc050508c	-3.2549162
30	0xc0971762	-4.7216043
31	0xc006ef05	-2.1083386
32	0xc0883261	-4.25615
33	0xc055aeea	-3.338801
34	0xc05a31ed	-3.4092972
35	0xc0403cc8	-3.0037098
36	0xbfe32742	-1.7746356
37	0xc04a3133	-3.159253
38	0xc05be548	-3.4358692
39	0xc02ba99a	-2.6822267
40	0xbf1761b2	-0.59133446
41	0xc02f2303	-2.736512
42	0xbf447c11	-0.7675181
43	0xbd8dd980	-0.069262505
44	0xbf878af1	-1.0589277
45	0xc06b0f05	-3.6727917
46	0xc03ae332	-2.920117
47	0xbff6e313	-1.9288048
48	0xc01d02e1	-2.4533007
49	0x3da272aa	0.07932027
50	0xbf499fe0	-0.78759575
51	0xbfe0ca24	-1.7561688
52	0x3d7cf9e2	0.061761744
53	0xbe9d5902	-0.3073197
54	0xc023df7c	-2.5605154
55	0xbdf3d0e9	-0.11905081
56	0xbfef7023	-1.8706096
57	0x3f61a551	0.8814288
58	0xbf8820c2	-1.0634997
59	0xbf35a9ea	-0.70962393
60	0xc0542d1b	-3.315253
61	0x3df747ac	0.12074217
62	0xbf51f0c1	-0.82007986
63	0xbf94fad2	-1.1639044

seq_midi.3.s5.seq.angle f4 [64]
0	0xbfc91ea8	-1.571248
1	0xbfc9111d	-1.5708348
2	0xbfc9154c	-1.5709624
3	0xbfc9569b	-1.5729555
4	0xbfc927aa	-1.571523
5	0xbfe41c29	-1.7821094
6	0xbfcb44a0	-1.5880318
7	0xbfc9926b	-1.5747808
8	0xbfdd6cbe	-1.729881
9	0xbfca3591	-1.5797597
10	0xbfc9198c	-1.5710921
11	0xbfcd750d	-1.6051346
12	0xbfc91a92	-1.5711234
13	0xbfc9173f	-1.5710219
14	0xbfc91351	-1.570902
15	0xbfcbcf66	-1.5922668
16	0xbfca268f	-1.5793017
17	0xbfc937dd	-1.5720173
18	0xbfca567a	-1.580764
19	0xbfd6ebab	-1.679067
20	0xbfcbb923	-1.5915874
21	0xbfcc70f6	-1.5971973
22	0xbfcae930	-1.5852413
23	0xbfd00ea2	-1.6254466
24	0xbfc9153a	-1.5709603
25	0xc003588e	-2.05228
26	0xc008ec9d	-2.1394417
27	0xbfcf805d	-1.6211048
28	0xbfcb1cf6	-1.5868213
29	0xbfcd84a3	-1.6056103
30	0xbfebc058	-1.8418074
31	0xbfe07713	-1.7536339
32	0xc03f0b62	-2.9850698
33	0x400511f9	2.079222
34	0x3fd39564	1.6529965
35	0x3fccb979	1.5994102
36	0x3fc98072	1.5742323
37	0x4004241f	2.0647047
38	0x3fc96359	1.5733443
39	0x3fcb0717	1.5861539
40	0x3fc91e6c	1.5712409
41	0x3fc92a29	1.5715991
42	0x3fc91ae2	1.5711329
43	0x3fceb1ab	1.614797
44	0x3fc91e2c	1.5712333
45	0x3fcf586c	1.6198859
46	0x3fd0212c	1.6260123
47	0x3fc94a33	1.5725769
48	0x3fcdae97	1.6068906
49	0x3fd51bb6	1.6649082
50	0x3fcdc036	1.6074283
51	0x3fcc2fb6	1.595206
52	0x3fc91386	1.5709083
53	0x3fe237eb	1.7673315
54	0x3fcad47f	1.5846099
55	0x3fc914a3	1.5709423
56	0x3fc93e8c	1.5722213
57	0x3fcc4d54	1.5961099
58	0x3fcbb151	1.5913488
59	0x3fc91a4d	1.5711151
60	0x3fc9ab7f	1.5755461
61	0x3fc915ab	1.5709738
62	0x3fcca9b8	1.5989294
63	0x3fd0413c	1.6269908
