pretrained_models/PianoSSM_L_MH_maestro_all_16000_model.pth (torch, 557151 bytes, 29 tensors)

seq_midi.1.seq.0.seq.C_bias f4 [88, 2]
000000 55 4f 9c be 00 00 00 00 8d 5d 3b 3d 00 00 00 00
       -0.30529276 0.0 0.045743514 0.0
000010 27 8a 1f be 00 00 00 00 58 67 16 bd 00 00 00 00
       -0.15580045 0.0 -0.03671965 0.0
000020 f7 35 b1 3d 00 00 00 00 54 18 2f bd 00 00 00 00
       0.08652871 0.0 -0.04274781 0.0
000030 10 08 5b bd 00 00 00 00 87 fb 67 3a 00 00 00 00
       -0.053474486 0.0 0.0008849431 0.0
000040 5a 59 4d 3e 00 00 00 00 78 a0 0b 3e 00 00 00 00
       0.20053616 0.0 0.13635433 0.0
000050 9b 03 82 3e 00 00 00 00 8d 7d 5a 3e 00 00 00 00
       0.25393376 0.0 0.21336956 0.0
000060 f9 58 be 3e 00 00 00 00 0d e3 82 3d 00 00 00 00
       0.37177256 0.0 0.06390963 0.0
000070 55 15 db bc 00 00 00 00 ed 30 49 3e 00 00 00 00
       -0.02674357 0.0 0.1964757 0.0
000080 02 60 19 3e 00 00 00 00 8e 48 34 bb 00 00 00 00
       0.1497803 0.0 -0.0027509066 0.0
000090 66 f1 a9 be 00 00 00 00 8d 6f b5 3d 00 00 00 00
       -0.33191985 0.0 0.08859167 0.0
0000a0 65 e9 9e be 00 00 00 00 cb 9c e1 3c 00 00 00 00
       -0.3103744 0.0 0.027540585 0.0
0000b0 7e b8 fa bd 00 00 00 00 4c f8 56 3d 00 00 00 00
       -0.1224222 0.0 0.052482888 0.0
0000c0 f9 ef 66 3e 00 00 00 00 1e 42 5b 3e 00 00 00 00
       0.2255248 0.0 0.2141194 0.0
0000d0 e3 2e 2a 3d 00 00 00 00 61 dd 86 3e 00 00 00 00
       0.04154862 0.0 0.26340774 0.0
0000e0 8d a3 f0 bd 00 00 00 00 5d fc 0e 3e 00 00 00 00
       -0.11749945 0.0 0.13963456 0.0
0000f0 ff 39 14 be 00 00 00 00 cb d0 02 be 00 00 00 00
       -0.14475249 0.0 -0.1277496 0.0
000100 5a 65 9e 3d 00 00 00 00 df 2e 07 bc 00 00 00 00
       0.07734175 0.0 -0.008250921 0.0
000110 4e cb 43 be 00 00 00 00 fa 9b ca bd 00 00 00 00
       -0.19120523 0.0 -0.098930314 0.0
000120 bb 9b a3 be 00 00 00 00 f3 ae 72 bc 00 00 00 00
       -0.3195475 0.0 -0.014812219 0.0
000130 9a e1 fd 3d 00 00 00 00 74 78 d0 3d 00 00 00 00
       0.12396546 0.0 0.101792246 0.0
000140 f6 22 73 3e 00 00 00 00 78 a1 fb 3d 00 00 00 00
       0.23743805 0.0 0.12286657 0.0
000150 23 0a f4 3d 00 00 00 00 f8 8f 34 3e 00 00 00 00
       0.11915996 0.0 0.17633045 0.0
000160 ab aa d3 bd 00 00 00 00 81 fb 43 3e 00 00 00 00
       -0.10335287 0.0 0.1913891 0.0
000170 c3 ae 5e 3e 00 00 00 00 b4 ad 2c be 00 00 00 00
       0.21746354 0.0 -0.16863137 0.0
000180 34 15 49 3e 00 00 00 00 dd 9d 9c bd 00 00 00 00
       0.19636995 0.0 -0.076472975 0.0
000190 3e e8 ea 3d 00 00 00 00 a3 02 87 3d 00 00 00 00
       0.11470078 0.0 0.065923 0.0
0001a0 18 03 84 3b 00 00 00 00 76 c4 3c bd 00 00 00 00
       0.004028689 0.0 -0.046085797 0.0
0001b0 55 46 82 bd 00 00 00 00 0e dc 33 be 00 00 00 00
       -0.06361071 0.0 -0.17564413 0.0
0001c0 2e 6f 10 be 00 00 00 00 2f 7e a8 be 00 00 00 00
       -0.14104912 0.0 -0.3290877 0.0
0001d0 11 f0 0a be 00 00 00 00 46 49 c1 3d 00 00 00 00
       -0.1356814 0.0 0.09437804 0.0
0001e0 ac 88 53 bd 00 00 00 00 e8 98 85 3b 00 00 00 00
       -0.051644012 0.0 0.0040770657 0.0
0001f0 02 aa 08 3e 00 00 00 00 fe 97 38 be 00 00 00 00
       0.13346103 0.0 -0.1802673 0.0
000200 42 5d fe bd 00 00 00 00 da 86 10 3e 00 00 00 00
       -0.12420131 0.0 0.14113942 0.0
000210 04 b3 44 3e 00 00 00 00 31 0a 8e be 00 00 00 00
       0.19208914 0.0 -0.2774215 0.0
000220 a2 48 ad bd 00 00 00 00 2c b3 ce 3c 00 00 00 00
       -0.08461119 0.0 0.02523192 0.0
000230 da 29 5f 3e 00 00 00 00 06 1c 87 be 00 00 00 00
       0.21793309 0.0 -0.26388568 0.0
000240 a3 c9 d0 bd 00 00 00 00 5a 3f c3 3e 00 00 00 00
       -0.10194709 0.0 0.3813427 0.0
000250 74 71 19 be 00 00 00 00 09 4a 09 bd 00 00 00 00
       -0.14984685 0.0 -0.03351787 0.0
000260 38 c4 09 be 00 00 00 00 5c 98 a0 3d 00 00 00 00
       -0.13453758 0.0 0.0784156 0.0
000270 1f fe eb 3c 00 00 00 00 47 12 13 3e 00 00 00 00
       0.028807698 0.0 0.14362441 0.0
000280 05 c5 99 be 00 00 00 00 7f ee 9c 3e 00 00 00 00
       -0.30033126 0.0 0.30650708 0.0
000290 50 a6 5b be 00 00 00 00 29 4c 9b be 00 00 00 00
       -0.21450162 0.0 -0.30331543 0.0
0002a0 9b d7 57 3e 00 00 00 00 39 e3 79 be 00 00 00 00
       0.2107834 0.0 -0.24403085 0.0
0002b0 74 c0 02 be 00 00 00 00 74 62 4a 3d 00 00 00 00
       -0.12768728 0.0 0.0494103 0.0

seq_midi.1.seq.0.seq.C f4 [88, 128, 2]
000000 02 33 48 ba cb a8 a4 3c d0 e6 15 bd 61 0c 03 3e
       -0.0007636995 0.020100018 -0.036597073 0.12797691
000010 aa f5 b2 3d 92 7a 8c 3d 5b f9 77 3d 00 52 3a bd
       0.08738263 0.06859316 0.06054054 -0.045488358
000020 ef 79 8f 3c e6 e1 fc bc 6d 3a 64 bd e0 2e ea 3c
       0.017514197 -0.030869436 -0.05571978 0.028586805
000030 33 69 e2 3b 06 b9 ca bc 9b 23 a7 3d cc 28 2d 3d
       0.0069095134 -0.02474643 0.08161088 0.042275235
000040 d7 2d 5d be e6 65 10 bd 41 25 46 3d 9e 96 07 3e
       -0.21599518 -0.035253428 0.04837537 0.1324105
000050 b1 bc a1 bc 7e 7d 89 3b 90 98 1f 3e 5d 01 56 bd
       -0.019743295 0.004195868 0.15585542 -0.052247394
000060 09 9f b1 bb 34 22 bd 3d 2b 1d cb 3d 69 f3 98 bd
       -0.00542057 0.09235039 0.09917673 -0.07468302
000070 fe 10 58 bd ed a2 84 bc 86 3d 0a bd 81 84 d4 ba
       -0.05275058 -0.01619097 -0.03375008 -0.0016213806
000080 da ce be bc 75 be ef 3c 1d 9f 21 3d 7d 15 92 bc
       -0.023291994 0.029265622 0.039458383 -0.017832512
000090 71 e6 46 3d 2c 41 b6 bc 77 ab a3 bd f3 43 18 3d
       0.04855961 -0.022247873 -0.07991689 0.037174176
0000a0 2a 07 3c bd ce 8e d4 3d 8b 73 17 3b 2c c1 57 bc
       -0.04590527 0.103788 0.002310964 -0.013168614
0000b0 06 aa 69 3d bd 6b ac bd 35 0e 94 3b 7a ef 32 bd
       0.057046913 -0.08418987 0.004518295 -0.043685414
0000c0 3f e5 e9 3a 4b 70 ce bb 55 c5 78 bd 56 28 71 bd
       0.001784481 -0.0063000075 -0.060735065 -0.058876358
0000d0 f6 48 05 bd 2d b7 2d 3d 4c 4b 28 bc d6 22 52 3e
       -0.032540284 0.04241102 -0.010271858 0.20521101
0000e0 40 cb 73 bd 0d da cb bc 42 ec f7 bc 01 79 28 3d
       -0.059520006 -0.024884248 -0.030264024 0.041131023
0000f0 59 93 45 bd 8b 6f b7 3d 6f 8e 9c 3d 7a 70 a5 bd
       -0.048236225 0.08956822 0.076443546 -0.08078094
000100 41 0a 4a bd f0 56 bf 3d c1 3d e7 bd 19 1a 79 3d
       -0.049326185 0.09342754 -0.112910755 0.060815904
000110 72 3b f7 bc 85 09 89 3c 28 db 2d bc 31 6d 1c 3d
       -0.030179713 0.016728172 -0.010611333 0.03819007
000120 33 6b 84 3b 48 e3 12 3d ea 68 27 3d 42 ad 83 bd
       0.0040410995 0.035861284 0.04087154 -0.06429531
000130 3e ed 5f bd 9b 7a 72 3d ea cf ea bb 7f 79 ac bd
       -0.05466961 0.059198957 -0.0071658986 -0.08421611
000140 c4 21 81 3d d9 03 e2 3c ed 3e 1a bd 04 b7 1d bd
       0.063052684 0.027589725 -0.037657667 -0.038504615
000150 0d 64 80 3d b2 bf 9a 3d 0a b5 a3 bd 78 17 92 bc
       0.06269083 0.07556094 -0.07993515 -0.017833456
000160 5e bd df 3d d0 4a 95 bd 3e af 1f 3d 35 8f 58 bc
       0.10924791 -0.0728966 0.038985483 -0.013217737
000170 42 b0 b6 3c 72 fa bc bc 83 fa 8a 3c 9e 15 e3 bc
       0.022300843 -0.02306864 0.016965156 -0.027720269
000180 06 2d 8e 3d 0e 0a bb 3d 48 7d b0 3d 86 23 fe 3c
       0.06942181 0.09132777 0.086176455 0.031022798
000190 13 0a 58 3c 36 40 0e be 04 8c aa 3d 11 95 9b bd
       0.013185996 -0.13891682 0.08327487 -0.075967915
0001a0 9a c9 44 3d 22 ed 92 bd 0a df 42 bd f3 db 37 bd
       0.048043825 -0.07174136 -0.047575988 -0.044887494
0001b0 11 01 08 3d 3c 04 97 3d 2a 96 7a 3c 6a ba cd 3c
       0.033204142 0.073738545 0.015294591 0.025113303
0001c0 c0 a0 67 3d 6d 97 b9 bc 54 d5 ce 3c 03 99 d7 ba
       0.056549788 -0.022655213 0.025248207 -0.0016448799
0001d0 c8 79 a0 bd 2f c3 df bb f5 f9 b5 3d 50 9f 5d bd
       -0.07835728 -0.0068286876 0.08885566 -0.05410701
0001e0 52 69 24 3d 65 b8 78 bd 0e 07 58 bd 28 e6 c0 3c
       0.040139504 -0.060722727 -0.052741103 0.023547247
0001f0 66 10 0f 3d d7 dd 81 bd e7 ef 62 3b ed 68 44 bd
       0.03492775 -0.06341141 0.0034627856 -0.047951628
000200 0b 23 12 3d cb 9f 16 3c c0 bd 62 3c b2 6e a8 3d
       0.03567795 0.009193371 0.013839185 0.082242385
000210 38 6c bc bd 4f 57 1e 3d 59 59 05 be aa 48 2e 3d
       -0.092003286 0.038657483 -0.13022365 0.042549767
000220 90 de fb bd ea 7a 73 be 63 73 54 bd c3 55 7a 3d
       -0.1229831 -0.23777357 -0.051867854 0.061116945
000230 b7 e8 9f 3d 56 2e 88 3d e8 11 a3 bc a5 e6 89 3d
       0.07808059 0.06649463 -0.019906 0.06733445
000240 b0 c4 e4 bc 94 67 45 3d 2c 45 2e bc 34 d4 e1 3d
       -0.02792582 0.048194483 -0.010636609 0.11026803
000250 66 1d 20 3d cd 81 76 3d 4b 4e 9a 3c 3d a7 02 bd
       0.039090537 0.06018238 0.018836161 -0.031897772
000260 92 0d 00 be eb ef ad bd ab fe b9 3d 2b 20 a5 bd
       -0.12505177 -0.08493026 0.09081777 -0.08062776
000270 e7 10 04 3c 42 ea 20 3b 0a 90 35 3e 1b b6 15 bd
       0.00806067 0.002455369 0.17730728 -0.036550622
000280 b7 34 97 bd 4c 16 ec bc db d1 9b bd 00 60 d3 3c
       -0.073831014 -0.028819226 -0.07608386 0.025802612
000290 c3 83 af bd a1 74 8a bd 5a df 06 3d 4b d4 e8 ba
       -0.085700534 -0.067605264 0.03292785 -0.0017763464
0002a0 c7 30 88 bc 97 34 7b 3c 7d f7 0a be 97 85 96 3c
       -0.016624821 0.015332363 -0.13570972 0.018374247
0002b0 c2 cd 15 3d 6a 7e c8 3d f0 8a 89 bd a6 ad 01 bb
       0.03657318 0.097897366 -0.06715953 -0.001978734
0002c0 b2 4e 1b 3a 85 f7 1d bc 17 96 80 bd cc f0 fd bd
       0.0005924507 -0.009641533 -0.06278627 -0.12399444
0002d0 12 2d 18 bd 26 b4 49 3b b8 56 b9 3b d2 74 33 3b
       -0.037152357 0.0030777543 0.0056560896 0.0027382863
0002e0 ab 90 6c 3b ac 77 68 3c ee 7f 7e bc 32 ff c8 3b
       0.003609697 0.014188688 -0.0155334305 0.0061339373
0002f0 4f 2c bc bd b1 82 87 3d 32 94 9e 3c d3 5f 93 3d
       -0.09188139 0.06616724 0.019357774 0.071960114
000300 32 c0 2e bd e0 95 88 bd 66 0e a0 3d a1 25 7c bd
       -0.04266376 -0.066692114 0.07815246 -0.061559323
000310 42 60 86 be fc a2 21 3e 1a a6 a6 bb 9d 0d a0 3d
       -0.26245314 0.1578483 -0.005085719 0.078150965
000320 05 91 01 be fb 98 b7 3c d4 bd 71 3c ce 3b 38 bc
       -0.12652977 0.022411814 0.014754731 -0.011244727
000330 1e 00 2b bd b1 28 c4 3c b1 a9 a8 3c cb af 07 bc
       -0.04174816 0.023945184 0.020588728 -0.008281658
000340 9d 70 10 bd c9 c0 4e 3d 44 43 07 bd cd c4 63 bc
       -0.035263646 0.050476823 -0.033023134 -0.013901901
000350 f8 1d dc 3c 75 50 1c 3c 30 09 cf 3c b7 d3 85 bc
       0.026869759 0.009540667 0.025272936 -0.016336305
000360 51 74 cf bc bc 84 23 3d 5d 5e 86 bb 2d c0 96 ba
       -0.025324019 0.039921507 -0.0041006044 -0.0011501365
000370 9b 72 8e 3c 60 b9 c5 3c 03 bd 99 bb b0 28 af bc
       0.017388633 0.024136245 -0.0046917214 -0.021381706
000380 53 21 49 b9 d8 0c 34 bc 9f f9 0d 3d 9e 5f 3f bc
       -0.00019181268 -0.01098939 0.034661885 -0.011680512
000390 47 17 01 3c e1 e8 5c bd cb 4d 4b 3d 4a 79 3c 3e
       0.007879085 -0.053933028 0.049634736 0.18405643
0003a0 d7 04 0b 3d 3c bd d2 3c 4a 9b 39 3d 83 bc 0e 3d
       0.033940163 0.025725 0.04531411 0.034847748
0003b0 d3 34 5d bd 26 8c a3 bb 18 d2 37 bc fd 49 cb 3c
       -0.054005455 -0.004991072 -0.011219524 0.024815554
0003c0 d0 64 f8 3c 57 84 34 bd 5f df 1a bd 6b ff cd 3d
       0.030321509 -0.04407152 -0.03781068 0.10058483
0003d0 0a 7b 98 bc 4b 65 6e bc 2c c8 0c 3d 8b ac 05 be
       -0.018613357 -0.014550517 0.034370586 -0.13054101
0003e0 82 f1 c5 3c 73 fe 26 3b 92 95 0a bb 49 44 10 bd
       0.024163011 0.0025481253 -0.002114628 -0.03522137
0003f0 f6 a1 8b 3c 0b d7 80 3c 77 d7 34 bd c5 10 91 bd
       0.017045002 0.01572754 -0.044150796 -0.07083277

seq_midi.1.seq.0.seq.norm f4 [128]
000000 03 14 c3 bf 12 3f c7 bf e0 28 aa 3c 8c 7a 96 bf
       -1.5240482 -1.5566123 0.020771444 -1.1756148
000010 fc b8 e1 bf 01 91 55 3f 9b 98 b1 3e 01 e6 27 c0
       -1.7634578 0.83424383 0.3468674 -2.6234133
000020 fe 65 19 c0 cc 85 18 bf 4f 1a 04 3f b0 fb 22 c0
       -2.39685 -0.5957916 0.51602644 -2.5466118
000030 1e f4 be bd 5d 81 a7 3e 55 17 53 3f 8c 92 fd 3e
       -0.093239054 0.32715884 0.82457477 0.4952587
000040 c0 1c e0 bf 2c cc ff bd 68 a6 cf bf 84 28 03 c0
       -1.7508774 -0.124901146 -1.6222658 -2.0493479
000050 89 7a 1c c0 69 ce 3d c0 9c 94 2d c0 7c e1 81 be
       -2.444979 -2.9657233 -2.7121954 -0.25367343
000060 43 01 3e c0 86 3a 36 bf 49 e4 41 bd 32 32 10 c0
       -2.968827 -0.7118305 -0.04733685 -2.2530637
000070 db 05 01 c0 b1 51 f5 be be 15 5e 3e 8f ff a6 be
       -2.0159824 -0.47913888 0.21687981 -0.3261685
000080 7d 2e d1 bf 7c 96 27 bf c5 bc 02 c0 00 f4 b5 3e
       -1.6342312 -0.65463996 -2.0427716 0.3553772
000090 9c e0 02 c0 29 ab 4c c0 fc a4 36 c0 cc f1 51 c0
       -2.044959 -3.1979468 -2.8538198 -3.280383
0000a0 91 f3 03 c0 6e 20 28 c0 42 8d 32 3e ef 19 87 bf
       -2.061741 -2.6269794 0.17436698 -1.0554789
0000b0 51 d4 7b be bd 09 26 c0 b7 7e 96 bf 6c a8 55 3e
       -0.24592711 -2.5943444 -1.175742 0.20865029
0000c0 42 7e 29 c0 fd 8d 6b 3e 26 2c c6 bf 2b f0 8e bf
       -2.6483312 0.23003383 -1.5482223 -1.1167043
0000d0 0b f2 5d c0 18 9f 6a bc 9a df 82 c0 60 8c fc bf
       -3.4678981 -0.0143201575 -4.089795 -1.9730339
0000e0 6b 0d 5e c0 df 58 78 c0 32 86 51 c0 6a 56 d8 bf
       -3.469569 -3.8804243 -3.2738156 -1.6901371
0000f0 89 a1 64 c0 f7 f5 6d c0 4f 9e 7b c0 2b 5a ad c0
       -3.5723593 -3.7181375 -3.9315374 -5.417257
000100 61 d7 1e c0 d2 55 33 c0 23 57 0b c0 47 15 4d c0
       -2.4818957 -2.802113 -2.1771934 -3.2044237
000110 8a 9d 97 bf 1e 3b 66 c0 ef f0 45 c0 05 b8 6f c0
       -1.1844952 -3.5973582 -3.0928304 -3.7456067
000120 f1 93 00 c0 c2 b8 9f bf 60 94 b8 bf ed 5c 79 c0
       -2.0090296 -1.2478259 -1.442028 -3.8962967
000130 d2 29 17 c0 95 ca a5 bf cc 61 79 c0 5b af e1 be
       -2.3619275 -1.2952448 -3.896594 -0.44079098
000140 d4 0f 54 bf b0 12 68 bf 00 0d 4b bf e2 f9 5c c0
       -0.8283665 -0.90653515 -0.7931671 -3.4527516
000150 f4 0b e4 bf 38 ce fc bf 2c df b3 bf 01 33 ff 3e
       -1.7816148 -1.9750433 -1.4052482 0.498436
000160 e0 8d 66 c0 60 3f b9 be 7a d8 bb bf 36 ec 45 c0
       -3.6024094 -0.36181164 -1.4675438 -3.0925422
000170 12 b1 06 3f 4d 8e 20 3f ac 8e cc bf 6d 53 10 c0
       0.5261394 0.62717134 -1.598104 -2.255092
000180 b4 51 78 be 5f 9b a9 bf 46 97 98 bf e2 dd 63 bf
       -0.24249917 -1.325054 -1.1921165 -0.8901044
000190 a0 4e 80 bf be 97 4c c0 8e 8a 2b c0 e4 6f 46 3f
       -1.0023994 -3.1967616 -2.6803317 0.7751448
0001a0 63 f3 63 3d 1e 8c 26 c0 23 11 24 c0 af 97 4e 3f
       0.055652034 -2.602302 -2.563546 0.807002
0001b0 54 5e 3e be a3 ac 47 3f f9 a7 0f 3e c4 80 09 bf
       -0.18590671 0.779978 0.1402892 -0.53712106
0001c0 26 42 3a c0 b5 c8 83 3f cd 51 20 c0 a4 d2 fa bf
       -2.9102874 1.0295626 -2.5049927 -1.9595532
0001d0 df 76 07 3f 22 7e 2b c0 0f f7 18 c0 05 cb 30 c0
       0.5291576 -2.6795735 -2.3900793 -2.7623913
0001e0 6c d9 06 3f 76 61 d8 be f2 16 2f c0 72 3a 48 3d
       0.5267551 -0.42261857 -2.7357755 0.048883863
0001f0 db 89 47 3f f3 55 26 3f c4 e8 28 c0 d6 98 03 c0
       0.77944726 0.649749 -2.639207 -2.0562034

seq_midi.1.seq.0.seq.angle f4 [128]
000000 83 96 c9 bf 2a a1 ed bf 54 47 ca bf 45 c4 c9 bf
       -1.5749058 -1.8564808 -1.5803018 -1.5763022
000010 46 aa c9 bf b7 87 c9 bf 48 12 c9 bf 5f 42 c9 bf
       -1.5755088 -1.5744542 -1.5708704 -1.572338
000020 8f 71 cd bf 04 39 c9 bf 1c 19 c9 bf b2 a8 e5 bf
       -1.605028 -1.5720525 -1.5710788 -1.7942107
000030 fe 26 cb bf a7 e7 c9 bf ee 1a c9 bf 25 c8 c9 bf
       -1.5871274 -1.577382 -1.5711343 -1.5764204
000040 6a 9f ca bf 43 c5 c9 bf 02 a0 f0 bf 10 56 d0 bf
       -1.5829899 -1.5763324 -1.879883 -1.6276264
000050 f8 be ca bf 0b 01 d0 bf a8 4a d0 bf 76 1b c9 bf
       -1.5839529 -1.6250318 -1.6272783 -1.5711505
000060 c5 b4 c9 bf 71 07 ca bf 06 ea ca bf eb dc ed bf
       -1.5758291 -1.5783521 -1.5852668 -1.8583044
000070 73 17 f8 bf 95 57 c9 bf 19 04 ca bf 0c 5a ca bf
       -1.9382156 -1.5729853 -1.57825 -1.580873
000080 37 97 e7 bf e8 00 cb bf c7 d1 c9 bf fb d9 c9 bf
       -1.8093022 -1.5859652 -1.5767144 -1.5769647
000090 b2 36 cb bf 52 9a ce bf 28 55 cf bf cb 31 cc bf
       -1.5876067 -1.6140845 -1.6197863 -1.5952696
0000a0 59 2a c9 bf 9b 62 cf bf 40 ae ca bf 4c a9 cb bf
       -1.5716048 -1.6201967 -1.5834427 -1.591104
0000b0 31 6c c9 bf 8c 85 ce bf ab 42 c9 bf 06 14 c9 bf
       -1.5736142 -1.6134505 -1.572347 -1.5709236
0000c0 e0 79 d7 bf 18 b7 ca bf a2 63 cc bf f8 37 cb bf
       -1.6834068 -1.5837126 -1.5967906 -1.5876455
0000d0 8f 6a d7 bf aa a1 c9 bf 18 a4 03 c0 29 21 f3 bf
       -1.6829394 -1.5752461 -2.0568905 -1.8994495
0000e0 93 e1 d9 bf a5 7f d1 bf 38 56 d3 bf bd fa ee bf
       -1.7021965 -1.6367079 -1.6510687 -1.8670269
0000f0 46 e0 e0 bf 4e 23 01 c0 36 66 f9 bf f1 68 03 c0
       -1.7568443 -2.0177798 -1.9484317 -2.05328
000100 f5 ba e1 3f 23 4c 07 40 fc d6 fa 3f 84 2a f7 3f
       1.763518 2.114022 1.9596858 1.930985
000110 54 c2 cd 3f 51 3a ff 3f 2a fa d1 3f 7a b2 fa 3f
       1.6074929 1.9939672 1.6404469 1.9585717
000120 54 d4 de 3f 4f 42 cd 3f f6 8c cb 3f cb 97 cc 3f
       1.7408547 1.6035861 1.5902393 1.5983824
000130 65 10 e9 3f 77 89 d2 3f 74 77 c9 3f 5a 6e ca 3f
       1.8208128 1.6448201 1.5739579 1.5814927
000140 68 43 c9 3f 9a bd ca 3f b0 4d cb 3f d6 1c d6 3f
       1.5723696 1.5839112 1.5883083 1.672755
000150 72 1b f4 3f 5f b4 d0 3f 68 5e ca 3f e5 32 ca 3f
       1.9070876 1.6305045 1.581006 1.5796782
000160 98 ac c9 3f 50 4f c9 3f 8b 92 cb 3f 28 47 c9 3f
       1.5755796 1.5727329 1.5904096 1.572484
000170 a4 19 c9 3f df 17 c9 3f bb d5 e9 3f c4 cf f0 3f
       1.571095 1.571041 1.826835 1.8813405
000180 e8 04 ca 3f 50 bd cc 3f 5a 78 cc 3f ff ad ca 3f
       1.5782747 1.5995274 1.5974228 1.5834349
000190 0d 11 ca 3f e6 34 c9 3f df 66 c9 3f 95 25 c9 3f
       1.5786453 1.5719268 1.5734519 1.5714594
0001a0 fc 40 c9 3f 57 38 c9 3f f4 bd c9 3f 15 5d c9 3f
       1.5722957 1.5720319 1.5761094 1.5731531
0001b0 80 01 ca 3f 05 1a c9 3f db af c9 3f 9d 23 c9 3f
       1.5781708 1.5711066 1.5756792 1.5713993
0001c0 cb 54 c9 3f fb 10 c9 3f 30 fc c9 3f 4d 35 d0 3f
       1.5729002 1.5708307 1.5780087 1.6266266
0001d0 7e 17 c9 3f ae 3f d2 3f 52 36 c9 3f dd 5c c9 3f
       1.5710294 1.6425683 1.5719702 1.5731465
0001e0 98 e7 c9 3f 21 5e ca 3f c7 d4 c9 3f 85 7c c9 3f
       1.5773802 1.5809976 1.576806 1.5741125
0001f0 11 5e c9 3f 5f 90 c9 3f 1e 11 c9 3f 13 3e f2 3f
       1.5731832 1.5747184 1.5708349 1.8925194

seq_midi.2.s5.seq.C_bias f4 [60, 2]
000000 3a e7 b5 bd 00 00 00 00 99 c5 fd bd 00 00 00 00
       -0.088819936 0.0 -0.123912044 0.0
000010 a5 ab 29 3e 00 00 00 00 25 57 21 bc 00 00 00 00
       0.16569383 0.0 -0.009847437 0.0
000020 bc dc 62 be 00 00 00 00 d4 69 80 be 00 00 00 00
       -0.22154516 0.0 -0.2508074 0.0
000030 08 71 93 3c 00 00 00 00 35 92 b2 bd 00 00 00 00
       0.017998233 0.0 -0.08719293 0.0
000040 9d 0c 2a 3e 00 00 00 00 12 3f 13 39 00 00 00 00
       0.16606374 0.0 0.00014042508 0.0
000050 3a d8 f0 bd 00 00 00 00 62 39 30 be 00 00 00 00
       -0.11759992 0.0 -0.1720939 0.0
000060 9e 04 33 bd 00 00 00 00 47 64 4f 3e 00 00 00 00
       -0.043705575 0.0 0.20253097 0.0
000070 78 ca 28 be 00 00 00 00 f2 a0 16 bd 00 00 00 00
       -0.16483486 0.0 -0.036774583 0.0
000080 8e 0b 8f bd 00 00 00 00 f5 b7 47 3d 00 00 00 00
       -0.06984626 0.0 0.04875942 0.0
000090 cd 8f 3d be 00 00 00 00 41 58 27 bd 00 00 00 00
       -0.18511887 0.0 -0.04085565 0.0
0000a0 7f 9f 58 3e 00 00 00 00 72 94 97 3d 00 00 00 00
       0.21154593 0.0 0.074013606 0.0
0000b0 98 21 54 3c 00 00 00 00 f2 53 0e 3c 00 00 00 00
       0.0129474625 0.0 0.008687006 0.0
0000c0 b7 52 6f be 00 00 00 00 bc 58 4c be 00 00 00 00
       -0.23371397 0.0 -0.19955724 0.0
0000d0 a9 fd cf 3d 00 00 00 00 6d f0 5d be 00 00 00 00
       0.10155804 0.0 -0.21673746 0.0
0000e0 9b a9 9d 3e 00 00 00 00 d4 e1 b7 ba 00 00 00 00
       0.3079346 0.0 -0.0014029094 0.0
0000f0 5b 55 03 3e 00 00 00 00 6b 4f 56 3e 00 00 00 00
       0.1282553 0.0 0.20928733 0.0
000100 df fc 6f be 00 00 00 00 bb 69 70 3e 00 00 00 00
       -0.23436306 0.0 0.23477833 0.0
000110 d0 d5 dc bd 00 00 00 00 e9 44 26 bc 00 00 00 00
       -0.10782969 0.0 -0.010148265 0.0
000120 42 2c 0f be 00 00 00 00 02 6c e1 bd 00 00 00 00
       -0.13981727 0.0 -0.11006929 0.0
000130 41 89 b4 3c 00 00 00 00 b8 c3 6f 3e 00 00 00 00
       0.022038104 0.0 0.23414505 0.0
000140 ec 24 48 3e 00 00 00 00 05 63 14 be 00 00 00 00
       0.19545335 0.0 -0.14490898 0.0
000150 af 29 68 be 00 00 00 00 27 75 8e be 00 00 00 00
       -0.22672151 0.0 -0.27823755 0.0
000160 3f 1d c1 3d 00 00 00 00 54 4d 39 be 00 00 00 00
       0.094294064 0.0 -0.18095905 0.0
000170 d5 8e b7 3d 00 00 00 00 2b dc 3e 3e 00 00 00 00
       0.0896279 0.0 0.18638675 0.0
000180 a1 7e 17 3e 00 00 00 00 81 ae 27 be 00 00 00 00
       0.14794399 0.0 -0.16375162 0.0
000190 5c 9a e0 bd 00 00 00 00 cf 4f 43 be 00 00 00 00
       -0.10966942 0.0 -0.19073413 0.0
0001a0 08 d9 42 3e 00 00 00 00 6f e4 30 be 00 00 00 00
       0.19028103 0.0 -0.1727464 0.0
0001b0 13 c5 93 be 00 00 00 00 41 73 46 3e 00 00 00 00
       -0.28861293 0.0 0.19379903 0.0
0001c0 a1 d3 85 bb 00 00 00 00 ce 6c 64 3e 00 00 00 00
       -0.004084066 0.0 0.2230713 0.0
0001d0 4d 57 b8 3d 00 00 00 00 d3 9c 44 3e 00 00 00 00
       0.09001026 0.0 0.19200449 0.0

seq_midi.2.s5.seq.C f4 [60, 128, 2]
000000 51 c6 b1 3d 00 68 df bc 33 22 3d 3d 4e d8 84 bb
       0.08680404 -0.02727127 0.046175193 -0.004054106
000010 54 3e 62 3e fc 45 be 3d e7 65 a8 bc 5a e6 bb 3d
       0.22094089 0.09290692 -0.020556403 0.091747954
000020 9a 1b 15 bc e4 dd a8 bc 34 c5 c9 bc 4f 25 47 bc
       -0.009100819 -0.020613618 -0.024630167 -0.012154891
000030 9d 87 2f 3e 18 4a 09 3e 63 2f f8 3b b6 a6 50 3c
       0.17141576 0.13407171 0.0075740083 0.0127350595
000040 d1 78 d1 3d 22 d0 fe 3c 08 4b 6d 3b 50 6f 91 bc
       0.10228122 0.031105105 0.0036208052 -0.017753273
000050 b5 de 20 3c 10 45 79 3b 5d 18 5e bd 5a 6a 12 bd
       0.0098187225 0.003803555 -0.054222453 -0.035745956
000060 6a 36 8d 3c dd 0f ce 3c 8b c3 65 3c 57 bb 30 3b
       0.01723786 0.025154049 0.014023672 0.0026967132
000070 93 df 2f bd 95 a7 c0 bd 38 b6 de bd 0e 0e 9f 3d
       -0.042937826 -0.09406964 -0.10874599 0.077663526
000080 42 46 31 3d 20 b8 1a bc ed b0 9a 3a e6 2b 01 3d
       0.043279894 -0.009443313 0.0011801996 0.031536005
000090 cc 7a b5 3c 44 11 3c bd 01 33 16 bd c3 a2 07 bc
       0.02215328 -0.045914903 -0.036669735 -0.0082785515
0000a0 c1 ff 27 3b b9 92 da 3d 76 1c d7 3d 77 98 8e bd
       0.002563462 0.106725164 0.10503475 -0.06962674
0000b0 ca 15 dc bc b5 3a 0b 3d 1d 17 07 3c 29 d2 6e 3d
       -0.026865859 0.033991534 0.008245257 0.058305893
0000c0 b9 84 0a 3c d4 a4 ed bc 15 b3 72 3b 68 e2 ab bd
       0.008454495 -0.02900926 0.003703301 -0.08392793
0000d0 fc 3b 95 bb bc f7 16 bc 3c 6c 68 3c 7b 1a 1a 3d
       -0.00455427 -0.009214338 0.014185961 0.03762291
0000e0 a5 e1 52 3c ef cb 59 3b 54 fb b1 bc f6 f8 c6 3c
       0.012871181 0.0033233126 -0.021726288 0.024288636
0000f0 1e 46 c2 bd fe 74 64 bc 12 e8 83 3c c4 7f 9d bc
       -0.0948603 -0.013943909 0.01610187 -0.019225962
000100 2d 0f eb bd 2f 7a 20 be 5f e3 ba bd 87 9b e4 bc
       -0.11477504 -0.1567161 -0.09125399 -0.027906192
000110 94 2a 71 bb a1 c7 8d 3b 26 01 a2 bd bc 29 82 bd
       -0.003679906 0.004326776 -0.07910375 -0.063556165
000120 c5 76 a0 b9 17 09 55 3b df cb b5 bc 1c 1e 2c 3d
       -0.00030606068 0.0032506639 -0.02219194 0.042020902
000130 6d b7 f1 3c 63 bb a7 3e 11 4e a1 bd 42 c0 e9 bd
       0.02950641 0.32760152 -0.07876218 -0.114136234
000140 6d b2 fc bc ce 16 fa bd 18 cb 1a 3c 8e 36 83 3b
       -0.030846799 -0.12211381 0.009447835 0.004004306
000150 66 aa c8 3e b3 13 50 be 5b 05 b8 3b ea 84 70 ba
       0.39192504 -0.20320015 0.005615873 -0.0009175079
000160 ee d5 83 3b db 42 bc bb 29 c8 0f bd 41 4e 46 be
       0.004023305 -0.0057452745 -0.035102997 -0.19365789
000170 16 db a1 3d 19 83 86 3c 3f 00 dc bb 5b b2 b2 3a
       0.079031155 0.016419934 -0.0067138965 0.0013633476
000180 bc 79 dc 3c d5 a2 78 3c 6f 8a 3c 3b 18 95 98 3b
       0.026913516 0.015175541 0.0028769036 0.0046564452
000190 90 9a ba 3d 9d d2 42 bd cb 2d 77 3a 88 27 93 bb
       0.09111512 -0.047564138 0.0009429126 -0.0044907965
0001a0 d2 b7 f5 bc 60 32 98 3a 73 55 b7 3d a0 7c 24 3c
       -0.029994879 0.0011611693 0.08951845 0.010039479
0001b0 1f 50 5c 3c 32 7a a0 be 5f ac 50 ba bb 84 f2 bb
       0.013446837 -0.31343228 -0.00079602556 -0.0074010766
0001c0 8e ac 6f bc 4e 76 2f bc 2c c1 c6 3b 32 5a 2e bc
       -0.014628543 -0.010709358 0.0060655084 -0.010641621
0001d0 67 4f 86 3c 1b 44 01 39 ab ba 1a bd e3 55 04 bd
       0.016395284 0.0001232777 -0.037775677 -0.03230847
0001e0 4a 9f 36 3e 84 bd 39 bd db b9 05 bd 99 ba b2 3b
       0.17834201 -0.04534675 -0.03264795 0.005454373
0001f0 e5 56 09 bd 46 7a 40 3d 24 27 a7 3b 8b fb 8c 3c
       -0.033530135 0.04699161 0.0051011015 0.017209789
000200 52 c9 61 bd 0b 1c 2e bc bf ff 63 bc 22 23 32 bb
       -0.055123635 -0.010626803 -0.013915955 -0.0027181585
000210 d3 70 c5 3b e3 68 c5 bb 3f 7d bc 3c 47 4e 19 3d
       0.0060254126 -0.0060244664 0.02300894 0.037428167
000220 22 02 06 bd c7 34 16 3e 37 fe ee 3c ba 70 cf 3c
       -0.032716878 0.1466857 0.029173953 0.025322307
000230 db fe 76 bc 98 eb ad 3b 33 e8 86 bc 65 1e 68 bc
       -0.015075411 0.005307626 -0.016468143 -0.014167403
000240 00 8c 22 bd 0f 4f 5c 3d 2f c3 83 3b 45 17 5f 3b
       -0.039684296 0.053786334 0.0040210704 0.003404097
000250 2a 3f 3c 3d 9e ba bb 3d 56 24 a6 bb a7 4e 3f 3a
       0.045958675 0.09166454 -0.0050702496 0.0007297792
000260 7c ba 13 bd 62 e5 73 3c db c0 9d bd ae ee 21 bb
       -0.036066517 0.014886232 -0.077028 -0.0024708915
000270 c5 bf 1d bc 7d 85 0e 3b 31 79 99 3d b1 41 9e 3d
       -0.009628241 0.0021747046 0.074938186 0.077273734
000280 da 71 3a bc a2 db ec bb 5d 1c 0d be e6 a7 c9 3d
       -0.011379683 -0.0072283307 -0.13780351 0.09846477
000290 2d 0c 89 37 ae d3 a3 3b 18 32 49 3d 0d 9c 32 be
       1.6337342e-05 0.0049995994 0.04912004 -0.17442341
0002a0 fe 0e ac 3d 46 f2 b8 3d 43 ff 0e 3e 26 df 29 bc
       0.08401297 0.09030585 0.13964562 -0.010368144
0002b0 cd 62 22 bb 39 90 fa 3a 92 85 39 3e c2 84 b4 3e
       -0.0024778128 0.0019116468 0.1811736 0.35257536
0002c0 6b 36 d2 3d 51 24 28 3e 4f 47 86 3b c8 72 46 3b
       0.10264286 0.16420104 0.004097856 0.0030280817
0002d0 df 0d 68 be 25 4e 02 3f 69 2e dd bc d9 7c ea bd
       -0.22661541 0.5090049 -0.02699967 -0.11449594
0002e0 23 b3 09 bc 84 1f 8a 3d 41 50 88 bd 10 6c 31 3e
       -0.008404526 0.067442924 -0.06655932 0.17326379
0002f0 bc 23 e1 3c 7c b9 b6 3c 52 cb cb bb 42 16 40 b8
       0.02748286 0.022305243 -0.006219306 -4.5797096e-05
000300 1c 0d 69 b8 e4 dc 05 3b 40 9b 85 bd c5 16 2d bd
       -5.5563738e-05 0.002042585 -0.06523752 -0.042258043
000310 43 0d 25 bb 2a 71 97 3a b3 d9 b2 3d 37 79 bb 3b
       -0.0025184907 0.0011554111 0.08732929 0.005721237
000320 10 fd 1d bc 92 c6 cf 3b e1 ba 9f 3b 9e 42 7d bc
       -0.009642854 0.00634081 0.0048745726 -0.015457777
000330 45 ef c0 3c 68 6e 57 bd a1 3d ce bb 29 1e 10 3c
       0.023551593 -0.052595526 -0.006293968 0.008796253
000340 75 10 25 be 2f a5 0c 3d 29 51 ae 3d a0 5d b4 bd
       -0.16119559 0.03433722 0.08511574 -0.0880692
000350 a8 e8 23 3b 0f 60 37 bc 0c 22 aa 3d 9c cb 4d 3b
       0.00250105 -0.011192336 0.08307275 0.0031401878
000360 52 ae d1 3d 05 a9 75 be 64 5b 86 bc b5 5e b5 bd
       0.10238327 -0.23990257 -0.016401 -0.088559546
000370 45 ee a3 bd 2f a4 7b 3d d7 26 ae ba a7 4f b1 ba
       -0.08004431 0.061435875 -0.0013286722 -0.0013527767
000380 ab 49 69 3b 2f 9e 1f be d6 ec 57 be 38 7d 93 3c
       0.0035596888 -0.15587686 -0.2108644 0.018004045
000390 9b 20 af bd 3a b3 23 be af dd e7 bc 28 3e 65 3d
       -0.08551141 -0.15986338 -0.02830395 0.05596748
0003a0 f3 2a c3 bb fa 12 c9 3c 91 30 ad 3c 33 e6 24 bd
       -0.0059560477 0.024545182 0.021141322 -0.040258598
0003b0 98 b2 a4 be 4a 5d d9 3e 8d 6d 8c bd 43 34 17 3c
       -0.32167506 0.42453986 -0.06856833 0.009228769
0003c0 94 75 b3 3b e0 7a 1b bd 85 0e de bc 5d 2e e6 bd
       0.005476663 -0.03795898 -0.027106533 -0.11239312
0003d0 5d 6d e1 bd 65 0c bf bd 54 52 3e be af 08 28 be
       -0.110071875 -0.09328536 -0.18586093 -0.16409563
0003e0 4f 28 15 be ae ef 25 3d aa 59 73 3d 9a b9 0d 3d
       -0.14566158 0.04051178 0.059411682 0.03460083
0003f0 db 46 2b bc 4a 38 d9 bb a0 da a6 3d 48 15 75 3d
       -0.010453905 -0.0066290246 0.08147168 0.05983475

seq_midi.2.s5.seq.norm f4 [128]
000000 a1 0a 76 bf a4 d6 fa bf 49 34 ff 3e 20 b3 55 3f
       -0.9610997 -1.9596753 0.49844578 0.8347645
000010 d7 36 0b bf c5 90 87 bf 46 8c 06 3f e6 26 80 bf
       -0.54380554 -1.0591055 0.5255779 -1.0011871
000020 78 77 23 3f 50 c4 32 c0 ff 9c 02 c0 92 8a 46 3f
       0.6385417 -2.793232 -2.0408323 0.7755519
000030 c8 b5 21 3f f9 04 31 c0 6b 25 1f c0 0c 68 33 bf
       0.63168 -2.7659285 -2.4866588 -0.7008064
000040 7d fa 9d bf 04 04 b4 bf 69 0c bf bf 4b d6 5d 3e
       -1.2342068 -1.4063725 -1.4925662 0.21663778
000050 07 46 26 3f 50 d5 b0 bf 4a e5 62 bf 14 12 ab bf
       0.64950603 -1.3815098 -0.8863112 -1.3364892
000060 44 0a 3f be 4c dd 9f bf 62 8a 4c 3f 17 b7 92 bf
       -0.1865626 -1.248941 0.79898655 -1.1462125
000070 37 5d 28 c0 e6 bd ac bf da b9 ac bf f7 3e d0 3e
       -2.6306894 -1.3495452 -1.3494217 0.40673038
000080 e4 cd 84 bf a7 8e c9 bf 45 f2 c1 bf 1e c0 9d bf
       -1.0375333 -1.5746659 -1.515206 -1.2324255
000090 bd c5 3d c0 3f cc 01 c0 07 96 54 3f 57 82 51 be
       -2.965194 -2.0280912 0.83041424 -0.20459877
0000a0 af 9d b5 3e 98 af 4d c0 00 f8 01 3f f0 0e b4 bf
       0.35471866 -3.2138424 0.5076904 -1.4067059
0000b0 47 9c 45 c0 79 e5 9a be 9a 2a 39 c0 df c8 4c c0
       -3.0876634 -0.302532 -2.8932252 -3.1997602
0000c0 fc 3a 36 bf bb 7d 36 c0 a5 84 6e c0 cf b9 8e c0
       -0.71183753 -2.851424 -3.726846 -4.4601817
0000d0 fa ec a4 be f3 4d 79 bf 61 82 14 bf 76 df 51 c0
       -0.3221205 -0.97384566 -0.5801144 -3.279264
0000e0 55 7b bb bf 12 95 28 c0 09 8d bb bf 93 f2 4d c0
       -1.4647013 -2.6340985 -1.4652416 -3.2179306
0000f0 a3 52 41 c0 bb f3 2d c0 bc d0 28 c0 c1 26 2f c0
       -3.0206687 -2.7180011 -2.6377401 -2.7367404
000100 f8 e4 4c c0 91 32 1d c0 d9 67 8f c0 9c 65 bc bf
       -3.2014751 -2.4562113 -4.4814267 -1.4718509
000110 bf 9b 50 bf c8 56 52 c0 a1 51 5f c0 6e 03 6b c0
       -0.8148765 -3.2865467 -3.4893572 -3.6720843
000120 fc 58 2a c0 53 48 78 c0 ac 14 d7 be 13 c0 1c c0
       -2.6616812 -3.8794143 -0.4200796 -2.4492233
000130 75 4e 5b c0 b0 9c 77 be 27 ce 17 c0 ca 29 bf bf
       -3.4266636 -0.24180865 -2.3719575 -1.4934628
000140 a5 9c 7b c0 9b e4 2c bd 24 19 30 c0 fb 0a cc be
       -3.9314358 -0.042210203 -2.7515345 -0.39852127
000150 91 ad 3a be 9a 39 27 bf 06 55 5d c0 5b 3a 61 bf
       -0.18230273 -0.6532227 -3.4583144 -0.8797967
000160 52 d1 2a 3e 9c 76 01 c0 bd 60 0a 3d 31 c8 ac bf
       0.16681412 -2.0228643 0.033783663 -1.3498594
000170 b0 ec 76 be 6f 6f 22 3e 79 cc 01 c0 b1 93 5f c0
       -0.24113727 0.15862821 -2.028105 -3.4933894
000180 e6 c8 3d c0 c2 e0 e1 bf 76 0d 2e c0 c9 cc ab bf
       -2.9653869 -1.7646716 -2.7195716 -1.342187
000190 f4 9d 41 c0 71 15 8f bf 70 c8 68 3e 9f 7d 42 c0
       -3.0252657 -1.1178418 0.22732711 -3.0389173
0001a0 b1 2d ad 3e 35 21 a5 bf 78 84 67 bf a1 6d 1a bf
       0.33823922 -1.2900759 -0.90436506 -0.6032353
0001b0 66 f8 50 3f 46 25 b6 bf 2f b8 c3 bf ca 7f 7b be
       0.81629026 -1.4230125 -1.5290583 -0.24560466
0001c0 69 c7 8c bf 4d c1 47 3f fb f3 d7 be 21 e5 c2 be
       -1.0998355 0.7802933 -0.4217833 -0.38065436
0001d0 50 7f c2 bf d3 f2 a8 bf 7e 1a 55 be 3e 96 87 bf
       -1.5195103 -1.3199104 -0.20810887 -1.0592725
0001e0 85 be 23 3f be 7c 04 c0 ca b4 27 3f b1 73 0a 3f
       0.63962585 -2.0701137 0.6551024 0.5408278
0001f0 f1 ec 55 3e e0 b2 87 bf 9d 95 27 c0 a0 21 1d bf
       0.20891167 -1.0601463 -2.6185067 -0.6137943

seq_midi.2.s5.seq.angle f4 [128]
000000 3c 18 c9 bf 77 ea d6 bf 06 ab c9 bf ca 13 c9 bf
       -1.5710521 -1.6790303 -1.5755317 -1.5709164
000010 8a 16 c9 bf 02 25 c9 bf 1f 96 c9 bf a8 22 c9 bf
       -1.5710003 -1.5714419 -1.5748938 -1.5713701
000020 13 15 c9 bf da 9a c9 bf 53 28 c9 bf 3c 17 c9 bf
       -1.5709556 -1.5750382 -1.5715431 -1.5710216
000030 08 12 c9 bf d6 46 d2 bf b2 21 d6 bf cc fb cc bf
       -1.5708628 -1.6427867 -1.6729033 -1.6014342
000040 f8 23 c9 bf 7c a7 c9 bf 7e 1f d5 bf 1a 16 c9 bf
       -1.5714102 -1.5754237 -1.6650236 -1.570987
000050 d2 16 c9 bf 5e 11 cd bf a8 1e c9 bf 03 a9 dd bf
       -1.5710089 -1.6020925 -1.571248 -1.7317203
000060 68 16 c9 bf 85 80 d3 bf 06 31 c9 bf 1e 38 c9 bf
       -1.5709963 -1.6523596 -1.5718086 -1.5720251
000070 74 6e d0 bf 60 20 c9 bf 51 97 c9 bf 18 15 c9 bf
       -1.6283708 -1.5713005 -1.5749303 -1.5709562
000080 a8 fd ca bf b1 60 cf bf 8a 1f e0 bf f6 f1 c9 bf
       -1.585866 -1.6201383 -1.7509625 -1.5776966
000090 a2 48 c9 bf cd 34 cf bf 63 af c9 bf 9a 14 c9 bf
       -1.5725291 -1.6187989 -1.5756649 -1.5709412
0000a0 44 18 c9 bf 2b ba cc bf 81 9b c9 bf 2f 26 c9 bf
       -1.571053 -1.5994314 -1.5750581 -1.5714778
0000b0 45 e4 cb bf 9c 9b c9 bf db 67 d8 bf e1 76 ca bf
       -1.5929037 -1.5750613 -1.6906694 -1.5817529
0000c0 87 1a c9 bf 9b 74 c9 bf 75 7e e8 bf 02 26 ca bf
       -1.571122 -1.573871 -1.8163592 -1.5792849
0000d0 ac 19 c9 bf 58 73 cb bf b4 b6 cc bf 79 61 c9 bf
       -1.571096 -1.5894575 -1.5993257 -1.5732871
0000e0 70 1e c9 bf bb d4 d0 bf f8 5e c9 bf af 53 de bf
       -1.5712414 -1.631492 -1.5732107 -1.7369288
0000f0 23 d5 02 c0 41 e2 cb bf 8b 95 f1 bf 44 3f e6 bf
       -2.0442588 -1.5928422 -1.8873762 -1.7988057
000100 de e5 3f 40 f4 91 dc 3f f6 0e d2 3f d3 e6 d0 3f
       2.998405 1.7232041 1.6410816 1.6320442
000110 66 0b d1 3f 02 86 d8 3f ce f8 ca 3f 90 84 d1 3f
       1.6331604 1.6915896 1.5857179 1.636858
000120 9e 66 d4 3f 21 e5 c9 3f 88 41 c9 3f 70 37 c9 3f
       1.6593816 1.577305 1.5723124 1.5720043
000130 d2 df d5 3f 65 d9 c9 3f 9a 3f cc 3f f7 cb ca 3f
       1.670893 1.5769469 1.595691 1.5843495
000140 86 59 e3 3f ce f7 c9 3f 78 da ce 3f 71 86 ca 3f
       1.7761695 1.5778749 1.6160421 1.5822278
000150 6a 17 c9 3f 1d 39 c9 3f 89 57 c9 3f fe e9 ca 3f
       1.571027 1.5720555 1.5729839 1.5852659
000160 f6 a9 c9 3f 7d 35 c9 3f 6d b7 ca 3f 32 e1 d9 3f
       1.5754993 1.5719448 1.5837227 1.7021849
000170 24 7d c9 3f 8a 15 c9 3f 2d 7d ce 3f 1f 7c c9 3f
       1.5741315 1.5709698 1.6131951 1.5741004
000180 ae b0 ca 3f 3e 2f c9 3f 87 4b c9 3f b4 e3 da 3f
       1.5835168 1.5717542 1.5726174 1.710074
000190 55 6c c9 3f 05 2c c9 3f 79 13 c9 3f 94 87 c9 3f
       1.5736185 1.5716559 1.5709068 1.57445
0001a0 cb 6f ca 3f 87 05 d7 3f 5a 17 c9 3f f2 27 cc 3f
       1.5815367 1.6798562 1.5710251 1.594969
0001b0 fb 48 c9 3f f4 4c ca 3f 3f e0 d1 3f 6e 1a c9 3f
       1.5725397 1.5804734 1.639656 1.5711191
0001c0 dd 9b cc 3f b9 64 c9 3f 2f 72 c9 3f 48 15 c9 3f
       1.5985066 1.5733863 1.5737971 1.570962
0001d0 64 90 ca 3f e9 38 d3 3f a6 5e ca 3f c3 62 c9 3f
       1.5825315 1.6501743 1.5810134 1.5733265
0001e0 6e 21 c9 3f f7 ba d2 3f 7d 22 c9 3f ba 23 c9 3f
       1.5713327 1.6463307 1.571365 1.5714028
0001f0 c2 01 ca 3f f3 6b cd 3f b4 14 d6 3f 17 18 c9 3f
       1.5781786 1.6048568 1.6725068 1.5710477

seq_midi.2.skipLayer.weight f4 [60, 88]
000000 2d a7 7f bd 06 12 4a 3c c3 ce 61 ba b9 aa 23 bb
       -0.06241529 0.012333399 -0.0008613879 -0.0024973585
000010 89 7b 29 3d 6c ff 0b bc fe ad 44 bc 93 f4 01 3d
       0.041377578 -0.008544784 -0.012004374 0.031727385
000020 42 53 9e 3c b7 3d 0f 3c 65 1e 25 3e c4 eb 4f 3d
       0.01932681 0.008742741 0.16124876 0.050761953
000030 a3 c5 9e 3d ab 20 09 bd 62 1f 10 bb 4a 35 23 3b
       0.0775254 -0.03347842 -0.0021991362 0.002490359
000040 54 12 5c 3b 9b 89 09 bd 0a 78 39 bd 74 03 5f 3a
       0.003358026 -0.033578496 -0.045280494 0.00085072895
000050 6b 03 d2 bd 0e 48 8d 3c a4 64 26 3d c0 9a 20 3d
       -0.10254558 0.017246272 0.040623322 0.03921008
000060 5f 77 9a bd b7 16 53 3c 92 c4 65 3d f5 c3 37 3c
       -0.075422995 0.012883834 0.056095667 0.011216153
000070 95 fa 30 3c e2 3e 24 3d 99 4d 50 3d e2 58 82 bb
       0.010801931 0.040099032 0.050855253 -0.003977881
000080 3e 19 e9 b7 74 68 4b bd 53 aa ed 3b 4c 22 1d bd
       -2.7787519e-05 -0.04966016 0.0072529702 -0.038362786
000090 81 1f 1c be ae a7 d8 3b 14 37 7a bd 81 b5 7b 3d
       -0.15246393 0.006611786 -0.061087683 0.061452392
0000a0 da 54 bb 3d 71 aa e1 bc 0e 91 9f bd 55 24 ac 3c
       0.091470435 -0.027547093 -0.07791339 0.021013418
0000b0 9e 86 a7 3d f2 b7 23 3c 85 3f a9 3d e3 07 7e bd
       0.08179973 0.009992586 0.082640685 -0.06201924
0000c0 62 62 a6 bd 9c e2 f2 3d eb 11 25 3d 62 2d 35 3d
       -0.08124234 0.118596286 0.04030029 0.044232734
0000d0 f5 0d 0b 3e 35 82 82 3b 2c 4c 26 bd de 2e 18 bd
       0.13579543 0.003982807 -0.040599987 -0.03715407
0000e0 ed ca ff bd 49 47 a8 bd 90 8d a8 bc be 31 9d 3d
       -0.12489877 -0.082167216 -0.020575315 0.07675503
0000f0 80 1a d3 3d 3b fc e7 3b d0 ec c4 bd 0d b5 89 3c
       0.10307789 0.0070796288 -0.09615481 0.016809965
000100 96 80 1a bd ef 23 2d 3e 22 13 b5 3d 5d 5f 1e be
       -0.037720285 0.16908239 0.0884154 -0.15466066
000110 62 e9 26 bb 03 41 fd bd b5 d3 50 3d e3 62 f6 bd
       -0.0025468697 -0.123659156 0.05098315 -0.1203058
000120 31 b9 10 bc 36 44 ca 3d 5a c0 98 bd c5 47 e5 3c
       -0.008833216 0.098762915 -0.07458563 0.027988324
000130 77 f7 80 bd 45 78 f4 bb 1b 82 9b 3c dc ce 4e bd
       -0.062972 -0.0074606263 0.018982938 -0.050490245
000140 c4 04 09 be d4 2b bd 3d ce be d5 bd b9 96 f5 bd
       -0.13380724 0.09236875 -0.10436784 -0.11991639
000150 b5 40 85 bd 74 4c 27 bd 70 aa ea bc 0d fb 78 bd
       -0.065064825 -0.040844396 -0.028645724 -0.060786296
000160 ec 89 17 bd 0b 92 87 bc 19 f9 88 bd 46 fc 1d bc
       -0.036996767 -0.01654913 -0.066881366 -0.009642666
000170 09 06 7d 3d 45 25 fc 3d 5e ce 09 bd a4 ce 12 3c
       0.061773334 0.12311796 -0.033644073 0.0089604
000180 1a 56 94 3d 95 1b 88 bc 7d 6e 03 3d b6 cd ab 3d
       0.07242985 -0.016614715 0.03208779 0.083888456
000190 d5 ea 57 3d 3e 54 ee 3d fd c8 3d 3d 9c 53 61 3d
       0.052714188 0.11637162 0.046334255 0.055011377
0001a0 1e 9a 92 bd 2e 9f 25 3e 02 11 4b bd 7f 3f f9 ba
       -0.07158302 0.16174003 -0.049576767 -0.0019016116
0001b0 16 2e 01 3d c8 bc 1f 3d 31 be 94 bd 0f 7b 0c 3d
       0.03153809 0.038998395 -0.07262839 0.034297045
0001c0 55 5d 62 bd 5e b6 aa bc 5d 14 df 3c 0f ed 01 3e
       -0.05526479 -0.020838913 0.02723139 0.12688087
0001d0 c1 2f 00 3d b7 31 64 3d a2 d3 2a bd 4d 87 e7 3d
       0.03129554 0.055711474 -0.041705735 0.113051035
0001e0 97 2a 21 ba 97 20 da 3c 4e 84 7d bd f4 f6 9a 3c
       -0.0006148009 0.026626868 -0.061893754 0.018916585
0001f0 70 47 86 bd bf a4 f8 bc 8a f3 bd bd f1 ec e8 3d
       -0.06556594 -0.030351995 -0.09274967 0.11373318
000200 77 07 bb 3c 0c ac 89 3d 9e 54 58 3c 86 0a 02 3b
       0.022830708 0.067222685 0.013203768 0.0019842698
000210 95 d1 d9 3c e7 53 29 3d 06 4f cc be eb 8d 58 bd
       0.026589194 0.04133978 -0.3990404 -0.05286972
000220 c0 3d c7 bb 26 59 b7 3d 55 52 88 bb b5 10 a1 bc
       -0.006080359 0.089525506 -0.0041602054 -0.019661287
000230 21 01 9d bd 8e 33 e7 3b 34 cc 99 3d 29 46 a6 bd
       -0.07666231 0.0070557063 0.07509652 -0.08118851
000240 54 ec 3b bd 59 3c 12 be 17 67 18 bd 5e 57 1c 3d
       -0.045879677 -0.14280833 -0.03720769 0.038169257
000250 47 c8 07 3d ab b1 62 3d e8 b3 13 bd 94 97 94 3d
       0.033149984 0.05534522 -0.036060244 0.07255474
000260 08 13 c8 bd 43 9c 8e 3d 3a ca 36 3d e2 96 27 bd
       -0.09769255 0.06963398 0.044626452 -0.040915377
000270 70 35 6e bd ca 9b 6e 3d 96 43 5c 3d 76 ee 2a bd
       -0.05815643 0.05825404 0.053775392 -0.04173132
000280 af a3 49 3d 85 d6 81 3d be 48 4b bd 17 3a 39 bc
       0.049228366 0.063397445 -0.04962992 -0.011305354
000290 2c d7 0c 3e e8 5d 34 3d 7f de d5 bc 5e 38 f3 bc
       0.13753957 0.04403487 -0.026107071 -0.029689964
0002a0 c3 10 b6 bd 24 15 ec 3c ae 41 92 bd ba b6 f2 bc
       -0.08889916 0.028818674 -0.07141434 -0.029628146
0002b0 5a 49 21 3d e9 25 ee ba 6d b1 81 3c 8d ad 4b 3b
       0.039376594 -0.0018169257 0.015831674 0.0031078786
0002c0 e5 83 57 3d 1f 62 63 bd fe 96 80 3d 1e 17 64 3d
       0.05261602 -0.055513497 0.062787995 0.05568611
0002d0 ff 55 05 bd 22 e9 ab 3b cf 0c 04 3e 54 cc d4 bc
       -0.032552715 0.0052462975 0.12895511 -0.025976337
0002e0 b1 40 d1 bd 28 7e 57 3d d1 56 54 bd e6 41 82 bd
       -0.10217417 0.052610546 -0.051840607 -0.063602254
0002f0 ee 32 a6 bc 51 7b 44 bb 7d a7 0d bd f7 0a 2d 3d
       -0.020287957 -0.002998073 -0.034583557 0.042246785
000300 3a db 2d 3d a0 ff 2e bc c2 dd cf bc 09 65 83 3c
       0.0424454 -0.010681063 -0.025374297 0.016039388
000310 f3 89 5a 3d c1 70 18 3d ec 1e be 3d 1f 28 2d 3d
       0.053354215 0.037216906 0.09283242 0.04227459
000320 88 d4 3c be 74 6e 80 bd 4d 43 d2 bc 73 17 c4 bc
       -0.18440449 -0.06271067 -0.025666857 -0.023936963
000330 95 bf f1 3c 47 b3 65 bc cb 36 30 3d 6e 1c 50 bd
       0.029510299 -0.014019794 0.043021005 -0.050808363
000340 5b 46 b5 3c 92 56 ad 3b fa 3d b8 bd 26 21 cb 3c
       0.022128275 0.005289861 -0.08996196 0.02479608
000350 e5 c6 25 3d 35 de 75 bd 8c 2b 1d bc 75 13 55 bd
       0.040472884 -0.060026366 -0.009592902 -0.05202051
000360 3f 74 2b bd 9e bd 63 3d 8c ac 04 be 2f 15 78 3c
       -0.041858908 0.055600755 -0.12956446 0.015141769
000370 0b ff a0 3d b9 76 bd bc aa 3c 8d bd 12 2b cd bc
       0.078611456 -0.0231279 -0.068963364 -0.025044952
000380 47 f6 44 3d f1 56 21 3e 8c d8 62 3d 05 bd b1 3d
       0.04808643 0.15755822 0.055382296 0.08678631
000390 86 d7 a6 3d 25 77 df bd ca 2c e8 bd bd 02 00 3d
       0.081465766 -0.10911397 -0.11336668 0.03125261
0003a0 f2 a3 90 3d 48 e0 ab bc ee 1f 18 3d c9 30 09 3c
       0.0706252 -0.02098097 0.037139826 0.008373448
0003b0 ef 3f 88 bd f8 1d 89 3c 50 4e 58 3d 7a cb 22 3c
       -0.06652819 0.016737923 0.05280906 0.009936208
0003c0 9b 31 14 bd c9 51 9f bb 9a 80 db 3c 99 ef 19 3d
       -0.03618012 -0.0048620445 0.02679472 0.037582014
0003d0 04 93 08 3b c7 61 f6 3d 0a 3b 3d bd 9a 25 46 3c
       0.0020839581 0.12030368 -0.046198882 0.012093926
0003e0 fa 57 38 bc 69 89 62 bd ad 31 e9 3c dd a3 d9 bd
       -0.011251444 -0.055306826 0.02846607 -0.106269576
0003f0 37 de 05 bd 39 67 c2 3c ad 75 a1 ba c5 9f fb bd
       -0.032682624 0.023730861 -0.0012318395 -0.12286333

seq_midi.3.s5.seq.C_bias f4 [40, 2]
000000 2d b8 20 3d 00 00 00 00 8b 73 94 bd 00 00 00 00
       0.039238144 0.0 -0.072486006 0.0
000010 ae 01 ec 3d 00 00 00 00 d6 c7 6c 3e 00 00 00 00
       0.11523758 0.0 0.23123106 0.0
000020 c7 ca dc 3d 00 00 00 00 e0 4f 15 3c 00 00 00 00
       0.10780864 0.0 0.009113282 0.0
000030 98 b2 43 3e 00 00 00 00 22 01 a3 bd 00 00 00 00
       0.19111097 0.0 -0.079592004 0.0
000040 b7 7d 43 be 00 00 00 00 b4 c1 89 bd 00 00 00 00
       -0.19090925 0.0 -0.06726399 0.0
000050 d2 92 4a 3e 00 00 00 00 09 5f 07 bd 00 00 00 00
       0.1978257 0.0 -0.033049617 0.0
000060 ac 68 40 3e 00 00 00 00 e2 d8 5c be 00 00 00 00
       0.18789929 0.0 -0.21567109 0.0
000070 51 cd 34 be 00 00 00 00 4b 22 4c be 00 00 00 00
       -0.17656447 0.0 -0.19934957 0.0
000080 33 26 94 bd 00 00 00 00 5c bc ff 3c 00 00 00 00
       -0.072338484 0.0 0.031217746 0.0
000090 ee eb 4e be 00 00 00 00 d7 40 22 be 00 00 00 00
       -0.20207188 0.0 -0.15845047 0.0
0000a0 bd 06 5f be 00 00 00 00 7c 63 c5 3d 00 00 00 00
       -0.21779914 0.0 0.09638116 0.0
0000b0 0c 5a 9b 3c 00 00 00 00 d4 bf 24 3d 00 00 00 00
       0.018963836 0.0 0.040222004 0.0
0000c0 e7 7a 36 be 00 00 00 00 2c 6b a8 3c 00 00 00 00
       -0.17820321 0.0 0.020558916 0.0
0000d0 76 fb 0c bd 00 00 00 00 3c 16 29 be 00 00 00 00
       -0.0344195 0.0 -0.16512388 0.0
0000e0 ef 95 08 3d 00 00 00 00 6c 48 80 3e 00 00 00 00
       0.033346113 0.0 0.25055254 0.0
0000f0 61 b0 76 bc 00 00 00 00 c0 9c 35 be 00 00 00 00
       -0.0150567 0.0 -0.17735577 0.0
000100 0f 4c 8b 3d 00 00 00 00 de c3 a6 bd 00 00 00 00
       0.068016164 0.0 -0.081428275 0.0
000110 83 f4 48 3b 00 00 00 00 d6 6f 18 be 00 00 00 00
       0.0030663318 0.0 -0.14886412 0.0
000120 37 21 40 be 00 00 00 00 2c 08 47 be 00 00 00 00
       -0.1876267 0.0 -0.19436711 0.0
000130 93 9f 26 be 00 00 00 00 14 a3 16 3e 00 00 00 00
       -0.1627181 0.0 0.14710647 0.0
