pretrained_models/PianoSSM_S_MH_maestro_all_16000_model.pth (torch, 305451 bytes, 29 tensors)

seq_midi.1.seq.0.seq.C_bias f4 [88, 2]
00000000: fd41 90be 0000 0000 3586 f53c 0000 0000
00000010: a4f5 d3bc 0000 0000 ec54 bf3e 0000 0000
00000020: 4787 703e 0000 0000 090d 903d 0000 0000
00000030: 3880 e6bd 0000 0000 d751 1ebc 0000 0000
00000040: 6289 3cbe 0000 0000 1688 7b3e 0000 0000
00000050: 509b 303e 0000 0000 666f 5fbd 0000 0000
00000060: f504 49be 0000 0000 40d2 113e 0000 0000
00000070: a457 9b3c 0000 0000 5e0e 20be 0000 0000
00000080: ea19 da3d 0000 0000 6d50 9b3d 0000 0000
00000090: 96af c63d 0000 0000 337c 72be 0000 0000
000000a0: 1c24 6a3e 0000 0000 7bc9 3c3e 0000 0000
000000b0: df6b 67be 0000 0000 b2a2 143e 0000 0000
000000c0: 8502 44be 0000 0000 e3f7 eabd 0000 0000
000000d0: fdc2 aa3e 0000 0000 051e 8ebe 0000 0000
000000e0: 85e0 96bd 0000 0000 6456 03be 0000 0000
000000f0: 597e 10be 0000 0000 65b0 af3e 0000 0000
00000100: e4cf c4bd 0000 0000 3a11 54bd 0000 0000
00000110: 9b18 b4bc 0000 0000 3edf a93e 0000 0000
00000120: 27c4 093e 0000 0000 bc60 723c 0000 0000
00000130: bb71 403e 0000 0000 3d74 53be 0000 0000
00000140: 6bd9 f4bd 0000 0000 29a6 0f3d 0000 0000
00000150: 854e 8b3e 0000 0000 979b ab3c 0000 0000
00000160: 9357 303e 0000 0000 4dff 29be 0000 0000
00000170: 3704 17be 0000 0000 fd66 483e 0000 0000
00000180: bc2a 5cbe 0000 0000 da96 4a3e 0000 0000
00000190: 8cd8 ed3c 0000 0000 3426 adbd 0000 0000
000001a0: 76c7 883e 0000 0000 45c3 1f3e 0000 0000
000001b0: 40c6 973d 0000 0000 64b7 3d3e 0000 0000
000001c0: c647 803e 0000 0000 3807 4c3e 0000 0000
000001d0: 09b9 c13e 0000 0000 58c4 403e 0000 0000
000001e0: 5cfc 813e 0000 0000 1f44 0fbe 0000 0000
000001f0: 3664 e73d 0000 0000 8b5f 97bb 0000 0000
00000200: 7f4a c2be 0000 0000 ed69 8b3d 0000 0000
00000210: f70d 553e 0000 0000 1a1a ac3e 0000 0000
00000220: 6a5b 10be 0000 0000 788e b13e 0000 0000
00000230: b3b8 1ebe 0000 0000 b2ea 37be 0000 0000
00000240: ee2e 653d 0000 0000 fcc5 ab3e 0000 0000
00000250: ef47 a5ba 0000 0000 409a 993d 0000 0000
00000260: a587 773e 0000 0000 33a8 403e 0000 0000
00000270: 6a3e 3fbe 0000 0000 07fb 18be 0000 0000
00000280: 811e 8bbe 0000 0000 c3ef b13e 0000 0000
00000290: bc72 1cbe 0000 0000 9dfd 793e 0000 0000
000002a0: add6 35be 0000 0000 883b 41be 0000 0000
000002b0: e923 9d3e 0000 0000 f284 153e 0000 0000
-0.28175345 0.0 0.029971221 0.0 -0.025873967 0.0 0.37369478 0.0
0.23489104 0.0 0.07033736 0.0 -0.112549245 0.0 -0.009663067 0.0
-0.18411782 0.0 0.24563631 0.0 0.17246747 0.0 -0.054549597 0.0
-0.19630797 0.0 0.1424036 0.0 0.018962689 0.0 -0.1563048 0.0
0.10649474 0.0 0.075836994 0.0 0.09701459 0.0 -0.2368019 0.0
0.22865337 0.0 0.18436234 0.0 -0.22599743 0.0 0.14515188 0.0
-0.19141586 0.0 -0.11473062 0.0 0.3335189 0.0 -0.27757278 0.0
-0.073670425 0.0 -0.12825924 0.0 -0.14110698 0.0 0.34314266 0.0
-0.096099645 0.0 -0.05177424 0.0 -0.021984389 0.0 0.33178133 0.0
0.13453732 0.0 0.014793571 0.0 0.18793385 0.0 -0.2064981 0.0
-0.11955532 0.0 0.035070572 0.0 0.27208343 0.0 0.020948214 0.0
0.17220907 0.0 -0.16601296 0.0 -0.14747702 0.0 0.19570537 0.0
-0.21500677 0.0 0.19784108 0.0 0.029033922 0.0 -0.08454552 0.0
0.26714677 0.0 0.15601833 0.0 0.0741086 0.0 0.18526989 0.0
0.2505476 0.0 0.19924629 0.0 0.37836483 0.0 0.18824899 0.0
0.25387847 0.0 -0.1399083 0.0 0.112984106 0.0 -0.004619544 0.0
-0.3794746 0.0 0.06807313 0.0 0.20806108 0.0 0.33613664 0.0
-0.14097372 0.0 0.34679008 0.0 -0.15500145 0.0 -0.17960623 0.0
0.05595296 0.0 0.33549488 0.0 -0.0012609939 0.0 0.07500124 0.0
0.24172838 0.0 0.18814163 0.0 -0.18676153 0.0 -0.1493951 0.0
-0.2717171 0.0 0.34753236 0.0 -0.15278143 0.0 0.24413152 0.0
-0.17757674 0.0 -0.18870366 0.0 0.3069146 0.0 0.14601496 0.0

seq_midi.1.seq.0.seq.C f4 [88, 64, 2]
00000000: 3603 ce3d 0aef 343d 6298 9b3d 9281 9abc
00000010: ec40 f3bd 5b8e 6f3e 59d0 ee3c 4cab 2d3d
00000020: b082 2dbc ed16 a23c 0162 e1bd e0f3 993d
00000030: 8ff4 0cbb e19e fcbc f535 f5bd 163e 723c
00000040: 2d52 e1bd eaa1 6cbd 98b1 09be a71f e5bc
00000050: 306e 743d 08a3 0cbd 44c9 83bd 94eb bcbb
00000060: aa78 13bc 66fc 6abd 50d5 6c3d b8e8 c43d
00000070: 9636 dcbd 1e32 163e 9336 08bc 4e19 333d
00000080: 8374 24bd b386 193c 9d4a 8dbc 0c62 67bd
00000090: c0d3 8abd d24c 163d 3872 a5bd 4a5f 463e
000000a0: ac7d adbd 3a4d 62be 07f5 adbc 08eb 823d
000000b0: 27d2 0dbd 86b7 803c 8efe f8bc 84c6 b13c
000000c0: ff50 4cbe 84b1 88be 360e 453e 8240 823d
000000d0: 8414 e03d 0478 d6bc 89aa 373d 5463 93bd
000000e0: 687f c13d c159 28bd 2691 873b 2735 f33d
000000f0: d091 98bd 1312 90bd 1927 98bd 822a 913e
00000100: f38c a93c 02fe b63d 62ca 8cbc 1d5f 9c3b
00000110: 04f1 4a3d 2694 123e 2ffb 98bd 9907 8fba
00000120: 9a5b 8b3d 8f7f a2bd 0f45 bdbd c221 b73c
00000130: fc2d 8e3e 6287 57be 5b8a edbd a1c4 dcbc
00000140: 138a 12bd 8c5a 6f3c d7d7 5abd 8dc4 1fbe
00000150: c0dd ccbc 0a5d 1cbd 99a9 db3b f851 b73c
00000160: e3d0 943d e68e 49be e4ee 443d 19bc 18bd
00000170: fe88 84bd 0b12 11bd 56d5 d7bd 3877 92bd
00000180: 3e49 463d d9bf 083d 01b2 ab3c a835 f2bb
00000190: 3a9e 9a3c 3b6c acbc c67f 9a3c 6bec ba3b
000001a0: 7413 053d 9efc 44bd 7348 e7bd ead4 983b
000001b0: c1e9 cebd 31ac 6f3d b22a 383c 56c1 25bd
000001c0: f7bc 123d 0fd6 fa3c b76c 4f3d 9437 653d
000001d0: 9745 91bd 9f05 8abd 3f73 cfbc ce78 62bd
000001e0: 3815 31bd 2cfc 83be 22d0 edbc 0346 e73c
000001f0: 6f4e d3bd 2067 dbbd 1105 68bc ece1 2f3d
00000200: fbe3 eabb d477 75be 8f16 0d3e 075e fbbd
00000210: 69b1 95bd 77fc 8d3c 5154 d0bc 83de 38bd
00000220: 60aa 83bb 3bca 853b 7e8a c3bd 6499 c33d
00000230: 4b44 d7bc 25b2 5bbe 01ac e5bd 0f45 53bd
00000240: 60eb 23bc 7c6a 803b e9e7 68bc 85cb 50bc
00000250: 3fb4 25bd 8ab1 573c 0af8 7a3d f752 6fbc
00000260: 82cd 353d 59f3 2dbd e098 fd3c 1a46 84bd
00000270: c182 26be cae3 15be e76b 453a 9311 c23a
00000280: 0ca6 c6bc 8c1e eb3b 9986 133e f6bf 84bd
00000290: 281d 973d 14da 18be 023e 893c 6f5d 343d
000002a0: 32ad 1b3b 5a5c 3ebd a2d0 03bd 64cf e73b
000002b0: 4872 143d fb67 393d 6585 783d ea4f 0e3d
000002c0: 4c6a 24bd 88c2 993d 11fe cc3d d1b1 013e
000002d0: 41bc 19bd 739b 8fbd aa0a 183d 8a7b a2b9
000002e0: 568c 103e e311 a7ba ce92 c53d 4e0c c43c
000002f0: 99ed 30bd c8ff 22be deca afbc 11dd a4bc
00000300: 3433 743a 0006 783a c180 b4bc a4b4 5f3d
00000310: 79ae cc3d 79bf a0bc 052d 163d 17eb 99bd
00000320: 89bd f13c f546 3ebd 25d9 15bc 3df4 21be
00000330: d533 103b eefd d7bc 3129 c9bb 976c ab3d
00000340: d0a1 9b3b 8582 18bd e33d 81ba 05a5 1d3e
00000350: e424 033e 102d b2bd 7fcc 943d 5b99 dbbd
00000360: 3e8e a23c 6d5b 163b 3199 21ba 1cc2 563a
00000370: 4004 c4ba 6a27 b33c c095 92bd e7f2 3c3c
00000380: 51b6 163e cdb5 33bd 1ab0 373c 931b e33a
00000390: d083 053d 9b24 14bc 0d6f 353b a8c9 673b
000003a0: 9f67 0abc 6578 05bc f00f b13d 9570 df3d
000003b0: 5c80 f2bc e73f 7b3d 9b04 cc3d c90e 95bd
000003c0: 81b4 a6bc 4873 b43d d6d3 d83d 0684 5b3e
000003d0: bc41 f03b 27bd 4a3c 5726 003c 9b2a 5c3b
000003e0: 8647 08bc 2b2b 383d 4570 cc3d bf28 ff3d
000003f0: 99b9 05bd a7c8 8ebe 2184 64bd db31 0f3c
0.10059206 0.044173278 0.07597424 -0.018860612 -0.11877617 0.23394148 0.029152082 0.04239969
-0.01059024 0.019786322 -0.11005021 0.075172186 -0.0021508073 -0.030837478 -0.11973182 0.01478531
-0.11002002 -0.0577716 -0.13446653 -0.027969195 0.059675395 -0.034335166 -0.06434873 -0.005765388
-0.0090009365 -0.057369612 0.05782062 0.096147 -0.10752599 0.14667556 -0.008313793 0.043725304
-0.040150177 0.009370494 -0.017247492 -0.05648999 -0.06778669 0.036694355 -0.08078426 0.19372287
-0.08471236 -0.22099772 -0.021235002 0.06392485 -0.034624245 0.01571251 -0.030394819 0.021701105
-0.19952773 -0.26697934 0.19243702 0.0635996 0.10941413 -0.026180275 0.04484037 -0.0719668
0.09448129 -0.04110122 0.004137176 0.118753724 -0.074496865 -0.070346974 -0.07429332 0.28352743
0.020697093 0.08935167 -0.017186347 0.0047720806 0.049546257 0.14314327 -0.074697845 -0.0010912298
0.06804581 -0.07934486 -0.092416875 0.022354964 0.27769458 -0.21047738 -0.11598655 -0.026949229
-0.03577621 0.01460899 -0.053428497 -0.15602322 -0.025008082 -0.038174666 0.006703567 0.022377953
0.072664045 -0.19683418 0.048079386 -0.03728876 -0.06471442 -0.035417598 -0.105387375 -0.071516454
0.048409693 0.033386085 0.020958902 -0.00739165 0.018874276 -0.021047702 0.018859755 0.0057044527
0.032489255 -0.048092477 -0.112931155 0.004664053 -0.10103179 0.058513824 0.011240648 -0.040467583
0.035824742 0.03061965 0.050640788 0.055961207 -0.07093351 -0.067393534 -0.025323508 -0.05529099
-0.043233126 -0.2577833 -0.02902991 0.028231626 -0.103176944 -0.10713029 -0.014161364 0.042940065
-0.0071682907 -0.23971492 0.13778137 -0.12273794 -0.07309229 0.017332299 -0.02543083 -0.04513408
-0.004018113 0.0040829456 -0.095479 0.09550741 -0.026277682 -0.21454675 -0.11214448 -0.05157953
-0.010004848 0.003918944 -0.014215448 -0.012743835 -0.0404551 0.013164887 0.061271705 -0.014607183
0.04438544 -0.042468403 0.030956686 -0.06458683 -0.16260816 -0.14637676 0.00075310323 0.0014806263
-0.0242491 0.0071752723 0.14406814 -0.06481926 0.07378608 -0.1492694 0.0167532 0.044034418
0.0023754355 -0.046474792 -0.03218139 0.0070742834 0.0362418 0.04526518 0.06067409 0.03474418
-0.040140435 0.07507807 0.10009397 0.12665488 -0.03753305 -0.070120715 0.037119545 -0.00030991092
0.14116034 -0.001274642 0.096471414 0.023931649 -0.04319534 -0.15917885 -0.02145904 -0.020124944
0.0009315491 0.0009461343 -0.02203405 0.05461563 0.099942155 -0.019622551 0.036664028 -0.07515543
0.029509323 -0.04645439 -0.00914601 -0.15815826 0.002200355 -0.0263662 -0.0061389436 0.08370321
0.004749514 -0.037233848 -0.0009860363 0.15394981 0.12807041 -0.08700001 0.07265567 -0.107226096
0.019843217 0.0022942678 -0.000616449 0.00081923767 -0.001495488 0.02186938 -0.07157469 0.011532522
0.14717986 -0.04387455 0.0112114195 0.0017326943 0.03259641 -0.009041931 0.00276846 0.0035368
-0.008447557 -0.00814638 0.08645618 0.10910145 -0.029602222 0.06134024 0.09961816 -0.07278211
-0.020349743 0.08811051 0.105872795 0.21437082 0.007332055 0.012374199 0.007821641 0.003359473
-0.008317834 0.044963043 0.09982351 0.124589436 -0.032647703 -0.2788746 -0.05579007 0.008739914

seq_midi.1.seq.0.seq.norm f4 [64]
00000000: d67b 443e 76a5 783f 696e b9be 1ea6 02c0
00000010: 9d02 19c0 7fe9 03bf 60da 09bf 0a82 83be
00000020: a332 34c0 fd3a 28c0 6f3c 45bf 430a b53d
00000030: b8f5 f9bf 280c 3ec0 0d5a 40c0 9941 20c0
00000040: b5b5 e0bf 6ff6 7ec0 e849 d0bf 0877 4bc0
00000050: 02f6 28bf 298c 96bf 4217 8ebd 288d 62bf
00000060: 7a1a 40c0 d268 2dc0 007e 90bf fdd0 3cc0
00000070: f1d8 40c0 191c a8bf 412c 49c0 af8a 2ec0
00000080: 274d 65c0 9720 86c0 03eb 5ac0 f89a 8cc0
00000090: aaf2 b3bf 0176 4fc0 3603 0ac0 df6a 4ac0
000000a0: bc5f a5bf 0b46 3ec0 9144 9bbe 0e6c 9fbe
000000b0: ce89 2fc0 3397 50c0 2788 20c0 e2cf 3fbe
000000c0: 3491 cebf 927e 2bc0 2fe0 87bf ef3b 3bc0
000000d0: 8540 49c0 e1a7 18bf 5e4c 32c0 3f66 29bf
000000e0: 840d 54bf a110 023f 03db 0dc0 1034 53c0
000000f0: 5894 b8bf 35e1 5b3e 0354 0ebe fd15 8fbf
0.19187865 0.97127473 -0.3621705 -2.041389 -2.3907845 -0.5152816 -0.5384884 -0.2568515
-2.8155906 -2.6286004 -0.7704534 0.08839848 -1.9528112 -2.969492 -3.0054963 -2.5040038
-1.7555453 -3.983791 -1.6272554 -3.17914 -0.6600038 -1.1761523 -0.0693803 -0.8849664
-3.001616 -2.7095227 -1.1288452 -2.9502556 -3.013241 -1.3133575 -3.143326 -2.7272146
-3.582834 -4.1914783 -3.420594 -4.393917 -1.405843 -3.2415774 -2.156446 -3.162773
-1.2919841 -2.973025 -0.3032575 -0.31137127 -2.742786 -3.2592285 -2.50831 -0.18731645
-1.6138062 -2.6796002 -1.061529 -2.925533 -3.144563 -0.5963116 -2.785911 -0.6617164
-0.82833123 0.50806624 -2.2164924 -3.3000526 -1.4420271 0.21472628 -0.13899235 -1.1178585

seq_midi.1.seq.0.seq.angle f4 [64]
00000000: d499 d7bf 78b5 cdbf 7e19 c9bf 0389 cfbf
00000010: 742f c9bf 1fe1 ccbf 6818 c9bf be24 e3bf
00000020: 975f f4bf 91fe f8bf 131e c9bf 969e c9bf
00000030: 2208 d6bf a191 d5bf 7e90 febf 7a57 c9bf
00000040: 692f c9bf 3a60 e8bf a44b cfbf 3a4c f1bf
00000050: 3e0b cebf 1065 c9bf b417 c9bf 5127 c9bf
00000060: e248 fdbf 8874 f5bf 1036 cebf 989a fabf
00000070: 80de 04c0 fbf1 d7bf 9341 03c0 f82c 05c0
00000080: 6bae 20c0 14c1 0640 dc45 0840 c530 0440
00000090: 9142 cf3f 0126 0040 9b04 cd3f 023e 0140
000000a0: 8363 ca3f 4322 ff3f b6ed c93f df1d c93f
000000b0: eae6 d83f 4af2 c93f 06a6 d23f e714 c93f
000000c0: d680 d03f f967 c93f 2125 c93f 9128 c93f
000000d0: 337a c93f 651a c93f 3075 f03f 85cd ca3f
000000e0: 1245 c93f 8862 c93f 7b3a c93f 844d cc3f
000000f0: c07a cd3f 7c41 ca3f dcf9 cb3f d474 c93f
-1.684382 -1.6071005 -1.5710905 -1.6213688 -1.5717607 -1.6006202 -1.5710573 -1.7745588
-1.9091672 -1.9452688 -1.5712303 -1.5751522 -1.6721232 -1.6685067 -1.9887846 -1.5729821
-1.5717593 -1.8154366 -1.6194959 -1.8851388 -1.6097181 -1.5733967 -1.5710359 -1.5715123
-1.9787867 -1.9176188 -1.6110249 -1.9578428 -2.0760803 -1.6870722 -2.0508773 -2.0808697
-2.5106456 2.1055346 2.1292639 2.0654767 1.619219 2.0023196 1.601703 2.0194097
1.5811619 1.9932331 1.5775669 1.5712241 1.6945469 1.5777066 1.6456916 1.5709504
1.6289318 1.5734855 1.5714456 1.5715505 1.5740417 1.571118 1.8785763 1.584397
1.5724204 1.5733194 1.5720972 1.5961156 1.6053085 1.5801234 1.5935626 1.5738778

seq_midi.2.s5.seq.C_bias f4 [60, 2]
00000000: cd74 ec3d 0000 0000 8b0e 4a3e 0000 0000
00000010: 20e1 4dbc 0000 0000 d5e4 283e 0000 0000
00000020: c30a 1dbe 0000 0000 e449 4ebe 0000 0000
00000030: 854e ca3c 0000 0000 5753 3ebc 0000 0000
00000040: 8878 85be 0000 0000 5570 cd3d 0000 0000
00000050: 2d3d 5e3e 0000 0000 37f5 31be 0000 0000
00000060: 1e4b 4b3e 0000 0000 a9a0 35be 0000 0000
00000070: a81c 1b3d 0000 0000 e30f a03e 0000 0000
00000080: 68fc 55be 0000 0000 7d5a 343e 0000 0000
00000090: 80b1 d8bd 0000 0000 edce 4e3e 0000 0000
000000a0: 8321 403c 0000 0000 72fd 123e 0000 0000
000000b0: 0cb4 623e 0000 0000 468a bfbd 0000 0000
000000c0: 1465 4e3e 0000 0000 de76 2e3e 0000 0000
000000d0: 203a 8e3e 0000 0000 717f b03e 0000 0000
000000e0: f217 483e 0000 0000 f654 40be 0000 0000
000000f0: 2190 393e 0000 0000 90ad 7abe 0000 0000
00000100: 5021 0abe 0000 0000 d0d5 9f3d 0000 0000
00000110: cef8 52be 0000 0000 d824 8f3e 0000 0000
00000120: 7ee0 84be 0000 0000 0a4f df3d 0000 0000
00000130: e93b 803e 0000 0000 2322 22be 0000 0000
00000140: ea5f 2fbe 0000 0000 a96a 3a3e 0000 0000
00000150: 5215 57be 0000 0000 156c a9bd 0000 0000
00000160: 090c 5e3e 0000 0000 5088 123c 0000 0000
00000170: 1b8d 19be 0000 0000 8fe4 6bbe 0000 0000
00000180: ed79 9d3e 0000 0000 75c7 4d3e 0000 0000
00000190: 53b6 3abe 0000 0000 8170 21be 0000 0000
000001a0: 8cdd 2e3d 0000 0000 b918 d33d 0000 0000
000001b0: 3d62 813e 0000 0000 ac24 743e 0000 0000
000001c0: 3779 49be 0000 0000 d02b d73d 0000 0000
000001d0: ded6 73be 0000 0000 ca64 df3d 0000 0000
0.115457155 0.0 0.1973211 0.0 -0.012565881 0.0 0.16493542 0.0
-0.15336137 0.0 -0.20145375 0.0 0.024695644 0.0 -0.011616549 0.0
-0.2606852 0.0 0.10031191 0.0 0.21703024 0.0 -0.17378698 0.0
0.19852874 0.0 -0.17737068 0.0 0.037869126 0.0 0.3126212 0.0
-0.20897067 0.0 0.17612644 0.0 -0.105807304 0.0 0.20196123 0.0
0.01172674 0.0 0.14354494 0.0 0.22138995 0.0 -0.093525454 0.0
0.20155746 0.0 0.17037532 0.0 0.2777872 0.0 0.3447223 0.0
0.19540384 0.0 -0.1878241 0.0 0.18121387 0.0 -0.24480271 0.0
-0.1348927 0.0 0.078044534 0.0 -0.20602724 0.0 0.27957797 0.0
-0.25952524 0.0 0.109037474 0.0 0.25045708 0.0 -0.15833335 0.0
-0.17126432 0.0 0.1820475 0.0 -0.21004227 0.0 -0.08272568 0.0
0.21684279 0.0 0.008943632 0.0 -0.14995234 0.0 -0.23036407 0.0
0.30757084 0.0 0.20095618 0.0 -0.18233614 0.0 -0.15765573 0.0
0.042691752 0.0 0.1030745 0.0 0.25270262 0.0 0.23842114 0.0
-0.19675146 0.0 0.105064034 0.0 -0.23812434 0.0 0.10907896 0.0

seq_midi.2.s5.seq.C f4 [60, 64, 2]
00000000: 3a23 0abe 8521 8c3e 8276 183c f68d dfbb
00000010: b555 93bb fb2f 283c cee3 d73d bd5e 2b3c
00000020: 1d05 293d 5ec6 f63b 51f9 52bc 23fc 6f3d
00000030: d2d1 ecbd 7583 353d 1a19 093c cfa4 d13c
00000040: 044d e73d d53d 483d ba3c b3bc 447f e5bc
00000050: 03ca 33bc 59b2 bf3b 2d72 093d 5afe 8dbe
00000060: 0de0 833b bf79 82ba 7e8f b63c 717b 2ebc
00000070: 62a2 3abc f7ec 4bbc 619b 213e 01a2 11be
00000080: 5bcd 653d 6979 fcbd 3cde 963a 7988 503c
00000090: f6e0 183b 49e4 90ba 270d eb3a 8b11 0d3b
000000a0: 6f2d 87bc b053 f53d 666b df3c 8f36 f0bc
000000b0: f38e 0fbd 7c91 d23c 3c36 db3c 7316 a5bd
000000c0: 6899 123b 4830 2cbb 6b39 cb3c de8e d3bc
000000d0: 245c b9bb 12c2 b4bc 57e2 57bc a981 c4bb
000000e0: 3ebb 6e3c da34 083e dc5b 833c 84d3 3bbc
000000f0: 149d f93c 6eb9 7ebb c2c4 0cbc 3601 63bc
00000100: dfad cf3d b8a9 45be 31e1 043d 457c d83c
00000110: b136 deba e9c9 2d3b 6a06 323d 943e a13d
00000120: e306 70bd 7e44 8b3d f483 193e 50a8 22bd
00000130: 1afe a5bc 7944 583b 21ee 19bd 9c8a 533d
00000140: f75f 723e aa12 803d a051 00bc def9 46be
00000150: 350d d8bd 9ee8 6ebc fc7b 0dbd 4529 0bbc
00000160: 6cc7 89ba 7051 f13b 55f6 643c 57ff d3bc
00000170: 0d60 1cbb 1e2e 3cbc d359 833c 4de1 acbe
00000180: 0e36 b03b 23e4 b23b 726d abbb 455f 83bc
00000190: 898c 45bd e8ed 75bd cb1f 513b 5d9e c8bb
000001a0: d617 9fbb 0d64 463c c824 77bb 2202 77bb
000001b0: 9de8 8f3c 81ad 17be 1b31 633d f05d c53d
000001c0: 7779 003e 8268 4c3e 6942 393d 8582 2a3c
000001d0: 1416 15bd 80b0 c6bc 3095 ad38 201e d9b9
000001e0: e7e0 833b b695 9c3b adab dfbb 7ff5 933b
000001f0: fc31 48bd ceba 173c b14a 543d 7fc6 80be
00000200: c6d7 393e 4c4d b63e c998 c1bb 41a1 7a3b
00000210: b97c 93ba 0831 fb3b f648 a63d a4f4 60bc
00000220: b990 e7bc a85d c53c 855c 91bc 24ff 81bd
00000230: c91c 783c e3c3 50bd be26 f1bc 622e 3e3d
00000240: 97f2 41bd 5395 85bb 342d cdb8 9c01 0cbc
00000250: 5aa0 66bb e527 af39 70fc 2abe 4d12 7c3d
00000260: 03d6 2ebc ae6e 213a de28 803c 7e39 813b
00000270: 1858 9e3b 36d5 0fbd 5f76 043c 3d7c a3bd
00000280: 604a 26be 46b3 edbd 128e 7cbb 41f9 eb3c
00000290: 629e c4ba 0596 d43a fd07 a33c 90c1 1f3c
000002a0: c6d6 ea38 b485 57bc 4411 1bbc a1b2 823d
000002b0: 1ffe 963c 8e37 1dbd 66b8 8b3c 8257 983d
000002c0: 0176 6a3a aff2 223b a108 82bd df88 5d3b
000002d0: 6ce7 8abd 7a50 89bd 0279 e3bb 50f2 193c
000002e0: 4855 e2bd 7e9c 8e3d e45f bc3d 5b93 bbbb
000002f0: 971f 32bd 9d14 8c3c 495a a7bc ddff 71bc
00000300: 1752 d23d c81e 5fbd 9a6c bcbd a20e abba
00000310: 0c4b a93b 865a 9ebc 7c23 643b deb4 c73c
00000320: a669 b03b 6afa 2a3d 1236 fd3b d637 973d
00000330: 3cff 19be a595 bb3d 7839 a63d df94 04be
00000340: db23 bf3b 67e4 7fbd 85f5 3ebd 95ef a4bd
00000350: 2703 98bc 91fe 0abe ece5 4a3c 2896 1a3d
00000360: d00b 02bc 767b 063b 1234 aebd f795 733d
00000370: 7e4c 01bd e772 42bc 6f27 bfbd 1eb4 323d
00000380: d86e 853c bd32 72bc ce0f 1dbb 7175 0e3a
00000390: 11af b4bc df98 d83c fc00 1b3b 38b8 86bd
000003a0: 5f6a 443b 74ef 6cbb 1db2 8cbb d362 3cbb
000003b0: 5c86 fb3d 0d73 6bbd d42f 8cbd 9ea6 c8bc
000003c0: 4178 2abd f0a4 593e 2223 de3c 7e13 98bb
000003d0: 1698 2bbe b7b2 9e3d 1162 e9b9 a837 a7b9
000003e0: cf90 67ba e508 00bc b5a6 87ba a3eb b03a
000003f0: f2a8 4cbc b15f 4d3d 06c8 d03c 0de1 b2bd
-0.1349 0.27369323 0.009305598 -0.006822343 -0.004496301 0.010265346 0.10541497 0.010459599
0.041264642 0.0075309714 -0.0128768245 0.058590066 -0.115634575 0.04431482 0.008367801 0.025591282
0.112939864 0.048887093 -0.021879543 -0.028014787 -0.010973456 0.005850118 0.033556152 -0.27733117
0.0040245117 -0.0009954496 0.02228522 -0.010649548 -0.011391254 -0.012446634 0.15781929 -0.14221956
0.056104045 -0.12327845 0.0011510323 0.01272785 0.0023327447 -0.0011054362 0.0017932997 0.002152535
-0.016501157 0.11978853 0.027272891 -0.02932289 -0.035048436 0.025704138 0.02675926 -0.080609225
0.002236927 -0.0026273895 0.024807652 -0.02582496 -0.005656736 -0.022065196 -0.013176522 -0.005996902
0.014571009 0.13301411 0.016035013 -0.0114640035 0.030470408 -0.003886785 -0.008591833 -0.013855269
0.10140585 -0.19303024 0.03244132 0.026426444 -0.0016953555 0.0026518053 0.04346315 0.07873264
-0.058600318 0.06800173 0.14991742 -0.039711297 -0.020262767 0.0032999797 -0.037580613 0.05164586
0.2366942 0.0625356 -0.007831961 -0.19431254 -0.10549394 -0.014581827 -0.03454207 -0.008493726
-0.0010511703 0.0073644444 0.013974746 -0.025878591 -0.0023860962 -0.011485605 0.016034042 -0.3376564
0.0053775376 0.005459325 -0.0052315528 -0.016036639 -0.048229728 -0.06004134 0.003190982 -0.006122394
-0.0048551364 0.012108815 -0.0037711132 -0.003769048 0.017566973 -0.1481228 0.055466752 0.09637058
0.12546335 0.19961742 0.04522935 0.010407095 -0.03639801 -0.024254084 8.277071e-05 -0.0004141191
0.004024613 0.004778589 -0.0068258853 0.0045153494 -0.048875794 0.009260846 0.051829044 -0.2515144
0.18148717 0.35605848 -0.005908106 0.0038243087 -0.001125238 0.007665757 0.08119385 -0.013730202
-0.028267251 0.02409251 -0.017744312 -0.06347492 0.015143582 -0.050968062 -0.029437419 0.046430953
-0.047350492 -0.0040766387 -9.7835815e-05 -0.008545306 -0.0035190792 0.00033408325 -0.1669786 0.06154089
-0.010671142 0.0006158155 0.015644487 0.003943621 0.004832279 -0.035115443 0.0080848625 -0.07982681
-0.1623931 -0.11606459 -0.003853683 0.028805377 -0.0015000815 0.0016219026 0.01990127 0.009750739
0.00011197994 -0.013154436 -0.009464566 0.06381727 0.018431721 -0.03838306 0.017055701 0.07438566
0.00089439756 0.002486389 -0.06349302 0.0033803505 -0.067824215 -0.06704803 -0.0069419155 0.009396151
-0.11051422 0.06963442 0.09197977 -0.0057243533 -0.043487158 0.017099673 -0.020428794 -0.014770475
0.10269564 -0.054472715 -0.092004016 -0.0013050626 0.005166417 -0.019330274 0.003481119 0.024378236
0.005383688 0.04174272 0.007727393 0.07383697 -0.1503877 0.09159402 0.0811643 -0.12947415
0.0058331317 -0.06247368 -0.046620864 -0.08053509 -0.01855619 -0.13573672 0.012383919 0.037740856
-0.007937387 0.0020520366 -0.085060254 0.05946919 -0.03156709 -0.011868215 -0.09333693 0.043628804
0.016288206 -0.014782605 -0.002396572 0.000543437 -0.022056134 0.026440082 0.002365171 -0.06578106
0.0029970629 -0.0036153467 -0.0042936937 -0.0028745427 0.122814864 -0.057482768 -0.0684506 -0.024493512
-0.04161859 0.21254325 0.027116362 -0.0046409955 -0.16757235 0.07748931 -0.00044514288 -0.0003189419
-0.0008833529 -0.007814621 -0.0010349365 0.001349796 -0.012491452 0.050140087 0.025486004 -0.08734331

seq_midi.2.s5.seq.norm f4 [64]
00000000: 302c 04be 5b9c 45c0 9024 58c0 68a0 90bf
00000010: dda6 acbf af9b 0ac0 1611 22c0 a71d a0be
00000020: 0de4 063f 06e0 32c0 d6f3 23c0 18b4 6abf
00000030: 5121 2fc0 f34d cabf f36f bbbf 503e 79bf
00000040: 230a 7fbd 4587 61c0 5326 0ac0 dd6d bbbf
00000050: 5c94 c8bf f90b 24bf 3867 1fc0 9904 4fc0
00000060: 91de 3dc0 abb5 21c0 1d11 36bf 3894 06c0
00000070: ca88 d0bf 3de9 4bc0 24cb 58c0 051e f1bf
00000080: 340b 3cc0 1605 41c0 b72a 35c0 3ba2 3dc0
00000090: 6744 3cc0 516a 37c0 e0ab b1bf 3e38 2bc0
000000a0: d547 f4be 92fc b6bf 7dd8 38c0 41e6 c2bf
000000b0: e5c0 1cc0 c89e db3d 9d5b d1bf e1dd 273e
000000c0: bdb2 5bc0 a377 efbf 0a60 cabf efcc d1bf
000000d0: 46b5 11c0 6fe4 54c0 835f 603e d0de f6bf
000000e0: 5de0 9dbf e410 27bf 15b6 71bf 273c 3bc0
000000f0: b3d1 27c0 f67b 06c0 2191 debf 9b33 2b3f
-0.12907481 -3.0876682 -3.3772316 -1.1298952 -1.3488423 -2.1657522 -2.5322928 -0.31272623
0.5269173 -2.7949233 -2.5617576 -0.9168105 -2.7364085 -1.5805038 -1.4643539 -0.97360706
-0.062265527 -3.5238812 -2.1585891 -1.4642903 -1.5670276 -0.6408077 -2.490675 -3.2346556
-2.9667094 -2.5267131 -0.7111986 -2.1027966 -1.6291745 -3.1861107 -3.3873987 -1.8837286
-2.9381838 -3.0159354 -2.830732 -2.9630268 -2.941675 -2.865864 -1.3880577 -2.6753078
-0.47711053 -1.4295828 -2.8882134 -1.5226518 -2.4492733 0.107236445 -1.6356083 0.16393234
-3.4327843 -1.8708385 -1.5810559 -1.6390666 -2.276689 -3.3264425 0.21911435 -1.9286747
-1.2334095 -0.6526015 -0.9441846 -2.9255464 -2.622174 -2.101316 -1.738804 0.6687562

seq_midi.2.s5.seq.angle f4 [64]
00000000: 7d14 c9bf b446 c9bf 3382 c9bf cfd0 cebf
00000010: aba3 c9bf e9bf d4bf c7cb dfbf 32b3 ccbf
00000020: 0712 c9bf 07e1 d1bf f650 c9bf 9017 cbbf
00000030: ab47 c9bf 7d1c c9bf 9f47 c9bf eaed cbbf
00000040: fc09 ccbf 74d6 d6bf 1f3e c9bf 6a1b c9bf
00000050: 7b2e cdbf 6887 cdbf 12b4 d4bf 8c91 edbf
00000060: ee48 c9bf 09bc d7bf 623c c9bf cf76 c9bf
00000070: 25ef dbbf 284e e4bf ca26 fabf ccc9 eabf
00000080: 5fc0 4640 4e72 ff3f 4107 e43f 4e8f f03f
00000090: edb9 ee3f ba88 f23f 3b7f d13f e608 e73f
000000a0: d615 c93f 121c da3f 2649 e93f 8932 c93f
000000b0: e756 c93f c115 c93f 5b71 c93f a0bb c93f
000000c0: 9da7 cc3f 5528 c93f 335a c93f e529 c93f
000000d0: 6a31 c93f c161 c93f 475d ca3f 8b36 c93f
000000e0: 3ca0 c93f 4d6a c93f 9f23 c93f ec99 c93f
000000f0: aa34 c93f a122 c93f 5146 d23f e051 cf3f
-1.5709378 -1.5724702 -1.5742859 -1.6157473 -1.5753073 -1.6621066 -1.7484063 -1.5992186
-1.5708627 -1.6396798 -1.5727832 -1.5866566 -1.5724996 -1.5711819 -1.5724982 -1.5931981
-1.5940547 -1.6784196 -1.5722083 -1.5711491 -1.602981 -1.6056948 -1.6617453 -1.8560042
-1.5725381 -1.6854259 -1.5721552 -1.5739383 -1.7182356 -1.7836351 -1.9543087 -1.8342834
3.1054914 1.9956758 1.7814714 1.8793733 1.865049 1.8947976 1.6366953 1.804959
1.5709789 1.7039816 1.8225448 1.5718547 1.5729645 1.5709764 1.5737718 1.5760384
1.5988652 1.5715433 1.5730652 1.571591 1.5718205 1.5732957 1.5809716 1.571977
1.5752025 1.5735565 1.5713996 1.5750098 1.5719197 1.5713693 1.6427709 1.6196861

seq_midi.2.skipLayer.weight f4 [60, 88]
00000000: ad72 9c3d e552 8bbc fc84 54bd a8ae 63bb
00000010: f04f aabd 3a32 2dbd 5578 aabd a92e 74bd
00000020: e8f3 8d3d 9969 863d 598e c93c e554 b43d
00000030: f6b7 933d 44f7 123e c3cf 85bc 44e8 9b3d
00000040: e31a 98bd fe8d 7ebd f67d 4cbd 6767 313d
00000050: b00f 8fbb f52b e33c 5075 84bb 1d33 d3bd
00000060: da5d af3d 7196 4b3d b17b a8bd 8b3c 9d3d
00000070: 730d c83c f7aa 993c bc4d cc3d f0f8 e7bd
00000080: 3318 7a3c a2e1 30bc 1408 68bd 87c1 92be
00000090: 23fa d1bd b28f 9dbd 1aed 0bbe 0229 2cbe
000000a0: cb9b 633c 4dfc 17bd 631c bbbc e76b 923d
000000b0: 909f 99bd 6ba0 7c3a 354c 5fbd 961d 5dbc
000000c0: 3b0e b53d a188 483d 8c91 e0bd a012 923d
000000d0: 8322 eebc b2f6 113d fc9e 8ebb dbc2 77bc
000000e0: 107a 08be cb1d ad3d ac51 ccbd a9d5 fc3c
000000f0: 46c6 82bc bc16 2e3c 8221 da3d 36fd 50bd
00000100: 0350 193e 5a41 b7bc bf99 c9bd 3043 5fbd
00000110: 2720 81bd a22d 88bd c6db f43d cea1 453d
00000120: c4ee d53c d476 aebd a6c8 843d 078b 44bd
00000130: 6a93 93bd 5fce 8abb 9101 e43d 9e5f a0bd
00000140: 8e3c c53c 7082 99bd 664d f13c 0f59 40bd
00000150: e00e abbd 0a53 3dbd ea35 0bbe dc50 3f3d
00000160: 8a50 893d 13a7 8e3e 90f0 713d 48b2 cabd
00000170: 013b 36bd bfab 9cbd d4d3 e03d 5a9c c4bd
00000180: 9499 a1bd 5a1e 5e3a 7879 bbbc ef15 643c
00000190: 9e92 803d 5834 483e 5954 1abc 0cc3 07bc
000001a0: 2909 72bd 89bf 9cbc 0a6c 053c 854f f43d
000001b0: c377 15bd b59c 963d bb03 973c 622b 24bd
000001c0: 0786 493d c84e cc3c 71df 87bd 3f2a a23d
000001d0: c30b 3dbd bafd d7bd 3bd0 d83d 0237 0cbe
000001e0: 9970 89bd 4aff 12bd 9e37 863d 5a2d 12bd
000001f0: 0cdd 55bd df04 b6bb f7f6 85bd a0e0 6dbd
00000200: ef13 333d c912 753c 477e 75bd 89ca 963d
00000210: d598 93bd 9b50 833d f1b6 0fbd 6502 cabc
00000220: 0c17 703d 9542 b6bb 1b4c 503c 6e56 303e
00000230: 9316 5dbc aeb5 06ba 74b4 253c e0ba 0cbc
00000240: bcc1 18ba 06e1 d1bd 5d74 27bd 7775 d8bc
00000250: e88d 88bd 00e4 13bc 00d1 7eba 2ba8 32bc
00000260: aac8 813d 5a68 043d aa5e d3bc b8de d1bd
00000270: 8ec1 8fbd ee3b e6bd e7ba 553d 1c98 df3c
00000280: 36b0 c73c c0b2 2abe d675 47bc ba47 1a3d
00000290: 908e 933d 4a5e 493c 39c6 e43d db47 e23c
000002a0: 7565 7d3d ddad c1bd 119b ec3d 955c 9fbc
000002b0: 0b88 583d 6096 13be d2df aebc 9f89 02bd
000002c0: 6902 ffbc 82e8 e4ba 91af e73d 3a22 8c3b
000002d0: 3671 06bd 4769 083d 04a2 71bd 6c0e 8bbd
000002e0: e4ee 3e3d 2775 b8bb 8382 353e ad63 8b3d
000002f0: fec9 f23c 62c2 32be 2120 133d 2d70 c2bd
00000300: 1338 04bd 6fdd b83d 15f5 1ebb aec4 dabd
00000310: 4f7b 053e 86af f93d 6bad 2ebd 1218 92bd
00000320: 9029 223c fb2c b9bc e9e3 113c 6ea1 21bc
00000330: 31e3 04bd 8cd2 31bd 88ad 3dbd f643 a73d
00000340: 7fe7 82bc af1c babd 5b78 6fbc 0b6c 0ebc
00000350: a083 c03c f7d8 48bd 79a0 26bd df01 983d
00000360: 656c 813d cec6 aa3a e640 22bb d5fb 8a3d
00000370: 162e 813d ca44 0d3d abaf 283d 4bd6 55bd
00000380: b576 07bb 8372 86bc 4140 4cbc 6bbb e1bc
00000390: a06a 7b3d b70a 273e 4033 c03c 4159 393d
000003a0: 8e79 363d 9a42 5bbc e840 633d 9a75 c53c
000003b0: 9100 4bbd 15af 96bd 4317 173d 1f3c 7abd
000003c0: 0fb3 a5bc 88a2 07bd 95d8 a33c 5fe6 ac3d
000003d0: aae3 09be 5f60 683d bf2b 5fbd 9b36 3c3d
000003e0: c339 0abd dcaf 603d 0e0e 823c 7856 1bbc
000003f0: b179 813c 992f c8bc 4ed5 0fbd 3b91 40bd
0.0763906 -0.0170073 -0.051884636 -0.0034741554 -0.08316028 -0.042284228 -0.08323733 -0.05961481
0.06931287 0.0656311 0.02460401 0.08805255 0.07212822 0.14352137 -0.01633442 0.076126605
-0.07427003 -0.062147133 -0.049924813 0.043311503 -0.004365884 0.027730921 -0.004042305 -0.103124835
0.08562823 0.04970402 -0.08226717 0.07677563 0.024420476 0.01875828 0.09975764 -0.11326778
0.015264559 -0.010795983 -0.05664833 -0.28663275 -0.10252788 -0.07693423 -0.13664666 -0.16812518
0.013892124 -0.037105847 -0.022840684 0.07149487 -0.07501137 0.0009636941 -0.054516036 -0.013495823
0.08840605 0.048958424 -0.10965261 0.07132459 -0.02906919 0.035635658 -0.0043524485 -0.015122141
-0.13327813 0.08452948 -0.09976515 0.0308636 -0.015963685 0.0106255375 0.10650922 -0.05102273
0.14971928 -0.02237003 -0.09843778 -0.054507434 -0.06304961 -0.06649329 0.11955981 0.048250012
0.026114829 -0.085187584 0.06483583 -0.04798415 -0.072058514 -0.004236027 0.11133111 -0.078307375
0.024076726 -0.07495582 0.029455852 -0.046959933 -0.083524466 -0.04622177 -0.13594785 0.046707973
0.06704815 0.27861843 0.05906731 -0.09897286 -0.044489864 -0.076499455 0.10977903 -0.09600134
-0.07890621 0.00084731507 -0.02288507 0.013921245 0.06277965 0.19551218 -0.009419524 -0.008286249
-0.059090767 -0.0191343 0.008143434 0.1192923 -0.036491167 0.07354108 0.018434396 -0.040080436
0.049200084 0.02493991 -0.06634415 0.07918214 -0.046153795 -0.105464414 0.10586592 -0.13692859
-0.067109294 -0.035887994 0.06553577 -0.035687782 -0.05221276 -0.00555478 -0.065412454 -0.058075547
0.043720182 0.014958092 -0.05993488 0.07362849 -0.07206885 0.06411859 -0.035086576 -0.024659345
0.05861573 -0.0055621364 0.012713457 0.1722047 -0.013494152 -0.0005138767 0.010113824 -0.008589476
-0.00058272085 -0.10247998 -0.040882457 -0.0264232 -0.066676915 -0.009026527 -0.00097204745 -0.010904352
0.06337102 0.03232608 -0.025801975 -0.10247558 -0.070193395 -0.112418994 0.052180197 0.027294211
0.024376016 -0.1666975 -0.01217409 0.03766606 0.07204926 0.012290547 0.111706205 0.027622154
0.061864335 -0.0945699 0.11553014 -0.019453326 0.052864116 -0.14412832 -0.02134696 -0.031869527
-0.031129079 -0.0017464312 0.113127835 0.004276541 -0.03282281 0.033303525 -0.0589924 -0.0678986
0.046614543 -0.0056292 0.17725568 0.06806121 0.029637333 -0.17456964 0.035919312 -0.09494052
-0.03228004 0.0902661 -0.0024254967 -0.10682045 0.1303532 0.121916816 -0.042645853 -0.07133497
0.009897605 -0.022604456 0.008904436 -0.009865148 -0.03244323 -0.043413684 -0.04630807 0.081672594
-0.015979527 -0.09087502 -0.014616097 -0.008692752 0.023500264 -0.04903504 -0.040680382 0.07422232
0.06319503 0.0013029219 -0.002475792 0.067863144 0.06307618 0.03448943 0.041183155 -0.05220632
-0.002067012 -0.016412025 -0.012466491 -0.027555188 0.061380982 0.16312681 0.023461938 0.045251135
0.044549517 -0.013382578 0.05548182 0.024103928 -0.049561087 -0.07357613 0.03688742 -0.061092492
-0.020226983 -0.033113986 0.020000735 0.08442377 -0.13465753 0.05673253 -0.05448508 0.045950513
-0.033746492 0.054855213 0.015875842 -0.009481065 0.015805097 -0.024436759 -0.035115533 -0.047013503

seq_midi.3.s5.seq.C_bias f4 [40, 2]
00000000: db99 4d3d 0000 0000 25c9 64bd 0000 0000
00000010: d83a 3a3d 0000 0000 b235 10bd 0000 0000
00000020: a02d 283e 0000 0000 71af 78be 0000 0000
00000030: eec5 8c3d 0000 0000 6c70 04be 0000 0000
00000040: b8fe 3f3e 0000 0000 229a bdbc 0000 0000
00000050: 7df4 3ebe 0000 0000 eae8 e0bd 0000 0000
00000060: a463 503d 0000 0000 b2a0 b0bd 0000 0000
00000070: 11a7 77bc 0000 0000 3aa8 443e 0000 0000
00000080: 0083 263e 0000 0000 9bef 1bbe 0000 0000
00000090: e5b8 84bd 0000 0000 89ac 80bd 0000 0000
000000a0: 43c6 06be 0000 0000 aae6 653d 0000 0000
000000b0: 0496 d6bd 0000 0000 fb56 a3be 0000 0000
000000c0: 68f3 95be 0000 0000 ee39 88be 0000 0000
000000d0: c651 553e 0000 0000 335c 48bd 0000 0000
000000e0: 1ef6 f9bd 0000 0000 e7a1 813c 0000 0000
000000f0: ffd5 11be 0000 0000 667c 26be 0000 0000
00000100: 93a8 1d3e 0000 0000 7945 ddbc 0000 0000
00000110: 49f0 9cbc 0000 0000 cb37 de3d 0000 0000
00000120: de9d 613d 0000 0000 5c4b f63b 0000 0000
00000130: 8b91 0e3d 0000 0000 69be b63d 0000 0000
0.050195556 0.0 -0.05585589 0.0 0.045466274 0.0 -0.035207458 0.0
0.16423655 0.0 -0.24285676 0.0 0.068736896 0.0 -0.1293351 0.0
0.18749511 0.0 -0.023144785 0.0 -0.18647952 0.0 -0.10981925 0.0
0.050876275 0.0 -0.086244 0.0 -0.015115515 0.0 0.19204798 0.0
0.1626091 0.0 -0.15228121 0.0 -0.06480578 0.0 -0.062829085 0.0
-0.13161568 0.0 0.05612818 0.0 -0.10477832 0.0 -0.31902298 0.0
-0.29287267 0.0 -0.26606697 0.0 0.20831975 0.0 -0.048916053 0.0
-0.12205146 0.0 0.015824271 0.0 -0.1424179 0.0 -0.16258392 0.0
0.15396337 0.0 -0.027010666 0.0 -0.019157546 0.0 0.108504854 0.0
0.055082195 0.0 0.0075163078 0.0 0.03480677 0.0 0.089230366 0.0

seq_midi.3.s5.seq.C f4 [40, 64, 2]
00000000: bf17 1a3c 25f9 adb9 7b5a 2b3d a657 a2bd
00000010: 0179 eb3a a95a a73b e355 513b 2c53 833b
00000020: 25e6 40be eb2d a5be a00e 1c3c fe2b 423b
00000030: 20ed 1cbd 8968 8a3e 09d7 d93d e876 283e
00000040: e470 c038 6430 5b3a 4489 8cbe fa56 873d
00000050: 4486 3e3c 295b 39bc ab66 863a c5d2 5e3c
00000060: 25e1 7e3c b481 47bc 152c 393d e148 05bd
00000070: cfce 8dbd 1915 e9bb e92b 88b9 3c2f fabb
00000080: c5bf daba 7192 ffbb 0cf8 a63c a925 6abc
00000090: d8ef d33b 85d0 0939 c13f f4bc 3715 47bd
000000a0: c901 173c b65a 9f3c 6145 20be 0da0 2fbd
000000b0: e2f5 3fbc 6d94 963d 679d d939 0ca0 b9ba
000000c0: 54be 05ba 09f7 ffb9 0f97 2abe 3322 05be
000000d0: fa1b 9439 28ec 753a cd5a 643b 3ece 2f3b
000000e0: 7963 39bd 809e c23c 8fa8 1a3d 04ba 2f3b
000000f0: b239 213d 11a6 76bd f4b4 4e3c 6777 863c
00000100: 1e16 493c a349 313c 1dbc 043d b254 96bc
00000110: fcf7 51bb 3ec2 ef3b bee0 3e3b fd00 13bd
00000120: 4ecf 43bc 605d 92bc 7a4b f2bc c23b ddbb
00000130: 499f b83c 5f64 ba3b 4888 41b8 2013 9cb9
00000140: b8d5 593e 0be2 663d 28fc e23b cbc3 aa3a
00000150: 3a00 933c ed94 923c 8b46 f9ba 2fe5 a639
00000160: 9d64 41bd a1e8 81bb b332 3bbb 1082 103a
00000170: 3fc4 153d f6d9 2e3e 38cc 1f3b 6195 d1ba
00000180: 17f4 1d3d 5bbb 703c c877 943c a261 c3bb
00000190: fb22 5e39 11f2 e3ba 8dbd 2fbd 4ec7 ff3a
000001a0: dcf0 62bb 59f8 3d3b 6648 cc3c 4991 ad3b
000001b0: 7a9b 1c3d 3fbd fdbc 8ef2 203c 7e55 e63b
000001c0: 9c49 57bd 6e57 d33c 3176 f73c 0695 74bb
000001d0: 700e 063b e8e9 c33b 01ab 003c b5b3 2dbb
000001e0: 5942 49bc f5c9 ff3b 2a10 2a3b b259 7b3b
000001f0: 66ee 85bd 872d da3c d6ca fabd 1f24 7f3c
00000200: a9b9 a63b 5d41 d63a 5ee4 86bc 3b1a b8bb
00000210: 1018 273b d2ad e23a a1a1 eebc ca3a 66be
00000220: d16b 803c b37e dd3d c9e7 033c 86b7 0fbb
00000230: 9116 113e df76 29be b3ac 093d 7d03 953d
00000240: 8ba6 50bc 51fa 853b 71bf dfbd 6d55 123e
00000250: ebb2 903c f4f2 1abd a035 89bb 3026 0abc
00000260: 5dc0 8d3d 0572 4f3d fe1f 983d d294 8ebd
00000270: b1a8 af3d cbff abbd 3e47 74b9 d1df 15bc
00000280: 41a6 a2bb 755d b53c 672e 76bd cb48 c8bd
00000290: 0caf c1bc ddcb 3cbb 4bff 273d 31b8 53bd
000002a0: b1ed 13bb 4ad6 74bc b684 793b 3d85 3f3b
000002b0: f3e9 b3bb 9594 cdbd 3e3f 5bb9 c1bc e23a
000002c0: 32fa 153c 8eab 7f3a 388b debb e979 bbbc
000002d0: 1537 473b 4a6d a63b de0b 0bba f38e d63a
000002e0: 7c08 0d3c dbf7 b03c 8b9c 39bd 42ec fbbc
000002f0: ccc9 593c ec4b a6bb 1186 2abd 7bd6 383d
00000300: 417a 37bd 06f5 a6bc 384d 703c 63f1 6abd
00000310: 0d7f 05bd f16f 9bbc 04e8 4cbd c58a a1bd
00000320: 6079 833c 2188 293d 5c06 313b 12a6 39ba
00000330: 47e6 c33c 84dc 033d 8be7 dbba 389d b3bb
00000340: 9d72 473d 6849 22bc 92e3 f53b 36f5 70bc
00000350: c259 3d3b d4b8 87bc c6db 5c3a dcc5 b7ba
00000360: 0e1c 823c 1f16 cf3b 1c40 0fba b280 453b
00000370: 8171 5cbc a4f0 a23c 31dc d2bc 004a 8fbb
00000380: 46a0 aa3c cea9 83bd 6a36 8139 f73c 683b
00000390: 5ec2 1f3a 86e0 00bb e6e4 8b39 6f0c 903d
000003a0: 512c afbb 878c 32bb 5076 de3c 1202 d23c
000003b0: 1746 eb3b 9dd5 e4bb 4cc4 56ba 509b c13b
000003c0: 1866 8d3b 3cdf 30bb 727b 1abd 45fd 563d
000003d0: f251 2f3b 0b9b 9e3b 35bd 0d3c f16f 5d3b
000003e0: fcca 34ba bdd4 af3a 3d4d f4bb ce12 62bb
000003f0: d4e6 4ebb af56 8b3a 905d 3cbe 9058 49bd
0.009405076 -0.00033182758 0.041834336 -0.07926874 0.0017965139 0.005107243 0.0031942062 0.0040077176
-0.18837793 -0.32261595 0.009524971 0.0029628272 -0.038312078 0.2703288 0.10636718 0.16451609
9.176301e-05 0.0008361398 -0.27448475 0.06608386 0.011628691 -0.011313238 0.0010253986 0.013600056
0.015556608 -0.01217692 0.045208056 -0.032540206 -0.06924211 -0.0071131107 -0.00025972657 -0.0076350253
-0.0016689232 -0.0077994396 0.02038195 -0.014291205 0.0064678006 0.00013143018 -0.029815556 -0.048604216
0.009216734 0.019452434 -0.15651466 -0.042877246 -0.011716338 0.07352529 0.0004150674 -0.0014162078
-0.00051019085 -0.00048821446 -0.16659187 -0.13001327 0.00028249604 0.00093811983 0.003484416 0.002682581
-0.04526088 0.02375722 0.037758406 0.0026813755 0.039361663 -0.060216967 0.012616385 0.016414357
0.01227334 0.010820779 0.03240596 -0.018350933 -0.003203868 0.0073168566 0.0029125656 -0.035889614
-0.011951281 -0.01786679 -0.029577006 -0.0067515085 0.02253689 0.0056882347 -4.6141708e-05 -0.00029768888
0.21272933 0.056367915 0.006927032 0.0013028322 0.017944444 0.017893279 -0.0019018216 0.00031832742
-0.047215093 -0.003964499 -0.0028564155 0.0005512545 0.036564108 0.17075333 0.0024383198 -0.0015989953
0.03856286 0.0146931065 0.018123522 -0.0059625665 0.00021184601 -0.0017390867 -0.04290538 0.0019514353
-0.0034628427 0.0028987138 0.024936866 0.0052968604 0.03823421 -0.030974029 0.009823455 0.0070292344
-0.052560434 0.025798526 0.030207725 -0.003732027 0.0020455383 0.0059788115 0.0078532705 -0.0026504819
-0.012283885 0.0078060576 0.0025949576 0.0038353023 -0.065396115 0.026633037 -0.12245719 0.015572577
0.0050880504 0.0016346384 -0.016466316 -0.0056183613 0.002549652 0.0017294234 -0.029129805 -0.22483364
0.01567641 0.108151816 0.008050867 -0.0021929457 0.14168765 -0.16549252 0.033611964 0.07276056
-0.012735019 0.004088678 -0.109251864 0.142904 0.01766344 -0.037829354 -0.004187301 -0.008431956
0.06921456 0.050645847 0.07427977 -0.06961979 0.08577097 -0.08398398 -0.00023296193 -0.0091476
-0.0049636667 0.02213929 -0.060102846 -0.09779509 -0.02364304 -0.0028808035 0.04101495 -0.05168933
-0.0022572095 -0.014943669 0.0038073487 0.0029223703 -0.0054905354 -0.100381054 -0.00020909027 0.0017298685
0.0091538895 0.00097530417 -0.0067914985 -0.02288528 0.0030397822 0.0050789462 -0.00053041975 0.0016369506
0.00860798 0.021602562 -0.045315307 -0.030752305 0.013292741 -0.0050749686 -0.041631762 0.04512642
-0.044794325 -0.020380508 0.014666848 -0.05735911 -0.03259187 -0.018974276 -0.050025955 -0.07887796
0.016049087 0.04138959 0.0027011847 -0.00070819363 0.023913516 0.032192722 -0.0016777379 -0.0054813884
0.048693288 -0.009905197 0.007503935 -0.0147069 0.002889261 -0.016567625 0.0008425083 -0.0014020759
0.015882518 0.0063197757 -0.000546457 0.0030136523 -0.013454796 0.019890137 -0.025739761 -0.004372835
0.020828377 -0.06428872 0.0002464534 0.0035436729 0.00060943316 -0.0019665076 0.0002668269 0.070336215
-0.005345859 -0.0027244405 0.027156025 0.025635753 0.007179986 -0.0069834725 -0.00081927027 0.0059084073
0.004315149 -0.0026988527 -0.037715383 0.05248763 0.0026751724 0.00484026 0.0086510675 0.0033788646
-0.0006896702 0.0013414841 -0.0074554966 -0.0034496072 -0.003157069 0.0010630692 -0.18395066 -0.049156725

seq_midi.3.s5.seq.norm f4 [64]
00000000: fae4 41c0 a5d8 f4bf d854 a5bf 6f44 2bc0
00000010: c88e 533f 4746 15c0 bc84 343f 250d aebf
00000020: ccc8 acbf 9dbc 253f 034c 27bf b787 17c0
00000030: 34d6 21c0 5ad0 bbbe be15 673e 95e3 18c0
00000040: 5ed6 67c0 106a 7bbe 3a12 2fc0 880f 0bbf
00000050: cdc9 08c0 5187 96bf 659d fdbf 0669 e0bf
00000060: 8391 42c0 726c 97bf f699 11c0 7774 97c0
00000070: f684 c7bf e18c 23c0 c442 d3bf c240 28c0
00000080: 4dde 7dc0 9d97 29c0 1c04 98c0 39ac 27c0
00000090: 0cc5 3ac0 1132 efbf df51 42c0 e6d4 1cc0
000000a0: 4a7d 4dbf 22c0 26c0 9127 37c0 4902 20c0
000000b0: c4b7 8dbf 412e 85c0 32c9 87bf 296d 50c0
000000c0: 676f 35c0 47e6 9dbf b7e9 61c0 51a6 39c0
000000d0: 72f2 0dc0 4815 40c0 bf24 b4bf 6f4c 06c0
000000e0: bce8 47c0 7e58 d6be 1a34 5fc0 5259 5bc0
000000f0: 4c82 02c0 86c8 02c0 0853 80bf 33b3 b7bd
-3.0296006 -1.9128615 -1.2916517 -2.6760519 0.8263974 -2.3324144 0.70515037 -1.3597761
-1.3498778 0.64740926 -0.6535036 -2.3676584 -2.528699 -0.36682397 0.22566888 -2.3888905
-3.622459 -0.24552178 -2.7354875 -0.54320574 -2.137317 -1.1760045 -1.9813658 -1.7532051
-3.0401313 -1.182997 -2.275022 -4.732967 -1.5587451 -2.5554736 -1.650475 -2.6289525
-3.9666932 -2.6498787 -4.7505016 -2.6198866 -2.9182768 -1.8687154 -3.036247 -2.4504943
-0.802693 -2.6054769 -2.86179 -2.5001395 -1.1071706 -4.161896 -1.0608275 -3.2566626
-2.8349245 -1.23359 -3.5298898 -2.9007761 -2.2179227 -3.001299 -1.4073714 -2.0984151
-3.12358 -0.4186439 -3.487555 -3.4273267 -2.0392027 -2.043489 -1.0025339 -0.089697264

seq_midi.3.s5.seq.angle f4 [64]
00000000: 9780 c9bf 7e52 cebf 9c31 c9bf 696a cbbf
00000010: 97db d2bf f137 c9bf 65a3 c9bf d3e6 d0bf
00000020: 322c c9bf b84a d2bf 161a c9bf 2d24 cdbf
00000030: 9a56 d6bf b924 cabf 0e14 c9bf 87e0 cbbf
00000040: e05a cebf 2018 c9bf 5164 cabf 388e ccbf
00000050: e76f ccbf 972e c9bf 5b26 cbbf 3e52 cabf
00000060: 6e3b d2bf 7ec2 cbbf d6cd cabf ad21 c9bf
00000070: 8c92 cebf 8e43 f7bf c859 d4bf 495a 06c0
00000080: ebd4 3cc0 2669 0840 cb3d 0d40 e069 0540
00000090: eb0e 0440 3210 cb3f 9448 0140 a4b1 cc3f
000000a0: f031 d23f 428b ce3f 2e76 d43f aba0 ca3f
000000b0: f072 cc3f 2b1f c93f 183c cc3f 0a11 d03f
000000c0: 5948 e73f 6727 c93f 4cbb c93f c6dd ef3f
000000d0: ba89 ca3f 855c ea3f 6d3a c93f 3f9c cb3f
000000e0: 5e90 c93f c591 d03f 0eb0 c93f 0e8a c93f
000000f0: 59df c93f 723c c93f 4b23 c93f 0436 ce3f
-1.5742368 -1.6118925 -1.5718265 -1.5891849 -1.6473264 -1.5720197 -1.5752989 -1.6320442
-1.5716612 -1.6429052 -1.5711086 -1.6026665 -1.6745179 -1.5792457 -1.5709245 -1.5927895
-1.6121483 -1.5710487 -1.5811864 -1.5980902 -1.597165 -1.5717343 -1.587108 -1.5806348
-1.6424387 -1.5918729 -1.5844066 -1.5713402 -1.6138473 -1.9317491 -1.6589899 -2.0992606
-2.9504955 2.1314178 2.2068965 2.084587 2.0634105 1.5864317 2.0200548 1.5991712
1.642149 1.6136248 1.6598566 1.5830282 1.5972576 1.5712637 1.5955839 1.62552
1.8068954 1.571515 1.5760283 1.8739555 1.5823281 1.8309485 1.5720955 1.5907058
1.5747182 1.6294485 1.5756853 1.5745256 1.5771285 1.5721571 1.5713896 1.6110234

seq_midi.3.skipLayer.weight f4 [40, 60]
00000000: 991f 57be 5a70 63be 5693 a3ba c8ce 4a3d
00000010: 4ae6 1dbe 63e4 023e 842a fa3b a23e c7bd
00000020: 23ba 613e bdf4 223d 7d5c 85bd 44e1 003d
00000030: 1835 c2be 7597 ab3d 3809 1f3d a119 053e
00000040: c977 5dbe a560 ce3d cfc4 2dbe 41c8 863e
00000050: bd59 d4bd e037 26be b0ac 313e a477 0dbd
00000060: f588 77bd ade1 bb3e 0ac8 91bd bc19 343d
00000070: bedc c33e dee4 81be 465a 54be f88c 06be
00000080: 093d c23d 48cd ecbd 81b5 213e 4655 953e
00000090: 1633 2dbd 680a e5bd 0ad4 2d3e 095b 71bd
000000a0: 0f7b a7be 8ee1 76bd 1cde 8f3e ca39 42be
000000b0: 0b2f a6be bb61 5d3d 0842 913e f5d3 cfbd
000000c0: b1f9 403e d550 cc3d ced0 423d 7bbc 8b3e
000000d0: 2a7e d33d 3c10 26be b398 4f3e fc02 173d
000000e0: fae9 a73e 47ae 42be 7c29 693c cf54 0ebe
000000f0: d8eb cb3d 10d5 f1bd 4b6e 2e3d 5a62 1f3e
00000100: d96d 2bbe d85f df3e d967 30bc f5a7 073e
00000110: a55d fdbd ffc1 313e d98e 2a3e 6da5 8fbd
00000120: ca15 463c 3a4a b7bd 764b c0bb a77c eabd
00000130: 67f4 4e3e 748c 27bd 1b3b 3cbd 10d0 b43d
00000140: 8fdf 1b3e f687 16bd 228b 863e 72af 77bd
00000150: f375 39be 19b2 81be 165c 02bf 4e94 64be
00000160: 966b dbbd 3ace d7be 0494 173e b03f d3bd
00000170: d994 cfbd a3f0 ed3c 322d 29be bd32 a83e
00000180: 40bd c8be 139c 443e 1963 5d3d 88f2 2e3d
00000190: 39ca 683e 9c30 b83d e6fa 4d3e bd11 0d3d
000001a0: a7f5 7abc 30b7 2fbd 7e75 c6be a5ae 173e
000001b0: bc60 3e3d 8b4c b0bd 387c cfbd 81c0 923e
000001c0: 0f27 313d 33fb 6c3d 9399 5d3e a99d 533e
000001d0: 3ca2 0abd 802f e13b 5206 5fbe 2a0a 48be
000001e0: 30f4 993e 241f 2abd 91d0 cd3d 0ff3 fcbd
000001f0: 9e8f c03b 7001 3d3e a9e5 9bbc 7994 103d
00000200: 64fa edbc c33f a3bb dc4d c63d db18 86bc
00000210: af55 ef3d c4d5 0e3e 1806 b83c 4de4 4abd
00000220: fdac 30be f451 86bd ce72 773d 19a0 f23d
00000230: b18f 7bbd 1363 4b3d 332b 7cbd c789 eb3d
00000240: 4c0d 0e3e 2870 ff3c ed97 ba3c cb36 033d
00000250: 7900 063e a869 44bc 7b14 f2bd f0fa d83d
00000260: 3172 76bd a9c5 cebc 78ac e9bd 4f6c 503e
00000270: 44ee b13c a042 55bd 4a40 e63d 4faf 2f3e
00000280: 582d 95bb 48a2 0bbe 596e d53d 8c50 07bd
00000290: 8b59 b5ba 43ff 51bd 16d9 f0bd 5b08 563d
000002a0: 70af 813d 6438 e93c 67d8 44be ef6a 0c3e
000002b0: cd60 463c b695 58be a297 15be 821f bd3d
000002c0: 3df6 2fbd 01fc 273e 30dc acbd cfd2 833d
000002d0: 3f39 0e3e ef89 183d ffae 76bd 0144 c43c
000002e0: 5a3b 8b3d e015 e3bd ce0e e03c da83 d23d
000002f0: e08f cdbc 9064 29bd c5a7 e33b ab4f e53c
00000300: a132 34be 2b77 6a3c 84dc 0fbc 73ff 84bd
00000310: fa60 09bc dc35 11bd 24f2 8dbd baff 833b
00000320: 0c08 2fbd a8d0 143d c041 e0bd 05a0 bdbd
00000330: 9ae3 8bbd 7cb2 203e 40b7 5ebc df29 1e3d
00000340: a37e bb3c 1957 0c3e db1c d9bd 0afd e4bd
00000350: c547 c6bd 438a dabc d148 c1bd 48fd 22bd
00000360: 1497 9abd 7dea abbd 43ae cc3d 1968 9ebd
00000370: aa55 953d 13cb a73c 7325 46be 2a7e 20be
00000380: 9fff 2ebe 8e34 2dbd 1096 12be 05d7 363e
00000390: 29cd 433b e808 7abc 8e6d f6bd 33c4 5b3d
000003a0: 19e6 e63d 9a83 7abd 467a a33c 1520 dcbc
000003b0: 8fb6 ed3b 3089 4fbc 4959 303d d69c b23e
000003c0: 3b93 833d b17b f53c a8b0 db3d afc1 4fbe
000003d0: 3e6c dfbd 9520 98bb 376c 21bc 1964 603e
000003e0: 5fee 823e 6091 45be c5ad 6fbe fe11 a13d
000003f0: c4c7 e4bd fd2e cc3d f92e 843c dd54 cabc
-0.21008147 -0.22210827 -0.0012479823 0.04951361 -0.1541988 0.12782435 0.007634463 -0.09728743
0.22043662 0.039784182 -0.06511781 0.03146483 -0.37931132 0.083784975 0.03882715 0.12998058
-0.21627726 0.10077027 -0.16969608 0.26324657 -0.10368679 -0.16232252 0.17351031 -0.034537926
-0.060433347 0.36695614 -0.071182325 0.043969855 0.3825435 -0.25369924 -0.20737562 -0.13139713
0.09484298 -0.11562592 0.15791894 0.2916662 -0.042285047 -0.111836255 0.16975418 -0.05892471
-0.32711074 -0.0602737 0.28099144 -0.18967357 -0.32457766 0.05404828 0.2837069 -0.101478495
0.1884525 0.09976355 0.047562413 0.27292237 0.10326798 -0.1621713 0.20273094 0.03686808
0.32795697 -0.19011794 0.014231082 -0.1389954 0.09957093 -0.118082166 0.042585652 0.15564862
-0.16741122 0.4362781 -0.010766947 0.13247664 -0.12371377 0.1735916 0.16656055 -0.07013974
0.012090156 -0.089497045 -0.0058683706 -0.11449557 0.2021042 -0.04090543 -0.045954805 0.08828747
0.15222 -0.036750756 0.26278025 -0.060470052 -0.181114 -0.2533119 -0.5092176 -0.22322199
-0.1071388 -0.42149526 0.14802557 -0.10314882 -0.10135812 0.029045409 -0.16521147 0.3285121
-0.39206886 0.19200163 0.054049585 0.042711765 0.22733392 0.089936465 0.20115241 0.034440745
-0.015317357 -0.04289931 -0.38761514 0.14812715 0.04647897 -0.086083494 -0.10131115 0.28662494
0.04325014 0.05785675 0.21640615 0.20665611 -0.033846125 0.0068721175 -0.21779755 -0.19535127
0.30069113 -0.041533604 0.100495465 -0.12351047 0.0058764955 0.1845758 -0.019030409 0.035297845
-0.02905006 -0.004981966 0.09682819 -0.016369274 0.11686265 0.13948733 0.022463843 -0.04953413
-0.1725349 -0.065586 0.06041222 0.118469425 -0.06141633 0.04965503 -0.061564635 0.11500888
0.1387226 0.03118141 0.022777522 0.032034677 0.13086118 -0.011988081 -0.118203126 0.105947375
-0.060167495 -0.025240736 -0.11409849 0.20353816 0.02172006 -0.05206549 0.11242731 0.17156719
-0.0045525245 -0.13636124 0.10421438 -0.0330358 -0.001383589 -0.051268827 -0.11760156 0.052254062
0.0633229 0.028469272 -0.19223176 0.13712667 0.01210804 -0.2115086 -0.14608625 0.09234525
-0.04295944 0.16404726 -0.08440435 0.06436693 0.13889025 0.03724092 -0.060225483 0.023958208
0.0679843 -0.11088157 0.02735081 0.10279055 -0.025093019 -0.04135567 0.00694749 0.02799209
-0.17597438 0.014310638 -0.008780602 -0.064940356 -0.008384937 -0.035451755 -0.0693095 0.0040282877
-0.042732283 0.036331803 -0.10950041 -0.09259037 -0.06830521 0.15693086 -0.013593495 0.03861415
0.022887534 0.137051 -0.10601207 -0.11181076 -0.09681658 -0.026677256 -0.09437717 -0.03979233
-0.07548347 -0.083943345 0.09994175 -0.07734699 0.0729173 0.020482576 -0.19350223 -0.15673128
-0.17089699 -0.04228645 -0.14315057 0.17855461 0.0029876924 -0.0152609125 -0.12032615 0.053653907
0.112743564 -0.06116066 0.019955765 -0.026870767 0.0072544287 -0.012666985 0.0430539 0.3488528
0.06424566 0.029966207 0.10727054 -0.20288728 -0.109093174 -0.004642556 -0.009852461 0.21913184
0.25572488 -0.19293737 -0.23406132 0.0786476 -0.11170915 0.099699 0.01613568 -0.02469867

seq_midi.4.s5.seq.C_bias f4 [20, 2]
00000000: 3660 13bc 0000 0000 52ed f43b 0000 0000
00000010: 4ef3 253c 0000 0000 9b30 17bd 0000 0000
00000020: bc4d eabb 0000 0000 084c a33c 0000 0000
00000030: 1db9 8a3e 0000 0000 ae52 d63c 0000 0000
00000040: f661 6f3e 0000 0000 62a9 f53c 0000 0000
00000050: 05c3 8dbc 0000 0000 edcb 57be 0000 0000
00000060: 8094 4a3e 0000 0000 7b6b e53d 0000 0000
00000070: 92c6 a1bb 0000 0000 ff57 cf3a 0000 0000
00000080: c8ab 99bc 0000 0000 2ef7 e83d 0000 0000
00000090: f911 5fbe 0000 0000 e650 87bc 0000 0000
-0.008995106 0.0 0.00747458 0.0 0.010128809 0.0 -0.03691159 0.0
-0.00715038 0.0 0.019933715 0.0 0.27094355 0.0 0.026162472 0.0
0.23377213 0.0 0.029987995 0.0 -0.017304907 0.0 -0.21073885 0.0
0.19783211 0.0 0.11202141 0.0 -0.0049370015 0.0 0.0015819072 0.0
-0.01875867 0.0 0.11375271 0.0 -0.217842 0.0 -0.016518068 0.0
